hepgnn_4top_resampling/result/train20220728_4top_cla_alledge_w1_L1/weight.pth (torch, 152509 bytes, 25 tensors)

conv1.conv.local_nn.0.0.weight f4 [64, 7]
0	0x3eb7f69a	0.3593033
1	0x3e93f35d	0.2889661
2	0x3ec3abe5	0.38217083
3	0xbcb1edb2	-0.021719787
4	0xbea2b4ee	-0.31778663
5	0xbe6de087	-0.23230182
6	0xbdc1fe5a	-0.09472342
7	0x3d3b40cb	0.04571609
8	0xbe00d0b0	-0.12579608
9	0xbe65a0cd	-0.22424622
10	0xbd18f54e	-0.037343316
11	0x3e6a4d73	0.22881107
12	0x3ea3d5e2	0.31999117
13	0xbe41de8d	-0.18932553
14	0xbe5de5da	-0.21669713
15	0xbc8ea111	-0.017410787
16	0x3e2a5f51	0.16637923
17	0x3e2d40f0	0.16919303
18	0xbe10105e	-0.14068744
19	0x3e060d8b	0.13091104
20	0xbd839b60	-0.0642612
21	0xbd39cbb6	-0.04536029
22	0xbe9ceeed	-0.30651036
23	0x3e8a9fe8	0.27075124
24	0xbe88778f	-0.26653716
25	0x3dc0ea96	0.09419744
26	0xbe41b3fb	-0.18916313
27	0xbea32558	-0.3186443
28	0xbcb3a0f1	-0.021927329
29	0x3df0fe19	0.11767215
30	0xbeb17cc0	-0.3466549
31	0x3cfd7880	0.030941248
32	0xbe1685f3	-0.14699535
33	0xbd926548	-0.07148224
34	0xbe3785b5	-0.17922099
35	0xbd40deae	-0.047087364
36	0x3eae1538	0.34000564
37	0xbeba096e	-0.3633532
38	0xbe371b85	-0.17881592
39	0x3ea4753e	0.321207
40	0xbca2f70e	-0.019893195
41	0xbda0d210	-0.07852566
42	0x3e026807	0.12734996
43	0xbe24ac71	-0.16081406
44	0x3e16ac75	0.14714225
45	0xbe70354c	-0.23457831
46	0xbdddfdc2	-0.10839416
47	0x3e8e97df	0.27850243
48	0x3d03bbff	0.03216171
49	0xbe990fa1	-0.29894736
50	0x3e6888c7	0.22708426
51	0xbe809ae4	-0.25118172
52	0xbcc7ce67	-0.024390412
53	0xba8f25ec	-0.0010921336
54	0xbe2a8d31	-0.16655423
55	0x3e2d385d	0.16916032
56	0xbd2acb0f	-0.041697558
57	0x3e4eabe3	0.20182757
58	0x3e40cb56	0.18827567
59	0xbe99e1e0	-0.3005514
60	0x3e8e315e	0.2777204
61	0x3bd6758c	0.0065447744
62	0x3e9686d2	0.29399735
63	0x3e6e91dd	0.2329783
64	0xbdd3ad6d	-0.10335813
65	0xbda18b13	-0.078878544
66	0xbe1145b8	-0.14186752
67	0xbe356e77	-0.1771792
68	0x3e8ff7a8	0.28118634
69	0x3eb66341	0.356226
70	0x3e31f47e	0.17378423
71	0x3eabea42	0.33577162
72	0x3e01dd48	0.12682068
73	0x3d5b72e2	0.053576358
74	0xbe11f7bb	-0.14254658
75	0x3eb61cf3	0.35568962
76	0xbe8acd3b	-0.27109703
77	0x3e8f5712	0.27996117
78	0xbd729b05	-0.05922987
79	0xbe16d300	-0.14728928
80	0xbb949867	-0.0045347693
81	0x3e729212	0.23688534
82	0xbea6b11f	-0.32557008
83	0xbe9557c9	-0.29168537
84	0xbd8dac4a	-0.06917627
85	0xbebfcda3	-0.37461576
86	0x3d525f12	0.051360197
87	0xbe890458	-0.26761127
88	0xbeadb26c	-0.33925188
89	0xbe1d3869	-0.1535355
90	0xbe4f63aa	-0.20252863
91	0xbb836f18	-0.004011046
92	0x3e816a3e	0.2527637
93	0xbda395da	-0.07987566
94	0x3da2b001	0.07943726
95	0x3e2c17ed	0.16806002
96	0x3de677c0	0.11253309
97	0x3cc2a51d	0.023760373
98	0x3d4465ed	0.047948766
99	0x3e68271b	0.22671168
100	0xbeaf5edd	-0.34252062
101	0xbe24ef41	-0.16106893
102	0x3eb12216	0.34596318
103	0xbdd4e2fd	-0.10394857
104	0x3e7ceeda	0.2470049
105	0xbe9a9ae9	-0.30196312
106	0x3dacdd97	0.084407024
107	0xbc350a62	-0.011049839
108	0xbeb5c2d1	-0.35500196
109	0x3dad7a78	0.08470625
110	0xbd242de3	-0.040082823
111	0xbebbd3e8	-0.3668511
112	0xbdf0d609	-0.11759574
113	0x3e9f6fd8	0.31140018
114	0x3d9b4a7e	0.07582568
115	0xbe6c580b	-0.2308046
116	0xbe47bd53	-0.19505815
117	0xbe309812	-0.1724551
118	0xbe489178	-0.19586742
119	0x3d799125	0.060929436
120	0xbe30317f	-0.17206381
121	0x3e9054fb	0.28189835
122	0x3e583cba	0.21116915
123	0x3e8d889a	0.2764328
124	0x3c5a5ee8	0.0133282915
125	0x3eb0b988	0.3451655
126	0xbea201ad	-0.31641904
127	0xbe50d0ca	-0.20392147
128	0xbe5c45f3	-0.21511059
129	0x3e34dc91	0.17662264
130	0xbeb80698	-0.3594253
131	0xbe3764b4	-0.17909509
132	0x3e1a4980	0.150671
133	0x3eba7244	0.36415303
134	0x3e769255	0.24079259
135	0x3e1beb7d	0.1522655
136	0xbe82a7d6	-0.25518674
137	0x3df06c1e	0.11739372
138	0xbe0fca96	-0.14042124
139	0x3c8ee26e	0.017441954
140	0xbd1fefe6	-0.039047144
141	0x3eb60365	0.35549465
142	0x3e8619da	0.26191598
143	0x3d469945	0.048486013
144	0xbebadcfd	-0.36496726
145	0x3e9c3df4	0.30516016
146	0x3e899f7e	0.26879495
147	0x3e0806f7	0.13283907
148	0xbebb47cc	-0.36578214
149	0xbe82b59c	-0.25529182
150	0x3e474317	0.19459186
151	0xbeb3ab9b	-0.35091862
152	0x3e28876a	0.16457906
153	0x3d4ec056	0.050476395
154	0x3eb40a1c	0.35163963
155	0x3e0610f2	0.13092402
156	0x3e50ed32	0.20402983
157	0x3defc1b9	0.117068715
158	0xbe436743	-0.1908236
159	0xbe540a89	-0.20707144
160	0xbeb84bd9	-0.35995367
161	0xbd741976	-0.059594594
162	0x3bade829	0.0053072167
163	0xbdf8a406	-0.1214066
164	0x3dd4db6b	0.10393413
165	0x3e87ba90	0.26509523
166	0x3cb7bacc	0.022427939
167	0xbe168bdd	-0.14701791
168	0xbea89f48	-0.32934022
169	0xbe46ea59	-0.19425334
170	0x3dee6aa0	0.11641431
171	0xbeb4366d	-0.35197774
172	0xbec0464b	-0.3755363
173	0x3ca839d7	0.020535393
174	0x3c1e9468	0.0096789375
175	0xbe98260f	-0.29716536
176	0x3db6c549	0.08924348
177	0x3e294be9	0.16532864
178	0xbe96a04f	-0.2941918
179	0xbd65de60	-0.056120276
180	0x3e65567f	0.22396277
181	0x3eac9e20	0.3371439
182	0xbe8758d9	-0.26434973
183	0xbe500431	-0.20314099
184	0xbe5b3218	-0.21405828
185	0xbe45059f	-0.19240426
186	0xbe7ae63e	-0.24501893
187	0x3e947f32	0.29003292
188	0xbc9ce32a	-0.019151289
189	0xbe932f12	-0.2874685
190	0xbe89214f	-0.26783225
191	0xbea4868c	-0.321339
192	0xbeb5dc02	-0.35519415
193	0x3cb301a4	0.021851368
194	0x3d254ed7	0.04035839
195	0x3e5e6f89	0.21722235
196	0x3ea314a3	0.31851682
197	0x3e88c139	0.26709917
198	0x3eaa9244	0.33314717
199	0xbe0d6401	-0.1380768
200	0xbe8e2300	-0.27761078
201	0xbd16fa0c	-0.036859557
202	0xbda70785	-0.08155731
203	0xbc9f5ed2	-0.019454394
204	0x3c26acb5	0.0101730125
205	0xbe59ae22	-0.21257833
206	0xbea4499e	-0.32087415
207	0xbe1e6c62	-0.15471032
208	0x3d8ee9f0	0.06978214
209	0x3e47a160	0.19495153
210	0xbead8d1c	-0.3389672
211	0xbeadcdd4	-0.33946097
212	0xbcb13adb	-0.02163451
213	0xbe145736	-0.14486393
214	0xbe1dbfa9	-0.15405144
215	0xbebb2669	-0.36552742
216	0x3e2dd963	0.16977458
217	0xbd8256f0	-0.06364238
218	0x3e98a3d4	0.2981249
219	0xbe788c37	-0.24272238
220	0xbeafd63f	-0.34343144
221	0xbba0b5cf	-0.004904486
222	0x3db7c9e4	0.089740545
223	0x3e619ac1	0.2203169
224	0xbd370eae	-0.044691734
225	0x3e94a7cd	0.29034272
226	0xbe532d8f	-0.20622848
227	0xbea3ed15	-0.32016817
228	0xbe3ef04a	-0.1864635
229	0xbe1aa29b	-0.15101092
230	0x3e06153c	0.13094038
231	0x3e999c01	0.30001834
232	0x3eb74779	0.35796717
233	0xbe33d9f0	-0.17563605
234	0xbdb93b77	-0.09044545
235	0xbd958c6e	-0.073021755
236	0x3e18b280	0.14911842
237	0xbde56a8a	-0.11201961
238	0xbe098592	-0.1342986
239	0x3d86707a	0.06564422
240	0xbe768dd8	-0.24077547
241	0x3ea5fe7c	0.3242072
242	0xbea84651	-0.32866147
243	0xbeaaf652	-0.33391052
244	0xbca7a13c	-0.020462625
245	0xbe88b54f	-0.26700827
246	0xbe28a6d2	-0.16469887
247	0x3e5f83da	0.21827641
248	0x3adf6083	0.0017042313
249	0xbd2fd595	-0.042928297
250	0xbeb3a444	-0.35086262
251	0xbdfcc801	-0.12342835
252	0xbe014189	-0.12622656
253	0x3e8e99b0	0.2785163
254	0x3e183556	0.14864096
255	0xbd0ddae0	-0.034632564

conv1.conv.local_nn.0.0.bias f4 [64]
0	0xbdb16216	-0.086612865
1	0xbe86837b	-0.26272187
2	0x3de9f1a7	0.11423045
3	0xbeb553cb	-0.3541549
4	0xbe25863f	-0.16164492
5	0xbe857cbe	-0.26071733
6	0x3e09db94	0.13462669
7	0x3df782c4	0.120854884
8	0x3eab5630	0.33464193
9	0xbd6c07ab	-0.0576245
10	0x3e9f8514	0.31156218
11	0xbe84c36d	-0.25930348
12	0xbe7a44c5	-0.24440296
13	0xbe8d618b	-0.27613482
14	0x3c50cc89	0.0127440775
15	0xbeaf3cf6	-0.34226197
16	0x3e832eec	0.25621736
17	0xbe96a59c	-0.29423225
18	0x3e248599	0.16066588
19	0xbe29c00f	-0.16577171
20	0x3c7f5d10	0.015586153
21	0xbdd0f0ec	-0.10202202
22	0x3e37e846	0.17959699
23	0x3eb7346e	0.35782188
24	0xbebec39a	-0.37258607
25	0xbea5ea89	-0.324055
26	0xbd0057d6	-0.031333767
27	0x3c5995f2	0.013280379
28	0x3eb896e1	0.3605261
29	0x3e2a341e	0.16621444
30	0xbb56d1d4	-0.0032778876
31	0xbea67c6a	-0.32516795
32	0x3daadf51	0.083433755
33	0xbe1550a1	-0.14581539
34	0x3e144138	0.14478004
35	0xbe09878e	-0.13430616
36	0xbca60253	-0.02026478
37	0x3e86d0ea	0.26331264
38	0x3eb0526b	0.3443788
39	0xbeaa4059	-0.33252218
40	0xbe6a97b2	-0.2290943
41	0xbe14d804	-0.14535528
42	0xbc31fcc5	-0.010863488
43	0x3e864cc0	0.2623043
44	0x3e6b546a	0.2298142
45	0xbd01a6f3	-0.031653356
46	0xbe53f925	-0.2070051
47	0x3eac67f6	0.33673066
48	0xbe0d0834	-0.1377266
49	0xbe2d0ac8	-0.16898644
50	0x3e2f9983	0.17148404
51	0x3e5632fe	0.2091789
52	0x3de9a804	0.114089996
53	0xbdb8ab37	-0.09017032
54	0xbe19880d	-0.14993306
55	0xbde12227	-0.10992842
56	0x3e8df87e	0.27728647
57	0x3e569056	0.20953497
58	0x3e28a295	0.1646827
59	0xbd144bfb	-0.036205273
60	0x3e3a8673	0.18215351
61	0x3d4d2e8e	0.050093226
62	0xbe143c6f	-0.14476179
63	0xbe1703fd	-0.14747615

conv1.conv.local_nn.0.2.weight f4 [64]
0	0x3f808a6c	1.0042243
1	0x3f80fdcd	1.0077454
2	0x3f800000	1.0
3	0x3f800000	1.0
4	0x3f80236f	1.0010813
5	0x3f800000	1.0
6	0x3f7f6283	0.9975969
7	0x3f800000	1.0
8	0x3f802d24	1.0013776
9	0x3f7f02a5	0.9961341
10	0x3f7f67b1	0.99767596
11	0x3f800112	1.0000327
12	0x3f800000	1.0
13	0x3f7fd745	0.9993785
14	0x3f809231	1.0044614
15	0x3f800000	1.0
16	0x3f800000	1.0
17	0x3f8049d1	1.0022527
18	0x3f800000	1.0
19	0x3f80211d	1.0010105
20	0x3f7c9e9c	0.9867952
21	0x3f7e6060	0.99365807
22	0x3f8081af	1.0039576
23	0x3f7ef00e	0.99585044
24	0x3f800000	1.0
25	0x3f800000	1.0
26	0x3f800000	1.0
27	0x3f800000	1.0
28	0x3f7f9c58	0.99847937
29	0x3f808fda	1.00439
30	0x3f800000	1.0
31	0x3f800000	1.0
32	0x3f800000	1.0
33	0x3f8022f5	1.0010668
34	0x3f800000	1.0
35	0x3f800000	1.0
36	0x3f800000	1.0
37	0x3f800000	1.0
38	0x3f80c79c	1.0060916
39	0x3f7fdbdb	0.9994485
40	0x3f800000	1.0
41	0x3f800000	1.0
42	0x3f80d4a7	1.0064896
43	0x3f80a7bf	1.0051192
44	0x3f7ec995	0.9952634
45	0x3f800000	1.0
46	0x3f7f2ee3	0.9968092
47	0x3f80a48c	1.0050216
48	0x3f7f7ebc	0.99802756
49	0x3f800000	1.0
50	0x3f800000	1.0
51	0x3f7efcdc	0.9960458
52	0x3f7f87e1	0.9981671
53	0x3f7f867c	0.9981458
54	0x3f7f0622	0.9961873
55	0x3f7ff2f7	0.9998011
56	0x3f800000	1.0
57	0x3f800000	1.0
58	0x3f800000	1.0
59	0x3f800000	1.0
60	0x3f800000	1.0
61	0x3f808c88	1.0042887
62	0x3f7fb088	0.9987874
63	0x3f800000	1.0

conv1.conv.local_nn.0.2.bias f4 [64]
0	0x3b9a95c9	0.004717563
1	0xbb8bfc79	-0.0042720404
2	0xbacde173	-0.0015707448
3	0x3be41c58	0.0069613867
4	0xbc0837cb	-0.008314083
5	0x3c048601	0.00808859
6	0xbb87a950	-0.0041400567
7	0xbb56ddec	-0.0032786084
8	0xbbd4b6c8	-0.006491516
9	0x3c62d043	0.013843599
10	0xbbe3ebbb	-0.0069555915
11	0xbbb0e0ea	-0.0053979056
12	0xbb8c48bd	-0.004281132
13	0x3ba12eec	0.0049189236
14	0x39fab277	0.00047816682
15	0x3c683d6c	0.0141748
16	0xbb3c7fe3	-0.002876275
17	0x3bc08ae1	0.0058759307
18	0x3b1fd667	0.0024389268
19	0xbc103cf3	-0.008803594
20	0xbb9583a4	-0.004562812
21	0x3c13f226	0.009029901
22	0x3baea0a1	0.005329207
23	0xbb8f68e6	-0.0043765185
24	0x3bc5f7b2	0.0060414905
25	0xbb0b4028	-0.0021247957
26	0xbbeaec51	-0.0071692844
27	0x3c36feaa	0.011169115
28	0xba548e2e	-0.00081083446
29	0xbbfbb2b7	-0.0076812166
30	0xbbdda398	-0.0067638867
31	0xbbb8e44e	-0.0056424504
32	0xbc229e6f	-0.009925469
33	0x3bcd8dc0	0.0062730014
34	0x39e00f97	0.00042736225
35	0xbbc8e76d	-0.0061311037
36	0xbbc274a3	-0.0059343143
37	0x3a7df435	0.0009687574
38	0x3ae1ed1d	0.0017236803
39	0x3abd98ce	0.0014465095
40	0xb91a71a9	-0.00014728926
41	0x3bba35c9	0.005682681
42	0xbc354231	-0.011063145
43	0x3ac3af8a	0.0014929634
44	0x3b4b8324	0.0031053508
45	0xbb497bdc	-0.0030743992
46	0xba3cb745	-0.000719894
47	0xbb54f8c2	-0.0032496904
48	0x3c0f3b18	0.008742116
49	0x3a7ae864	0.0009571372
50	0x3bcf9e20	0.0063359886
51	0x3ba5f2aa	0.005064328
52	0xbb26c4ec	-0.0025446964
53	0xbbc85646	-0.0061138
54	0x3bd2d7e0	0.0064344257
55	0xbae5e747	-0.001754024
56	0x3b66d2db	0.0035220894
57	0x3b7b7395	0.0038368453
58	0xb80accb4	-3.309241e-05
59	0x3b53a66d	0.0032295242
60	0xbba896e7	-0.005144942
61	0x3ba040a1	0.004890517
62	0xbb802d1e	-0.0039116284
63	0x3acc4b6f	0.0015586446

conv1.conv.local_nn.0.2.running_mean f4 [64]
0	0x423981ac	46.376633
1	0x40a36bd4	5.1069126
2	0x00000000	0.0
3	0x00000000	0.0
4	0x3c1cc348	0.009568043
5	0x00000000	0.0
6	0x415242bb	13.141292
7	0x00000000	0.0
8	0x3603dc44	1.9648733e-06
9	0x41e053b7	28.040876
10	0x41bd7bdb	23.685476
11	0x42113524	36.301895
12	0x00000000	0.0
13	0x3f0e48f3	0.5558006
14	0x40877e2e	4.234153
15	0x00000000	0.0
16	0x00000000	0.0
17	0x413388af	11.22087
18	0x00000000	0.0
19	0x422bdc5f	42.965206
20	0x3c759e18	0.014991306
21	0x41a1816a	20.18819
22	0x423f0402	47.753914
23	0x37b9b800	2.21394e-05
24	0x00000000	0.0
25	0x00000000	0.0
26	0x00000000	0.0
27	0x00000000	0.0
28	0x421db929	39.43082
29	0x3620ca49	2.3959603e-06
30	0x00000000	0.0
31	0x00000000	0.0
32	0x00000000	0.0
33	0x42162c3b	37.543194
34	0x00000000	0.0
35	0x00000000	0.0
36	0x00000000	0.0
37	0x00000000	0.0
38	0x3fe85e45	1.8153769
39	0x41bfd66a	23.979694
40	0x00000000	0.0
41	0x00000000	0.0
42	0x42024646	32.568626
43	0x420eb0e6	35.672752
44	0x4222a3a7	40.659817
45	0x00000000	0.0
46	0x4125366b	10.325786
47	0x4210460d	36.06841
48	0x4096a522	4.707658
49	0x00000000	0.0
50	0x00000000	0.0
51	0x41aa475a	21.28484
52	0x41cdf469	25.74434
53	0x41e77f19	28.93706
54	0x40fe7014	7.9511814
55	0x41e67a9c	28.809868
56	0x00000000	0.0
57	0x00000000	0.0
58	0x00000000	0.0
59	0x00000000	0.0
60	0x00000000	0.0
61	0x40c704a5	6.219317
62	0x4110b901	9.045167
63	0x00000000	0.0

conv1.conv.local_nn.0.2.running_var f4 [64]
0	0x4503c998	2108.5996
1	0x41ec95c7	29.573133
2	0x3d2da25a	0.04239116
3	0x3d2da25a	0.04239116
4	0x3d3d30de	0.04618918
5	0x3d2da25a	0.04239116
6	0x433a35cc	186.21014
7	0x3d2da25a	0.04239116
8	0x3d2da31f	0.042391893
9	0x4446214d	792.5203
10	0x4403b23d	526.785
11	0x44a2e4ad	1303.1461
12	0x3d2da25a	0.04239116
13	0x3f4f0d3f	0.80879587
14	0x41bf1fd8	23.890549
15	0x3d2da25a	0.04239116
16	0x3d2da25a	0.04239116
17	0x42f01740	120.04541
18	0x3d2da25a	0.04239116
19	0x44eaafb3	1877.4906
20	0x3d6c480d	0.0576859
21	0x43bf85d0	383.0454
22	0x45080c2c	2176.7607
23	0x3d2daa0d	0.0423985
24	0x3d2da25a	0.04239116
25	0x3d2da25a	0.04239116
26	0x3d2da25a	0.04239116
27	0x3d2da25a	0.04239116
28	0x44bdf28b	1519.5795
29	0x3d2da2e9	0.04239169
30	0x3d2da25a	0.04239116
31	0x3d2da25a	0.04239116
32	0x3d2da25a	0.04239116
33	0x44af61bd	1403.0543
34	0x3d2da25a	0.04239116
35	0x3d2da25a	0.04239116
36	0x3d2da25a	0.04239116
37	0x3d2da25a	0.04239116
38	0x40c1a2b0	6.0511093
39	0x441c3029	624.7525
40	0x3d2da25a	0.04239116
41	0x3d2da25a	0.04239116
42	0x447da769	1014.6158
43	0x4498d443	1222.6332
44	0x44becd3b	1526.4135
45	0x3d2da25a	0.04239116
46	0x42c6b4e3	99.353294
47	0x44977de3	1211.934
48	0x41f0c38e	30.095486
49	0x3d2da25a	0.04239116
50	0x3d2da25a	0.04239116
51	0x43e6440b	460.5316
52	0x44288658	674.0991
53	0x444a6b59	809.6773
54	0x428bb765	69.85819
55	0x44597270	869.7881
56	0x3d2da25a	0.04239116
57	0x3d2da25a	0.04239116
58	0x3d2da25a	0.04239116
59	0x3d2da25a	0.04239116
60	0x3d2da25a	0.04239116
61	0x420bacba	34.91868
62	0x42b2a71c	89.326385
63	0x3d2da25a	0.04239116

conv1.conv.local_nn.1.0.weight f4 [128, 64]
0	0x3d78ccea	0.060742296
1	0x3bdefa3c	0.0068047326
2	0x3dd82f36	0.1055588
3	0x3d997fe4	0.07495096
4	0x3d92f07a	0.071747735
5	0xbdd73fa2	-0.10510184
6	0xbde4871b	-0.11158582
7	0x3d8506f4	0.06495467
8	0xbc6227d1	-0.013803438
9	0xbdf2d9a7	-0.1185792
10	0xbd45fd41	-0.048337225
11	0xbd5c9319	-0.05385122
12	0xbd911db4	-0.070857435
13	0x3cfac7ee	0.030612912
14	0x3d24c0d0	0.040222943
15	0xbdaaa8fa	-0.08333011
16	0xbdd1eaa5	-0.10249833
17	0x3db3d997	0.08781736
18	0x3d7c6518	0.061619848
19	0x3d33ca1b	0.043893915
20	0x3d295365	0.041339297
21	0xbc61d02d	-0.013782543
22	0xbc1cd700	-0.009572744
23	0xbd225df0	-0.039640367
24	0xbd8f866e	-0.07008062
25	0xbdc71b4b	-0.097220026
26	0x3dada633	0.084789656
27	0xbd0a6423	-0.033786904
28	0x3c441af3	0.011969316
29	0xbdd478f9	-0.10374636
30	0x3c5240a1	0.012832792
31	0x3c44b185	0.012005215
32	0xbda2cbfb	-0.079490624
33	0xbdced014	-0.100982815
34	0xbdbc4bba	-0.09194131
35	0xbddfe397	-0.10932081
36	0x3ddd2a82	0.10799123
37	0xbd99cdde	-0.07509969
38	0xbceb42c5	-0.028718362
39	0x3dabf6ba	0.08396669
40	0x3d2aac37	0.041668143
41	0x3a02e9e0	0.00049939565
42	0x3b957c45	0.004561933
43	0x3bbd7fa1	0.005783037
44	0x3ba55a56	0.0050461693
45	0xbd1a4351	-0.037661854
46	0x3c8dc0f6	0.017303925
47	0x3d68c3d1	0.05682737
48	0xbd7e677f	-0.06211042
49	0x3db1ec96	0.08687703
50	0x3cad94d3	0.021189129
51	0xbcf4df89	-0.029891746
52	0x3d5c365f	0.05376279
53	0x3d53b8c9	0.051689897
54	0x3d5a1403	0.05324174
55	0xbcdd1194	-0.026985921
56	0x3d978a8f	0.07399475
57	0xbbc2f4a3	-0.005949573
58	0x3da696c6	0.081342265
59	0xbd471669	-0.048605356
60	0xbd03609d	-0.03207456
61	0x3d706ee3	0.0586995
62	0x3cb3b119	0.021935033
63	0x3d4c39b1	0.049859706
64	0xbd79032e	-0.060794048
65	0xbc405b39	-0.011740499
66	0x3df21580	0.11820507
67	0xbd51ea52	-0.051248856
68	0x3d62e649	0.0553954
69	0xbdf85119	-0.12124843
70	0x3d7c0a9f	0.061533567
71	0x3dba8e52	0.09109177
72	0xbb1a0041	-0.0023498686
73	0xbcc7dda4	-0.024397679
74	0x3d5160c5	0.051117677
75	0x3ce4820d	0.027894044
76	0x3d819730	0.06327665
77	0x3cba1c9d	0.022718722
78	0xbdd79213	-0.10525908
79	0xbdc3dfab	-0.09564146
80	0x3dbabb7f	0.09117793
81	0x3b8461c4	0.004039975
82	0x3dbfccc6	0.09365229
83	0x3d847fa4	0.06469658
84	0xbd954e3a	-0.07290311
85	0xbda5ad03	-0.0808964
86	0x3db3e0d8	0.0878312
87	0xbd30b958	-0.043145508
88	0x3d9985fe	0.0749626
89	0xbda462f5	-0.08026687
90	0xbca45284	-0.020058878
91	0x3c82d7f0	0.015972108
92	0xbbf8799a	-0.0075828554
93	0x3dd79c69	0.1052788
94	0xbc0aa18b	-0.008461366
95	0x3cf16a75	0.029469708
96	0x3dc1ab23	0.0945647
97	0xbdf687a6	-0.12037592
98	0x3ccca893	0.024982726
99	0x3daa0958	0.083025634
100	0xbc928332	-0.017884824
101	0x3cb50222	0.022095744
102	0x3d92c8f8	0.07167238
103	0x3d2dc1cb	0.042421144
104	0xbd11e1b4	-0.035615638
105	0x3dcfe89e	0.1015179
106	0xbd7cd9ac	-0.061731026
107	0x3db8ad99	0.09017486
108	0x3dfc72f5	0.12326614
109	0x3db0a5ca	0.08625372
110	0x3d22eeff	0.039778706
111	0xbd76ff83	-0.06030227
112	0x3daff66d	0.08591924
113	0xbbf55667	-0.0074871066
114	0xbdce2396	-0.10065381
115	0x3d9228a1	0.071366556
116	0x3c5a2653	0.013314801
117	0x3dae7245	0.08517889
118	0xbd16641c	-0.036716565
119	0x3bee6cb1	0.0072761406
120	0x3d10ffe1	0.035400275
121	0xbd815fc4	-0.06317094
122	0x3d02eb87	0.031962898
123	0x3da91ffd	0.082580544
124	0x3db31b5a	0.08745451
125	0x3d56dbd6	0.052455746
126	0x3da7b7e3	0.081893705
127	0xbd177beb	-0.03698341
128	0xbd128ccb	-0.035778802
129	0xbc416a8a	-0.011805186
130	0x3dd1cded	0.10244355
131	0xbd04c653	-0.0324157
132	0xbda69270	-0.081333995
133	0x3d981512	0.07425894
134	0x3bfbda0f	0.0076859067
135	0xbdb58ae7	-0.08864384
136	0xbdbcb29b	-0.09213754
137	0x3dce95d2	0.1008717
138	0x3d1d6839	0.038429473
139	0x3de90907	0.11378675
140	0xbdc3e2c0	-0.095647335
141	0x3dfc6519	0.1232397
142	0xbc99c123	-0.018768853
143	0x3c22ae5f	0.009929269
144	0x3d0a298e	0.033731036
145	0xbd7cf1d2	-0.061754055
146	0xbc74c26b	-0.014938931
147	0xbcd1bfca	-0.025604147
148	0x3d836834	0.064163595
149	0xbda639ce	-0.08116494
150	0x3d150765	0.036384005
151	0xbdbd898b	-0.0925475
152	0xbcdd69da	-0.027028013
153	0xbcf23d1d	-0.029570157
154	0xbd8a90ab	-0.067658745
155	0xbd421af7	-0.047388997
156	0x3d213261	0.039354686
157	0xbd9cf579	-0.07664008
158	0xbd60e4c3	-0.054905664
159	0xbd86f08c	-0.065888494
160	0xba4352a6	-0.0007450975
161	0x3cb63518	0.022242114
162	0xbd92ffa9	-0.071776696
163	0xbbcc22cc	-0.006229734
164	0x3dbe424a	0.092899874
165	0xbc3a5174	-0.011371959
166	0xbda03781	-0.078230865
167	0xbddfd5a2	-0.10929419
168	0x3db8acfb	0.090173684
169	0x3d441a62	0.047876723
170	0x3dc7edc8	0.0976215
171	0x3db80f00	0.08987236
172	0xbc901f6f	-0.017593114
173	0xba37f0fe	-0.00070168066
174	0x3d0e0a53	0.034677815
175	0x3d5a0b63	0.053233515
176	0xbd113919	-0.035454843
177	0xbddc1b57	-0.10747402
178	0x3e09455c	0.13405365
179	0x3d9837c6	0.07432513
180	0x3b7e0577	0.0038760582
181	0x3dba0b1f	0.090841524
182	0xbd107ad5	-0.03527339
183	0xbddae7cf	-0.10688745
184	0x3b094b91	0.0020949582
185	0xbd959b15	-0.0730497
186	0xbd735933	-0.05941124
187	0x3ddf6731	0.10908354
188	0xbda654a6	-0.08121614
189	0x3d943467	0.072365575
190	0x3dc9a92e	0.098467216
191	0xbdd7c89f	-0.10536312
192	0xbce22dd7	-0.027609749
193	0xbe002f11	-0.12517954
194	0xbdc7dd18	-0.09758967
195	0x3cdf2e0c	0.027243637
196	0x3d801c56	0.06255405
197	0x3da186a3	0.07887008
198	0x3cdbbc98	0.026823327
199	0x3df145c3	0.11780884
200	0xbced8ef0	-0.028998822
201	0xbdc4d5f6	-0.09611122
202	0xba8343cb	-0.0010014711
203	0xbd7b9c29	-0.061428223
204	0x3d2f8987	0.042855766
205	0xbd9a878c	-0.07545385
206	0xbd41f081	-0.047348503
207	0xbca0189c	-0.019542985
208	0xbdf6bb2c	-0.12047419
209	0x3df6ddc0	0.12054014
210	0x3d597ff7	0.053100552
211	0x3dc4e164	0.09613302
212	0x3e025d10	0.12730813
213	0xbb40cb5d	-0.002941809
214	0xbb8438a2	-0.0040350715
215	0x3dd463da	0.10370608
216	0xbcb7ae84	-0.022422083
217	0xbd033417	-0.0320321
218	0xbd139901	-0.036034588
219	0xbde009cf	-0.10939371
220	0xbd2b493e	-0.041817896
221	0xbd674ee4	-0.05647172
222	0xbd464633	-0.04840679
223	0xbca9d87a	-0.020733107
224	0xbda0227e	-0.07819079
225	0x3d9477e5	0.072494306
226	0xbd8ab034	-0.06771889
227	0x3cc491c6	0.023995291
228	0x3dabce8c	0.08389005
229	0xbdc94e39	-0.09829373
230	0x3ddc0bc9	0.10744435
231	0x3d8fa5c9	0.07014043
232	0xbdc96097	-0.09832876
233	0xbdeb5a2c	-0.11491808
234	0x3bca5d60	0.006175682
235	0xbcc504ba	-0.024050105
236	0xbbf19227	-0.007372159
237	0x3bf188f7	0.007371064
238	0x3c787eb7	0.01516693
239	0x3d832d42	0.064051166
240	0xbd9efeee	-0.07763468
241	0x3d432c3f	0.04764962
242	0x3cac5e36	0.021041017
243	0xbdb3beda	-0.087766364
244	0x3b9a466d	0.0047081024
245	0xbda3276d	-0.07966504
246	0xbdbdffe0	-0.0927732
247	0xbc825672	-0.015910361
248	0xbdf55395	-0.11978833
249	0x3dd29c38	0.102837026
250	0x3de60746	0.11231856
251	0xbdb23df3	-0.08703222
252	0x3db0c31f	0.086309664
253	0x3d2a9a41	0.041651014
254	0x3da9636f	0.082709186
255	0xbd1088aa	-0.035286583

conv1.conv.local_nn.1.0.bias f4 [128]
0	0xbd3023d4	-0.04300292
1	0x3c268b81	0.010165096
2	0x3d3d4380	0.04620695
3	0x3e060ed8	0.130916
4	0x3deacecd	0.11465225
5	0xbda8b6df	-0.08238005
6	0xbdc9565d	-0.098309256
7	0xbd63226c	-0.05545275
8	0xbd0b0ae9	-0.03394595
9	0xbd91d160	-0.07120013
10	0xbdfdf36c	-0.12399945
11	0x3d49baba	0.049250342
12	0x3c30990b	0.010778676
13	0xbd9d9d4d	-0.07696018
14	0x3dad9d2c	0.08477244
15	0xbd4cf76a	-0.05004064
16	0x3c30bcb6	0.01078718
17	0x3dbd9028	0.09256011
18	0x3d83179a	0.06400986
19	0xbdb395ce	-0.08768807
20	0x3d9789c3	0.07399323
21	0x3df38256	0.11890094
22	0x3d23234b	0.03982858
23	0x3dba9fe3	0.09112527
24	0x3d85728a	0.06515987
25	0x3d36548f	0.044514235
26	0x3dbe92a7	0.093053155
27	0xbddc948e	-0.10770522
28	0x3da7cc23	0.08193233
29	0x3dc6b087	0.09701639
30	0x3d516511	0.051121775
31	0x3dc3a911	0.09553731
32	0x3db38706	0.08765988
33	0xbd1a61f3	-0.037691068
34	0x3da7057e	0.081553444
35	0xbde278bd	-0.11058185
36	0x3dcb17b4	0.099166304
37	0x3cc4eb04	0.024037845
38	0x3dcbbbcf	0.09947931
39	0x3c7f4592	0.015580552
40	0x3cf4777e	0.029842135
41	0x3d78117e	0.060563557
42	0xbd963466	-0.07334213
43	0x3d59ff0d	0.05322175
44	0x3dd2bd2a	0.102899864
45	0xbd77fa7e	-0.060541622
46	0x3d99ac3c	0.07503554
47	0x3db47e45	0.088131465
48	0x3ddb6830	0.107132316
49	0x3de31f2e	0.110899314
50	0xbd8ae513	-0.06781974
51	0x3c736e34	0.014857817
52	0xbde0e949	-0.109819956
53	0x3df7bb7d	0.120963074
54	0xbd9eb398	-0.077490985
55	0xbc9575f6	-0.018244725
56	0xb8b8741a	-8.795429e-05
57	0x3d7828a5	0.060585637
58	0x3d335878	0.043785542
59	0x3dab8b76	0.083762094
60	0x3cbb9229	0.022896843
61	0x3cef095c	0.029179268
62	0xbdc76546	-0.09736113
63	0xbd2008bd	-0.039070833
64	0x3d3e32cb	0.04643516
65	0xbda5a513	-0.08088126
66	0xbd16bf48	-0.036803514
67	0xbc3202dd	-0.0108649405
68	0xbdcb4469	-0.099251576
69	0x3dfe24c9	0.1240936
70	0xbd9f2898	-0.077714145
71	0xbc7fbe9c	-0.01560941
72	0x3db980fd	0.09057806
73	0xbdbd4b06	-0.09242825
74	0x3bcc606b	0.00623708
75	0xbb18d9b5	-0.0023323123
76	0x3c5fe944	0.013666455
77	0xbb04deaf	-0.0020274331
78	0x3d945ddb	0.07244464
79	0x3df43b5a	0.11925383
80	0x3df953b9	0.12174172
81	0x3d140eac	0.036146805
82	0x3dad2b2d	0.08455501
83	0xbdc840a9	-0.09777958
84	0x39af76fe	0.00033467257
85	0x3d73d487	0.059528854
86	0x3d8bf971	0.068346865
87	0x3d72d8a7	0.059288647
88	0xbdcf8918	-0.101335704
89	0x3ddcf6a7	0.10789233
90	0x3b459ec6	0.003015445
91	0x3dcac6d1	0.099012025
92	0x3aa1e5ab	0.0012351772
93	0xbdc2faf6	-0.09520523
94	0x3c931ce9	0.017958121
95	0xbce47b8e	-0.027890947
96	0xbd2d0d43	-0.042248975
97	0x3da98f88	0.082793295
98	0x3a0f42af	0.0005464954
99	0x3dde3755	0.108503975
100	0xbdf2a398	-0.11847609
101	0xbe002308	-0.12513363
102	0xbc1ed286	-0.009693747
103	0xbab460d4	-0.0013761767
104	0x3d3ac976	0.045602284
105	0x3ae762f8	0.0017653396
106	0x3d8e867e	0.06959246
107	0xbd0ec61d	-0.034856904
108	0x3d8693a5	0.0657113
109	0x3d394d6a	0.045239843
110	0x3b6e7216	0.0036383918
111	0x3cfa65e1	0.030566158
112	0xbdf019e8	-0.11723691
113	0xbb6bdf80	-0.003599137
114	0x3dcd90ff	0.100374214
115	0x3d8503e6	0.06494884
116	0xbddf3920	-0.108995676
117	0x3d291f18	0.04128942
118	0xbd85ba5f	-0.06529688
119	0x3da4bae4	0.08043459
120	0x3db1d68c	0.086835
121	0x3d9ce17b	0.076601945
122	0x3d8247b4	0.063613325
123	0x3c705ea1	0.014670999
124	0xbc373a73	-0.011183369
125	0xbdd58300	-0.10425377
126	0xbde22afa	-0.110433534
127	0x3dd8369b	0.1055729

conv1.conv.local_nn.1.2.weight f4 [128]
0	0x3f7f3dab	0.9970347
1	0x3f7d4486	0.98932683
2	0x3f7e89be	0.9942893
3	0x3f7e2c92	0.9928676
4	0x3f80b373	1.0054764
5	0x3f80a9ec	1.0051856
6	0x3f80c430	1.0059872
7	0x3f80a748	1.005105
8	0x3f80bb21	1.0057107
9	0x3f812038	1.0087957
10	0x3f803908	1.0017405
11	0x3f7d6ec1	0.9899712
12	0x3f7d48f5	0.9893945
13	0x3f7c7c60	0.9862728
14	0x3f7f7de1	0.9980145
15	0x3f7e3088	0.992928
16	0x3f7f72fa	0.99784815
17	0x3f808de8	1.0043306
18	0x3f8117c9	1.0085384
19	0x3f7fc19c	0.999048
20	0x3f8055b8	1.0026159
21	0x3f7f4545	0.9971507
22	0x3f7ec4f5	0.9951928
23	0x3f80353f	1.001625
24	0x3f7ec523	0.99519557
25	0x3f804d6e	1.002363
26	0x3f80ac05	1.0052496
27	0x3f804383	1.0020603
28	0x3f805ad0	1.0027714
29	0x3f80305f	1.0014762
30	0x3f7eed54	0.99580884
31	0x3f7e97d6	0.99450433
32	0x3f807af3	1.0037521
33	0x3f7f745d	0.9978693
34	0x3f80babc	1.0056987
35	0x3f80d431	1.0064756
36	0x3f808801	1.0041505
37	0x3f8091a8	1.0044451
38	0x3f80c010	1.0058613
39	0x3f80396c	1.0017524
40	0x3f7fe4c2	0.9995843
41	0x3f80a5b0	1.0050564
42	0x3f80a6ae	1.0050867
43	0x3f7ff0a2	0.9997655
44	0x3f8103d7	1.0079297
45	0x3f7fecca	0.99970686
46	0x3f80de8e	1.0067918
47	0x3f7e8480	0.9942093
48	0x3f8044d1	1.0021001
49	0x3f800b25	1.0003401
50	0x3f7ed044	0.9953654
51	0x3f7eede2	0.9958173
52	0x3f807a44	1.0037313
53	0x3f7db48f	0.99103636
54	0x3f80d143	1.0063862
55	0x3f801094	1.0005059
56	0x3f812c33	1.0091614
57	0x3f8056e0	1.0026512
58	0x3f80936a	1.0044987
59	0x3f802ab1	1.0013028
60	0x3f7fcd09	0.99922234
61	0x3f7ff138	0.99977446
62	0x3f80ba85	1.0056921
63	0x3f81697c	1.0110316
64	0x3f7e5668	0.99350595
65	0x3f7ef800	0.9959717
66	0x3f805770	1.0026684
67	0x3f7fff9d	0.9999941
68	0x3f801b93	1.0008415
69	0x3f7d1ad5	0.9886907
70	0x3f7f975a	0.9984032
71	0x3f804bce	1.0023134
72	0x3f805ce5	1.0028349
73	0x3f7ca7ad	0.9869335
74	0x3f8022f4	1.0010667
75	0x3f8023fa	1.0010979
76	0x3f810833	1.0080627
77	0x3f7e3ef0	0.99314785
78	0x3f800763	1.0002254
79	0x3f812cf3	1.0091842
80	0x3f804809	1.0021983
81	0x3f7f4eb3	0.9972946
82	0x3f811809	1.008546
83	0x3f7e3351	0.9929705
84	0x3f80b2ea	1.00546
85	0x3f8017ad	1.0007225
86	0x3f811fd7	1.0087842
87	0x3f7f03ad	0.99614984
88	0x3f810127	1.0078477
89	0x3f7e7aeb	0.9940631
90	0x3f80402a	1.0019581
91	0x3f7ede88	0.99558306
92	0x3f8027f5	1.0012194
93	0x3f805e9c	1.0028872
94	0x3f80a5be	1.005058
95	0x3f81df52	1.0146277
96	0x3f7ffa76	0.9999155
97	0x3f7f8d65	0.99825126
98	0x3f80016e	1.0000436
99	0x3f8079a7	1.0037125
100	0x3f7fe3ad	0.9995678
101	0x3f801fc9	1.00097
102	0x3f7ecb2c	0.99528766
103	0x3f7e0406	0.9922489
104	0x3f7cd843	0.9876749
105	0x3f804dca	1.0023739
106	0x3f7eb145	0.9948924
107	0x3f7f2ec4	0.99680734
108	0x3f7e5c01	0.99359137
109	0x3f7ecf98	0.9953551
110	0x3f7ef632	0.99594414
111	0x3f7f9dd0	0.9985018
112	0x3f812f03	1.0092472
113	0x3f803d2e	1.001867
114	0x3f7fe23c	0.9995458
115	0x3f815ee2	1.0107081
116	0x3f7fa179	0.9985576
117	0x3f8093ae	1.0045068
118	0x3f7f2982	0.9967271
119	0x3f7d1ad4	0.9886906
120	0x3f7d1134	0.98854375
121	0x3f7fa509	0.998612
122	0x3f7e2641	0.9927712
123	0x3f803374	1.0015702
124	0x3f812430	1.0089169
125	0x3f81849b	1.0118593
126	0x3f7e9d60	0.99458885
127	0x3f7f99bf	0.9984397

conv1.conv.local_nn.1.2.bias f4 [128]
0	0x3b8e0460	0.0043340176
1	0x3c075e72	0.008262264
2	0xbbbbeac8	-0.005734775
3	0x3badbb20	0.005301848
4	0x3c00aa40	0.007853091
5	0xbb8d645f	-0.0043149437
6	0x3a75b94f	0.00093736214
7	0xbbf8438c	-0.0075764116
8	0x3b1f2865	0.0024285552
9	0xbc0dc727	-0.008653439
10	0xbbd23e13	-0.006416091
11	0x3bb809e5	0.005616414
12	0xbb72db60	-0.0037057027
13	0xbc40465d	-0.011735526
14	0x3a1c646d	0.00059658923
15	0xbbc891ec	-0.006120911
16	0xbc1c5040	-0.0095406175
17	0xbc070f87	-0.008243448
18	0xbb1a6526	-0.0023558824
19	0x3c175145	0.009235685
20	0xbb5a73cc	-0.003333318
21	0xbac5fefd	-0.00151059
22	0x3c0f9f94	0.008766074
23	0x3a9f8237	0.0012169544
24	0xbc352cc0	-0.0110580325
25	0xbb4cee9e	-0.0031270157
26	0x3ba58778	0.0050515495
27	0xbb9f5527	-0.004862446
28	0x3bb5a72e	0.005543611
29	0x3c14c4b7	0.009080104
30	0xbbda3f26	-0.00666036
31	0xbbd62b5e	-0.0065359315
32	0x3b0538da	0.0020328076
33	0xbba76926	-0.00510897
34	0xb9f0ad4c	-0.00045905483
35	0x36db2b60	6.531758e-06
36	0x3c0be3e8	0.008538224
37	0x3b9c45fd	0.0047690854
38	0xbb8484a8	-0.004044134
39	0xbb254837	-0.0025220045
40	0x3b5c9009	0.0033655188
41	0x3b0bc229	0.0021325445
42	0x3bf1226a	0.007358839
43	0xbc3dbce4	-0.01158068
44	0x3c16618c	0.00917853
45	0xbb93a0c4	-0.0045052487
46	0x3bb7935e	0.0056022843
47	0xbc03293d	-0.008005437
48	0xba4286ea	-0.00074206165
49	0xbb3210ae	-0.0027170586
50	0xbc1680af	-0.009185954
51	0xbc0f2e7f	-0.008739113
52	0xbb215f81	-0.0024623575
53	0xbb2979be	-0.0025859918
54	0xbc2530de	-0.010082452
55	0x3c04d58b	0.008107553
56	0xbb88bcdd	-0.004172905
57	0x3bf9ca7a	0.007623014
58	0x394c4866	0.00019481927
59	0xbbecdbf6	-0.00722837
60	0xbba529c8	-0.005040381
61	0x3b4e6ed6	0.0031499169
62	0xbc112a1d	-0.008860138
63	0x3c127320	0.008938581
64	0x3aa27877	0.001239552
65	0x3c31da1c	0.010855224
66	0xbac5a3b9	-0.00150787
67	0xbc0498d0	-0.008093074
68	0x3b5ac1b9	0.0033379628
69	0xbc151126	-0.009098327
70	0xbbe5522b	-0.0069983206
71	0x3be9e313	0.007137665
72	0x3b8d37d2	0.004309633
73	0x3c010a63	0.007876012
74	0x3c203249	0.009777614
75	0xba734b5c	-0.0009280944
76	0xbbba36ff	-0.0056828256
77	0x3b24550d	0.0025075108
78	0x3c1a3446	0.009411877
79	0x3bbcaad3	0.0057576685
80	0x3ae90330	0.0017777439
81	0xbc3f2a22	-0.01166776
82	0xbbec04b2	-0.007202708
83	0xba482041	-0.0007634201
84	0xbb344bb2	-0.0027510938
85	0xbc3b555c	-0.0114339255
86	0xbab915cc	-0.0014120876
87	0x3bb9ef63	0.005674289
88	0x3c0d1c96	0.008612772
89	0x3bda9e62	0.0066717127
90	0x3bf4faaa	0.0074761705
91	0x3beadc94	0.0071674082
92	0x3b785332	0.0037891385
93	0x3a4c0ea9	0.0007784167
94	0xbc1f1861	-0.009710402
95	0xbbd73a2d	-0.0065682144
96	0xbbfe66e5	-0.007763731
97	0x3c055bbd	0.008139548
98	0xbc1f49d0	-0.009722188
99	0x3c161e5c	0.009162512
100	0x3c2156e1	0.009847374
101	0xbbd039ac	-0.0063545313
102	0x3b3c87e0	0.0028767511
103	0x3b88622e	0.0041620946
104	0xb99c03c3	-0.0002975744
105	0xba630fe4	-0.00086617307
106	0xbc2b0c3d	-0.01043993
107	0x39b1677a	0.00033837167
108	0x3b7c4b02	0.0038496857
109	0xbc0d097a	-0.008608216
110	0xbb0f54cd	-0.0021870614
111	0xbc39da0b	-0.011343489
112	0xbc044209	-0.008072385
113	0x399c6c07	0.00029835125
114	0x3bff9552	0.007799783
115	0x3af6bbc5	0.001882427
116	0xba7755b0	-0.00094350707
117	0xbbad8bc6	-0.0052962033
118	0xbbd1f19d	-0.0064069764
119	0xbc100b1c	-0.008791711
120	0xbb0fe7c7	-0.0021958218
121	0x3b9b23b2	0.00473448
122	0xbb3478e3	-0.0027537874
123	0xbb7619df	-0.0037552041
124	0x3b8ecca5	0.0043578916
125	0xbb8f29fb	-0.004369018
126	0xbc166518	-0.009179376
127	0xbc2dfaeb	-0.010618906

conv1.conv.local_nn.1.2.running_mean f4 [128]
0	0x3cdc0f6e	0.026862826
1	0x3e0d258c	0.13783854
2	0x3e1e565a	0.15462628
3	0x3e1cfbf1	0.15330483
4	0x3e6298c4	0.22128588
5	0x3e02e71a	0.12783471
6	0x3d9582f5	0.07300369
7	0x3c9eb4c2	0.019373301
8	0x3e11d56a	0.14241567
9	0x3dd6d40b	0.10489663
10	0x3c90be68	0.017668918
11	0x3e202ce8	0.1564213
12	0x3d9b5591	0.0758468
13	0x3e44c54f	0.19215892
14	0x3e0f86e3	0.14016299
15	0x3da3ca0f	0.07997524
16	0x3d78b316	0.060717665
17	0x3de3a27e	0.11114977
18	0x3dc2df6a	0.09515269
19	0x3d99498a	0.074847296
20	0x3dd09db0	0.101863265
21	0x3e07922e	0.13239357
22	0x3e0d1245	0.137765
23	0x3eb586e9	0.3545449
24	0x3dcb8202	0.099369064
25	0x3d7ef6af	0.062246975
26	0x3e5d8d3a	0.21635905
27	0x3c8c36ff	0.017116068
28	0x3e878c43	0.264742
29	0x3e0dfeb2	0.1386669
30	0x3e2e45f8	0.17018878
31	0x3e270b16	0.16312823
32	0x3e8f750f	0.28018996
33	0x3d64daa2	0.055872567
34	0x3de1b3d9	0.11020631
35	0x3bf8f913	0.0075980513
36	0x3e3fe774	0.18740636
37	0x3d4d6ef9	0.05015466
38	0x3e605187	0.219061
39	0x3dda8ad3	0.1067101
40	0x3e3e121a	0.18561593
41	0x3da21fca	0.079162195
42	0x3e08f776	0.13375649
43	0x3df350e7	0.11880665
44	0x3e43da5e	0.19126269
45	0x3d355307	0.044268634
46	0x3e06e171	0.13171937
47	0x3dc07f60	0.09399295
48	0x3e4945b8	0.19655502
49	0x3e72c99e	0.23709723
50	0x3e1a6a40	0.15079594
51	0x3e03f554	0.12886554
52	0x3dfdb865	0.12388686
53	0x3e023b5c	0.12717956
54	0x3de8644b	0.11347254
55	0x3dd41529	0.103555985
56	0x3e61eb56	0.2206243
57	0x3e06be56	0.13158545
58	0x3ddb2317	0.10700052
59	0x3e452158	0.19251001
60	0x3db68563	0.0891216
61	0x3d8e99e3	0.06962945
62	0x3c068731	0.008210943
63	0x3e04d4f2	0.12971857
64	0x3e22ea36	0.15909657
65	0x3e3726b0	0.17885852
66	0x3d0d147a	0.034443356
67	0x3d165292	0.03669984
68	0x3d31c72e	0.043402843
69	0x3e09442c	0.13404912
70	0x3d934dad	0.0719255
71	0x3e09c45a	0.13453808
72	0x3ddae672	0.10688485
73	0x3e0d7b90	0.13816667
74	0x3d930383	0.07178404
75	0x3dd1f2be	0.102513775
76	0x3d943221	0.07236124
77	0x3e90f362	0.28310686
78	0x3e062158	0.13098657
79	0x3e4a2aa2	0.19742826
80	0x3e01c70c	0.12673587
81	0x3d8c3855	0.06846682
82	0x3e2bc2e0	0.16773558
83	0x3c5034cd	0.012707901
84	0x3d2dbb40	0.042414904
85	0x3dd501b3	0.10400715
86	0x3daf927b	0.08572861
87	0x3e7585ec	0.23976868
88	0x3e1e1c0b	0.15440385
89	0x3e3f6f2c	0.18694752
90	0x3dc681e5	0.09692744
91	0x3deff3a9	0.11716396
92	0x3e6025e2	0.21889451
93	0x3dcff3aa	0.10153897
94	0x3e25b4de	0.16182277
95	0x3dfac754	0.1224505
96	0x3d145bf5	0.03622051
97	0x3e876ec3	0.26451692
98	0x3d822969	0.063555546
99	0x3e075a67	0.1321808
100	0x3da3da6d	0.08000646
101	0x3cc0021f	0.023438511
102	0x3d09190f	0.033471163
103	0x3d14d2f8	0.036334008
104	0x3dff63a0	0.12470174
105	0x3e25441e	0.16139266
106	0x3da2bec1	0.0794654
107	0x3df5ce61	0.12002254
108	0x3ed59ded	0.4172205
109	0x3e52995c	0.20566314
110	0x3d9800b6	0.074220106
111	0x3d79e36c	0.061007902
112	0x3c0bf77b	0.008542891
113	0x3e1d07e8	0.15335047
114	0x3e2d1631	0.16902997
115	0x3e7193ce	0.2359154
116	0x3b523860	0.003207706
117	0x3e32e504	0.17470175
118	0x3db12066	0.08648758
119	0x3db9d860	0.090744734
120	0x3e01e4be	0.12684914
121	0x3e79ee58	0.24407327
122	0x3dbc73ed	0.092017986
123	0x3e88b284	0.26698697
124	0x3d017796	0.031608187
125	0x3e6471f0	0.22309089
126	0x3ca4dda6	0.020125221
127	0x3e88c800	0.26715088

conv1.conv.local_nn.1.2.running_var f4 [128]
0	0x3d52d500	0.051472664
1	0x3e3bd742	0.18343833
2	0x3e4c432e	0.19947502
3	0x3d9c6630	0.07636678
4	0x3d8c8e60	0.068630934
5	0x3d706cf7	0.058697667
6	0x3dcc5b66	0.0997837
7	0x3d440347	0.047854688
8	0x3d8635c7	0.06553226
9	0x3e1b2203	0.15149693
10	0x3d5c7f18	0.053832144
11	0x3e43d63b	0.19124691
12	0x3d8085fa	0.06275554
13	0x3da60a32	0.08107413
14	0x3d88082d	0.066421844
15	0x3dc5e80b	0.09663399
16	0x3d8643b9	0.06555886
17	0x3d6e6ee9	0.05821124
18	0x3d72fb4e	0.059321694
19	0x3dca80e4	0.09887865
20	0x3d948a13	0.07252898
21	0x3da47425	0.08029965
22	0x3e284373	0.1643198
23	0x3e02d206	0.1277543
24	0x3daa9711	0.08329595
25	0x3d651e15	0.05593689
26	0x3da915da	0.08256121
27	0x3d54e841	0.051979307
28	0x3dbd20b4	0.09234753
29	0x3e060be3	0.13090472
30	0x3e600b85	0.21879394
31	0x3d6be533	0.05759163
32	0x3f0ec850	0.557744
33	0x3d98ad6a	0.07454951
34	0x3dc4c7f2	0.09608449
35	0x3d3dda73	0.046350908
36	0x3e73e674	0.2381838
37	0x3d745b81	0.059657577
38	0x3eae540e	0.34048504
39	0x3e032cd5	0.12810071
40	0x3e8e2b28	0.277673
41	0x3d86fde4	0.065913945
42	0x3d7a4953	0.061105084
43	0x3df52030	0.1196903
44	0x3d80dba9	0.06291897
45	0x3d7ee086	0.06222584
46	0x3e066e9d	0.13128133
47	0x3d7f85b9	0.062383387
48	0x3d8a4376	0.067511484
49	0x3d9c45cd	0.07630501
50	0x3d92afd6	0.07162444
51	0x3e1e7857	0.15475594
52	0x3d88e4a4	0.06684235
53	0x3db7e1a6	0.08978586
54	0x3e2abfbd	0.16674705
55	0x3e05cb8b	0.13065927
56	0x3ecdf781	0.40227893
57	0x3d5998c7	0.053124215
58	0x3d68b526	0.05681338
59	0x3e79e638	0.24404228
60	0x3dbc972c	0.09208521
61	0x3d66abea	0.056316294
62	0x3d342113	0.043976855
63	0x3d88b2a4	0.06674698
64	0x3e5330c5	0.20624073
65	0x3ea65a2b	0.32490668
66	0x3d656fd6	0.05601486
67	0x3d6ff787	0.05858567
68	0x3d872513	0.06598868
69	0x3d502772	0.050818868
70	0x3dc2aec5	0.09505991
71	0x3e3bca39	0.1833886
72	0x3d54c7fc	0.051948532
73	0x3e61c50e	0.22047827
74	0x3d77d204	0.06050302
75	0x3d64341d	0.05571376
76	0x3d87c501	0.066293724
77	0x3dde879d	0.1086571
78	0x3e097adb	0.13425772
79	0x3e806d4a	0.2508338
80	0x3d7e67d5	0.06211074
81	0x3d3afd4b	0.045651715
82	0x3e6237a1	0.22091533
83	0x3d30f8b9	0.04320595
84	0x3d79aa9b	0.060953718
85	0x3d4fcc2b	0.05073182
86	0x3d6093e5	0.054828543
87	0x3da527e3	0.080642484
88	0x3d8a5ec5	0.06756357
89	0x3e63940f	0.22224449
90	0x3d9271c3	0.071506046
91	0x3d9166f4	0.07099715
92	0x3db9727a	0.09055038
93	0x3d651f89	0.055938277
94	0x3e659bbc	0.22422689
95	0x3e2cc396	0.16871485
96	0x3d822c78	0.06356138
97	0x3dd491a4	0.10379341
98	0x3d48a339	0.048983786
99	0x3d53c85f	0.05170476
100	0x3dee67df	0.116409056
101	0x3d4435ca	0.04790286
102	0x3d38474f	0.04498988
103	0x3d4a6d46	0.049420618
104	0x3e0302d6	0.1279405
105	0x3d96e81f	0.07368492
106	0x3d81b79a	0.06333847
107	0x3d9773d2	0.07395138
108	0x3e2cf967	0.16892014
109	0x3d925b16	0.071462795
110	0x3d43f51d	0.04784118
111	0x3d3e2b80	0.046428204
112	0x3d4c70de	0.049912326
113	0x3d83fc20	0.064445734
114	0x3d7a7395	0.061145384
115	0x3ed65787	0.41863653
116	0x3d3be120	0.045868993
117	0x3e71079e	0.23538062
118	0x3d515dd4	0.051114872
119	0x3d4b0744	0.049567476
120	0x3d6cdb53	0.05782635
121	0x3dd9ab32	0.10628356
122	0x3d9b7ec6	0.075925395
123	0x3de0195e	0.109423384
124	0x3d35c2ac	0.044375107
125	0x3ef84cfc	0.48496234
126	0x3d654839	0.05597708
127	0x3db7b981	0.08970929

pool.net.0.0.weight f4 [128, 131]
0	0xbba8f2db	-0.0051559038
1	0xbd873b66	-0.06603126
2	0xbc7c6b8d	-0.0154065015
3	0x3cff04c5	0.031130204
4	0xbd8a1e0f	-0.067440145
5	0x3dad8308	0.08472258
6	0xbc6a1e0b	-0.014289389
7	0xbd17e6cf	-0.03708535
8	0xbc3bca1c	-0.011461761
9	0x3d6973dd	0.05699526
10	0x3d4f71de	0.0506457
11	0x39564ad5	0.00020436507
12	0xbc4e9391	-0.012608425
13	0x3c369acc	0.011145305
14	0xbc8b006f	-0.01696798
15	0xbce0059a	-0.027346421
16	0x3cc69b21	0.024243893
17	0xbce75e2d	-0.028243149
18	0x3d77243a	0.060337283
19	0xbd1954a8	-0.03743425
20	0x39df1a19	0.0004255332
21	0xbd431650	-0.0476287
22	0xbbea8ad0	-0.007157661
23	0xbc9346c4	-0.01797808
24	0xbbf3dd3e	-0.0074421456
25	0xbd5f2d32	-0.05448646
26	0xbd30b72e	-0.043143444
27	0x3cbec72a	0.023288328
28	0x3b9bb674	0.0047519747
29	0x3d7d1c5e	0.06179463
30	0xbd14c965	-0.036324877
31	0x3cc00aca	0.023442645
32	0x3d4dd8de	0.05025565
33	0xbcb59d74	-0.022169806
34	0xbd281961	-0.04103983
35	0x3cb7efea	0.022453267
36	0x3dc0a945	0.094072856
37	0x3d08101d	0.03321849
38	0xbd68f14f	-0.056870755
39	0x3d2e1a0a	0.0425053
40	0xbc9baeaf	-0.019004194
41	0x3da68087	0.081299834
42	0x3d1e81a0	0.03869784
43	0x3dc86adc	0.09786007
44	0xbcd9df49	-0.026595728
45	0xbcdd7a1c	-0.027035765
46	0x3ab7ca3e	0.0014022065
47	0x3d4e8e67	0.050428774
48	0x3db1286b	0.08650287
49	0xbcb95661	-0.022624196
50	0xbcd069b1	-0.025441023
51	0xbd49f2ed	-0.049303938
52	0xbb362ac1	-0.002779648
53	0x3d965fbc	0.07342479
54	0x3c25ed45	0.01012737
55	0x3dc9d341	0.098547466
56	0xbc8cd28b	-0.017190238
57	0x3da1bd5d	0.07897446
58	0xbb467b72	-0.0030285981
59	0x3d81b046	0.063324496
60	0xbd915873	-0.070969485
61	0xbda2ba02	-0.079456344
62	0x3b0a30c4	0.0021086195
63	0xbc7470a9	-0.014919438
64	0x3ba83cc5	0.0051341974
65	0x3db72d8b	0.089442335
66	0xbd27ed0c	-0.04099755
67	0x3d422b74	0.04740472
68	0x3ce997ba	0.028514732
69	0xbdada37f	-0.0847845
70	0xbd2707d9	-0.04077897
71	0xbd51908e	-0.05116325
72	0xbb851261	-0.004061029
73	0x3ce618cf	0.028088002
74	0xbd9104ac	-0.07080969
75	0x3d0f1bc8	0.034938604
76	0xbbda9d47	-0.006671581
77	0xbd3977f3	-0.045280408
78	0x3dc2a0b4	0.09503308
79	0xbc634926	-0.01387242
80	0xbd157f0d	-0.03649812
81	0xbd9b9713	-0.075971745
82	0x3d7a5ace	0.061121754
83	0x3c31eb4f	0.010859325
84	0x3cb33a9a	0.02187853
85	0x3cdc9f01	0.026931288
86	0xbd52d0ac	-0.051468536
87	0xbd1e3535	-0.03862496
88	0x3d537936	0.051629268
89	0xbc090cb0	-0.008364841
90	0x3abfd0a4	0.0014634323
91	0x3dba5795	0.09098736
92	0x3d97c313	0.07410254
93	0x3d070388	0.032962352
94	0xbc8ab361	-0.016931238
95	0xbcb15edd	-0.02165168
96	0xbca800db	-0.02050822
97	0x3d07a84a	0.033119477
98	0x3d07a10b	0.033112567
99	0x3d2a0365	0.041507144
100	0xbd04a0c6	-0.032379888
101	0xbd02682b	-0.031837624
102	0xbc3fcf89	-0.011707195
103	0xbc17f807	-0.009275443
104	0xbd5f6c5e	-0.054546706
105	0x3c78b6d4	0.015180308
106	0x3d87ff6e	0.06640516
107	0xbd85daf9	-0.06535906
108	0xbd25a582	-0.040441044
109	0x3cd60fb2	0.026130531
110	0x3dad62d9	0.08466119
111	0xbc8179c6	-0.015805136
112	0xbd31b410	-0.04338461
113	0x3da20c8a	0.07912548
114	0x3d02735f	0.031848308
115	0x3d7fd2e6	0.062456988
116	0xbc3bd18e	-0.011463536
117	0x3d88bf49	0.0667711
118	0x3d3f44a8	0.046696335
119	0xbd969e2c	-0.07354388
120	0xbd851219	-0.064975925
121	0xbcde4ab7	-0.027135236
122	0xbd8fed9d	-0.07027743
123	0x3c50ddea	0.012748221
124	0xbc58621d	-0.013206986
125	0xbb8b1e05	-0.004245522
126	0xbc6e61ed	-0.0145497145
127	0xbd104bd5	-0.03522857
128	0xbcea9661	-0.02863616
129	0x3d99fa5f	0.075184576
130	0x3d2afa93	0.041742872
131	0x3d3e5597	0.046468344
132	0x3d5c27fa	0.053749062
133	0xbb415bde	-0.002950422
134	0x3d77c82d	0.060493637
135	0xbd1a3d98	-0.037656397
136	0x3af0a5ec	0.0018359995
137	0xbd9ce2de	-0.07660459
138	0x3c721a2f	0.0147767505
139	0x3d7e9c7d	0.062160958
140	0x3d8317bf	0.064010136
141	0xbb0c92a9	-0.002144972
142	0x3c77484a	0.015092919
143	0x3c101067	0.008792973
144	0xbda1f4db	-0.079080306
145	0x3ace4d5e	0.001573961
146	0x3cffdb4c	0.031232499
147	0x3c4dcb00	0.012560606
148	0x3c11026d	0.008850676
149	0x3d987f15	0.07446114
150	0xbda85513	-0.082193516
151	0x3d9a4927	0.07533484
152	0x3db29db6	0.08721487
153	0x3db89392	0.09012522
154	0xbc3cda8f	-0.011526718
155	0x3d3d2542	0.04617811
156	0x3d0b8855	0.034065563
157	0x3b83ef97	0.004026364
158	0x3b98faff	0.004668593
159	0xbda147cc	-0.07875022
160	0xbd19c263	-0.037538897
161	0xbd1b08ce	-0.037850194
162	0xbd5ee220	-0.05441487
163	0x3d35cb1d	0.044383157
164	0x3c80392e	0.015652265
165	0xbbd576ab	-0.0065143905
166	0xbc87b326	-0.016564917
167	0x3d2f2466	0.04275932
168	0xbd8a2689	-0.06745631
169	0xbd90133d	-0.070349194
170	0x3c97b27f	0.01851773
171	0xbd41ecc3	-0.047344934
172	0x3d1aa77f	0.037757393
173	0xbd987671	-0.07444466
174	0x3daf434f	0.0855776
175	0x3d84035b	0.064459525
176	0x3b9973f0	0.0046830103
177	0xbb41e6c6	-0.0029587015
178	0x3d9d9036	0.07693522
179	0x3cfce7cd	0.03087225
180	0x3c92cffd	0.017921442
181	0xbc0c7d65	-0.008574818
182	0x3cf393e6	0.02973361
183	0x3cc1b172	0.023644183
184	0x3db5200b	0.08844002
185	0xbcb752ab	-0.022378286
186	0x3ca2ad84	0.01985813
187	0x3d22ce38	0.039747447
188	0x3d9a6074	0.07537928
189	0x3d7902b6	0.0607936
190	0xbd0debb3	-0.03464861
191	0xb9882556	-0.0002596776
192	0xbbfdec21	-0.007749096
193	0xbcd206d7	-0.025638027
194	0x3d360cc6	0.044445775
195	0x3d110ea8	0.035414368
196	0xbd1117d5	-0.03542312
197	0x3a6a9055	0.0008947899
198	0xbd05af19	-0.03263769
199	0x3db14e30	0.08657491
200	0x3b794690	0.0038036443
201	0xbd26885d	-0.04065739
202	0x3da867b6	0.08222906
203	0xbb51cd37	-0.0032013187
204	0xbc0ad7e8	-0.008474328
205	0x3c8d5b3d	0.01725542
206	0xbcf6e264	-0.030137248
207	0x3d2fff5d	0.042968143
208	0xbcc24ecb	-0.023719212
209	0x3d4b442a	0.049625553
210	0x3d89ac4a	0.06722315
211	0xbd1cd007	-0.038284328
212	0x3d96f6c6	0.07371287
213	0x3c392660	0.011300653
214	0x3be076ff	0.006850123
215	0xbc7e54bc	-0.015523132
216	0x3d709ae7	0.058741476
217	0x3cf64efb	0.030066958
218	0xbd3b8544	-0.04578139
219	0xbce05d3a	-0.027388204
220	0xbd1ebaa1	-0.038752202
221	0x3d9935b8	0.07480949
222	0xbd038f45	-0.032119054
223	0x3da15e05	0.07879261
224	0xbd1d2efc	-0.038374886
225	0x3b9bb19e	0.004751398
226	0x3d1d4ae7	0.03840151
227	0xbce65aea	-0.028119523
228	0xbd9c5502	-0.076334015
229	0xbc8bca59	-0.01706426
230	0x3d9d96df	0.07694792
231	0xbd1b4959	-0.037911747
232	0x3d130ad0	0.035898983
233	0xbc60dc2a	-0.013724366
234	0x3c81c993	0.015843188
235	0xbd8c96a4	-0.0686467
236	0xbd928163	-0.07153585
237	0xbd195868	-0.037437826
238	0xbd9fce5f	-0.07803034
239	0x3d62b19c	0.055345163
240	0xbcb7bed5	-0.022429863
241	0xbcf6c16d	-0.03012153
242	0xbd9d6e1f	-0.076870196
243	0x3d93297b	0.07185646
244	0xbda0977b	-0.078413926
245	0xbd363a86	-0.044489406
246	0x3cbc1518	0.022959277
247	0x3d819e68	0.06329042
248	0x3dab5534	0.083658606
249	0x3c1d1366	0.0095871445
250	0x3ba3f1d8	0.0050031953
251	0x3a1d3fbf	0.00059985736
252	0x3d4042ee	0.04693883
253	0xbd27c641	-0.040960554
254	0x3d6ff007	0.058578517
255	0x3d42ed6a	0.047589697

pool.net.0.0.bias f4 [128]
0	0x3c267843	0.010160509
1	0xbca56fa3	-0.020194834
2	0x3be9c446	0.0071339933
3	0x3d732fa2	0.059371598
4	0xbd2d6871	-0.04233593
5	0xbbe6492d	-0.007027766
6	0x3bddf7eb	0.006773939
7	0x3db14632	0.08655967
8	0xbd6d7c9a	-0.057980157
9	0xbd0f0d14	-0.03492458
10	0x3da39329	0.07987053
11	0xbae17b3b	-0.0017202863
12	0xbcaf93bb	-0.021432748
13	0xbd6ad69e	-0.05733358
14	0xbdbff086	-0.09372048
15	0x3d0c2a40	0.03421998
16	0xbdba66ae	-0.09101616
17	0x3d8f00e3	0.06982591
18	0xbd302f53	-0.043013882
19	0x3d522b18	0.05131063
20	0x3bb40e06	0.005494836
21	0xbd6a9063	-0.057266604
22	0x3c0e5706	0.00868774
23	0xbd29eb05	-0.041483898
24	0x3d901db7	0.07036918
25	0xbd7fbdcb	-0.06243686
26	0x3cad021d	0.021119172
27	0x3d9e7062	0.07736279
28	0xbd11c92a	-0.035592236
29	0xbda810af	-0.08206307
30	0xbc8fdc08	-0.017560974
31	0x3d162ed0	0.036665738
32	0x3d9c737e	0.07639216
33	0xbd27e37a	-0.040988423
34	0xbcea4432	-0.028596971
35	0xbd1537ea	-0.036430277
36	0x3c9433ab	0.018091043
37	0x3d03f380	0.03221464
38	0x3a4031e6	0.0007331654
39	0x3d3a0c80	0.045422077
40	0x3d4eaa4f	0.050455388
41	0xbda2841c	-0.07935354
42	0x3d3cede1	0.046125297
43	0x3b6245f9	0.003452657
44	0x3d53038f	0.051517066
45	0x3d4640d4	0.04840167
46	0xbd3465f6	-0.04404255
47	0xbd169727	-0.036765244
48	0x3d864cf5	0.06557647
49	0xbd0404ef	-0.032231268
50	0x3b615981	0.0034385624
51	0xbc19bbf9	-0.009383195
52	0xbd3bd245	-0.045854826
53	0xbd03016a	-0.03198377
54	0xbd3bcedf	-0.045851585
55	0x3d2b89bc	0.0418794
56	0xbd93f0c6	-0.07223658
57	0xbd004c33	-0.03132267
58	0xbd93a9d4	-0.072101265
59	0x3d855121	0.06509615
60	0x3b72f44a	0.0037071877
61	0xbd3980d2	-0.04528887
62	0x3d569a9b	0.052393537
63	0x3d5b9379	0.053607438
64	0x3d7d5ef7	0.061858144
65	0xbd1d4a5b	-0.03840099
66	0x3d9a9968	0.07548791
67	0x3cc57925	0.024105618
68	0xbc3f529f	-0.011677413
69	0x3da63c19	0.081169315
70	0x3d8874b6	0.06662886
71	0x3d88e6b6	0.066846296
72	0xbd0b8e20	-0.034071088
73	0x3d25115d	0.040299762
74	0xbd979dba	-0.07403131
75	0xbd294137	-0.04132196
76	0x3c68c4c0	0.014207065
77	0x3da27f59	0.07934446
78	0x3bc86aa0	0.0061162263
79	0x3d186e34	0.037214473
80	0xbd2011e0	-0.039079547
81	0xbc9b062a	-0.018923838
82	0x3ba3b41b	0.0049958355
83	0x3d448d8f	0.047986563
84	0x3d0a6d18	0.033795446
85	0xbce6f297	-0.028191848
86	0xbd803476	-0.06260006
87	0x3ccb6d9b	0.024832537
88	0x3b2288e6	0.0024800836
89	0x3d9c8b96	0.076438114
90	0xbdbb7fca	-0.09155233
91	0x3c40e244	0.011772696
92	0x3d2c1e3a	0.042021014
93	0xbcffd216	-0.031228106
94	0xbd86f27a	-0.065892175
95	0xbcc45beb	-0.023969611
96	0xbd0b7814	-0.034050062
97	0xba426b80	-0.00074165314
98	0xbd4cf48e	-0.050037913
99	0xbd65d9fa	-0.05611608
100	0xbd7e9b1e	-0.06215965
101	0xbd227d71	-0.03967041
102	0x3d1bd07f	0.038040634
103	0xbda88b3b	-0.08229681
104	0x3ce8f6e9	0.028438048
105	0xbd3d3b92	-0.04619939
106	0xbd8ca69c	-0.06867716
107	0xbb06e499	-0.0020583032
108	0x3dc88e07	0.097927146
109	0xbc0dafd1	-0.008647875
110	0xbdc6024c	-0.09668407
111	0xbc720cf3	-0.014773595
112	0xbd8aba2c	-0.06773791
113	0x3d419e31	0.047270004
114	0x3d95e338	0.07318729
115	0xbd933dfc	-0.07189557
116	0x3d132928	0.03592792
117	0xbd72e97f	-0.05930471
118	0xbdac836a	-0.08423503
119	0x3db9e368	0.090765774
120	0xbd11454d	-0.03546648
121	0x3d72ba27	0.05925956
122	0xbd895c07	-0.06707006
123	0xbcd48625	-0.025942871
124	0x3d7efbd9	0.0622519
125	0xbd8eac4d	-0.069664575
126	0xbbbe655a	-0.005810422
127	0xbd511809	-0.051048312
