hepgnn_4top_resampling/result/train20220815_4top_cla_alledge_w2_L1_16ncpu_12h/model.pth (torch, 156925 bytes, 25 tensors)

weight f4 [64, 7]
000000 2d 71 ba 3e d7 eb 92 3e 20 7a be 3e fe 17 f1 bc
       0.3641447 0.28695557 0.3720255 -0.029430386
000010 6e 4f a1 be d0 ea 78 be 22 3c cd bd 7b 76 51 3d
       -0.31505913 -0.24308324 -0.10021235 0.051138382
000020 6d 68 fb bd 4e f9 5e be 8d 25 fb bc 25 1b 74 3e
       -0.12275777 -0.2177479 -0.030657554 0.2383848
000030 c1 e5 a0 3e 5d 17 3f be da e5 5d be 11 a1 8e bc
       0.31425288 -0.18661256 -0.21669713 -0.017410787
000040 51 5f 2a 3e f0 40 2d 3e 5e 10 10 be 8b 0d 06 3e
       0.16637923 0.16919303 -0.14068744 0.13091104
000050 60 9b 83 bd b6 cb 39 bd ed ee 9c be e8 9f 8a 3e
       -0.0642612 -0.04536029 -0.30651036 0.27075124
000060 8f 77 88 be 96 ea c0 3d fb b3 41 be 58 25 a3 be
       -0.26653716 0.09419744 -0.18916313 -0.3186443
000070 76 3c c5 bc f2 6c 00 3e 3e 8c b1 be 19 d7 df 3c
       -0.024076682 0.1254156 -0.3467731 0.027324246
000080 e8 83 11 be 73 89 5c bd 62 97 2c be ae de 40 bd
       -0.14210474 -0.05384202 -0.16854623 -0.047087364
000090 38 15 ae 3e 6e 09 ba be 85 1b 37 be 3e 75 a4 3e
       0.34000564 -0.3633532 -0.17881592 0.321207
0000a0 0e f7 a2 bc 10 d2 a0 bd 0e 24 02 3e 6d 78 23 be
       -0.019893195 -0.07852566 0.12709066 -0.15963908
0000b0 b1 f3 1e 3e 6a be 6e be 5e b8 e8 bd 28 1b 94 3e
       0.15522648 -0.23314825 -0.1136329 0.2892697
0000c0 75 c7 17 3d a1 0f 99 be c7 88 68 3e e4 9a 80 be
       0.03705545 -0.29894736 0.22708426 -0.25118172
0000d0 67 ce c7 bc ec 25 8f ba 31 8d 2a be 5d 38 2d 3e
       -0.024390412 -0.0010921336 -0.16655423 0.16916032
0000e0 c0 11 19 bd f9 57 53 3e 34 a7 44 3e 78 59 97 be
       -0.037370443 0.20639028 0.19204408 -0.29560447
0000f0 37 86 90 3e 58 60 1a 3c 6d cb 98 3e b2 de 70 3e
       0.28227398 0.009422384 0.29842702 0.23522452
000100 a8 9f e3 bd c6 41 99 bd 1d 92 0d be 46 3f 37 be
       -0.111144364 -0.074832484 -0.13825269 -0.1789523
000110 75 e7 95 3e c7 71 b4 3e ce 51 2b 3e c9 d8 ad 3e
       0.2927815 0.35243055 0.16730425 0.33954456
000120 c8 5b 03 3e ab 22 71 3d 56 f0 19 be a5 98 b4 3e
       0.1282798 0.058870953 -0.15033087 0.3527271
000130 10 34 8a be 75 f1 8e 3e f6 b7 45 bd e2 e8 18 be
       -0.26992846 0.27918592 -0.048271142 -0.14932588
000140 b0 68 ed ba 52 dc 6d 3e 81 72 ab be 60 06 96 be
       -0.0018112864 0.23228577 -0.33485797 -0.2930174
000150 4a ac 8d bd a3 cd bf be 12 5f 52 3d 58 04 89 be
       -0.06917627 -0.37461576 0.051360197 -0.26761127
000160 6c b2 ad be 69 38 1d be aa 63 4f be 70 76 ff ba
       -0.33925188 -0.1535355 -0.20252863 -0.0019490253
000170 5e af 81 3e 04 81 bc bd 4d 1a 9a 3d 0a d5 2e 3e
       0.25329107 -0.09204295 0.07524548 0.17073455
000180 36 3b d0 3d b6 31 98 3c c8 8f 7c 3d 21 d6 63 3e
       0.101675436 0.018578392 0.061660558 0.22249652
000190 64 b6 ad be 78 21 1a be ec 12 ab 3e 5c 0a cb bd
       -0.33928216 -0.1505183 0.33412874 -0.09914085
0001a0 14 e3 74 3e e9 9a 9a be 97 dd ac 3d 62 0a 35 bc
       0.23914748 -0.30196312 0.084407024 -0.011049839
0001b0 d1 c2 b5 be 78 7a ad 3d e3 2d 24 bd e8 d3 bb be
       -0.35500196 0.08470625 -0.040082823 -0.3668511
0001c0 09 d6 f0 bd d8 6f 9f 3e 7e 4a 9b 3d 0b 58 6c be
       -0.11759574 0.31140018 0.07582568 -0.2308046
0001d0 53 bd 47 be 12 98 30 be 78 91 48 be 30 c2 91 3d
       -0.19505815 -0.1724551 -0.19586742 0.071171165
0001e0 32 b2 35 be 0b b7 89 3e d9 a3 4e 3e 44 e5 8d 3e
       -0.17743757 0.26897463 0.2017969 0.27713978
0001f0 87 85 dc 3b cd db ae 3e ad 01 a2 be ca d0 50 be
       0.006729785 0.3415207 -0.31641904 -0.20392147
000200 f3 45 5c be 91 dc 34 3e 98 06 b8 be b4 64 37 be
       -0.21511059 0.17662264 -0.3594253 -0.17909509
000210 80 49 1a 3e 4b 18 b5 3e 07 da 7b 3e b9 0a 20 3e
       0.150671 0.35370097 0.2459489 0.1562909
000220 10 ac 88 be d9 f0 ea 3d 4b f1 0c be 40 63 b3 3c
       -0.26693773 0.11471719 -0.13763921 0.021897912
000230 64 48 46 bd ee 19 b5 3e 39 7c 7c 3e 19 fb 21 3d
       -0.04840888 0.35371345 0.24656762 0.039546106
000240 37 2a bc be 50 9e 97 3e 4d be 84 3e ee 8c 03 3e
       -0.36750957 0.2961297 0.25926438 0.12846729
000250 82 40 bf be 3c 94 80 be 5d c1 4b 3e 97 8e b5 be
       -0.37353903 -0.25113094 0.19897981 -0.3546035
000260 db 3a 25 3e 1a a9 32 3d fb dd b0 3e 5b 81 04 3e
       0.16135733 0.0436183 0.34544358 0.1293997
000270 35 76 4c 3e 18 02 fa 3d 75 b2 36 be 6c 44 52 be
       0.19966967 0.122074306 -0.17841513 -0.20533913
000280 96 a3 bb be 98 98 71 bd da 92 b8 3b 62 04 fa bd
       -0.36648244 -0.058983415 0.0056327404 -0.12207867
000290 3d ce d5 3d fc b9 87 3e 12 f3 fb 3c 8c 58 16 be
       0.104397275 0.26509082 0.030755553 -0.14682215
0002a0 48 9f a8 be 59 ea 46 be a0 6a ee 3d 6d 36 b4 be
       -0.32934022 -0.19425334 0.11641431 -0.35197774
0002b0 4b 46 c0 be d7 39 a8 3c 68 94 1e 3c 0f 26 98 be
       -0.3755363 0.020535393 0.0096789375 -0.29716536
0002c0 49 c5 b6 3d e9 4b 29 3e 4f a0 96 be 60 de 65 bd
       0.08924348 0.16532864 -0.2941918 -0.056120276
0002d0 7f 56 65 3e 20 9e ac 3e d9 58 87 be 31 04 50 be
       0.22396277 0.3371439 -0.26434973 -0.20314099
0002e0 18 32 5b be 9f 05 45 be 3e e6 7a be 32 7f 94 3e
       -0.21405828 -0.19240426 -0.24501893 0.29003292
0002f0 2a e3 9c bc 12 2f 93 be 4f 21 89 be 8c 86 a4 be
       -0.019151289 -0.2874685 -0.26783225 -0.321339
000300 02 dc b5 be a4 01 b3 3c d7 4e 25 3d 89 6f 5e 3e
       -0.35519415 0.021851368 0.04035839 0.21722235
000310 07 24 a0 3e 59 75 88 3e 1f 68 a8 3e ae 3e 16 be
       0.31277487 0.2665203 0.32891938 -0.14672348
000320 2d b6 91 be d4 e9 0e bd 75 ac a6 bd 45 1e 93 bc
       -0.28459302 -0.034890965 -0.08138362 -0.01795877
000330 5b 40 14 3c 89 b9 59 be 2b 38 a5 be ff 34 1f be
       0.009048547 -0.21262182 -0.32269415 -0.1554756
000340 7e 68 91 3d 96 3d 46 3e 1c 8d ad be d4 cd ad be
       0.071000084 0.1935943 -0.3389672 -0.33946097
000350 db 3a b1 bc 36 57 14 be a9 bf 1d be 69 26 bb be
       -0.02163451 -0.14486393 -0.15405144 -0.36552742
000360 63 d9 2d 3e f0 56 82 bd d4 a3 98 3e 37 8c 78 be
       0.16977458 -0.06364238 0.2981249 -0.24272238
000370 3f d6 af be cf b5 a0 bb e4 c9 b7 3d c1 9a 61 3e
       -0.34343144 -0.004904486 0.089740545 0.2203169
000380 ae 0e 37 bd cd a7 94 3e 8f 2d 53 be 15 ed a3 be
       -0.044691734 0.29034272 -0.20622848 -0.32016817
000390 4a f0 3e be 9b a2 1a be 3c 15 06 3e 22 e2 9a 3e
       -0.1864635 -0.15101092 0.13094038 0.3025065
0003a0 25 cb b5 3e 85 21 38 be ec 89 b8 bd 2c e9 7a bd
       0.3550655 -0.17981537 -0.090106815 -0.061257526
0003b0 38 d6 0d 3e 91 fc ed bd 92 85 09 be 7a 70 86 3d
       0.13851249 -0.11620439 -0.1342986 0.06564422
0003c0 d8 8d 76 be 7c fe a5 3e 51 46 a8 be 52 f6 aa be
       -0.24077547 0.3242072 -0.32866147 -0.33391052
0003d0 3c a1 a7 bc 4f b5 88 be d2 a6 28 be da 83 5f 3e
       -0.020462625 -0.26700827 -0.16469887 0.21827641
0003e0 83 60 df 3a 95 d5 2f bd 44 a4 b3 be 01 c8 fc bd
       0.0017042313 -0.042928297 -0.35086262 -0.12342835
0003f0 89 41 01 be b0 99 8e 3e 56 35 18 3e e0 da 0d bd
       -0.12622656 0.2785163 0.14864096 -0.034632564

bias f4 [64]
000000 82 69 b1 bd 41 d4 89 be a7 f1 e9 3d cb 53 b5 be
       -0.08662702 -0.2691975 0.11423045 -0.3541549
000010 49 22 28 be be 7c 85 be 1d d6 09 3e c4 82 f7 3d
       -0.16419329 -0.26071733 0.13460584 0.120854884
000020 a5 9a ad 3e fd fc 6b bd 57 8f 9f 3e 02 c7 84 be
       0.33907047 -0.057614315 0.31164047 -0.2593308
000030 c5 44 7a be 71 64 8b be 0d 07 26 3c f6 3c af be
       -0.24440296 -0.27225068 0.010133517 -0.34226197
000040 ec 2e 83 3e d3 67 97 be 99 85 24 3e 5f de 29 be
       0.25621736 -0.295714 0.16066588 -0.16588734
000050 ce b0 e4 3b 72 c9 d2 bd 23 fc 37 3e 21 90 b7 3e
       0.0069790846 -0.10292329 0.17967276 0.3585215
000060 9a c3 be be 89 ea a5 be d6 57 00 bd f2 95 59 3c
       -0.37258607 -0.324055 -0.031333767 0.013280379
000070 69 a9 b8 3e b8 c5 2a 3e d4 d1 56 bb 6a 7c a6 be
       0.3606675 0.16676986 -0.0032778876 -0.32516795
000080 51 df aa 3d 98 46 15 be 38 41 14 3e 8e 87 09 be
       0.083433755 -0.1457771 0.14478004 -0.13430616
000090 53 02 a6 bc ea d0 86 3e ae ea ad 3e a7 46 aa be
       -0.02026478 0.26331264 0.3396811 -0.33257028
0000a0 b2 97 6a be 04 d8 14 be 20 a0 2e bc 58 5f 86 3e
       -0.2290943 -0.14535528 -0.010658294 0.26244617
0000b0 49 3e 6b 3e f3 a6 01 bd be 9a 53 be 9f 67 ac 3e
       0.22972979 -0.031653356 -0.20664498 0.33672807
0000c0 41 cd 09 be c8 0a 2d be 83 99 2f 3e f9 ab 56 3e
       -0.13457204 -0.16898644 0.17148404 0.2096404
0000d0 0c 5f e9 3d 00 aa b8 bd 27 ad 18 be 43 a7 e1 bd
       0.11395082 -0.090168 -0.14909802 -0.11018231
0000e0 7e f8 8d 3e 56 90 56 3e 95 a2 28 3e fb 4b 14 bd
       0.27728647 0.20953497 0.1646827 -0.036205273
0000f0 73 86 3a 3e 5f cf 4a 3d cc 0e 15 be fd 03 17 be
       0.18215351 0.04951417 -0.14556426 -0.14747615

weight f4 [64]
000000 00 00 80 3f 00 00 80 3f 00 00 80 3f 00 00 80 3f
       1.0 1.0 1.0 1.0
000010 00 00 80 3f 00 00 80 3f 00 00 80 3f 00 00 80 3f
       1.0 1.0 1.0 1.0
000020 00 00 80 3f 00 00 80 3f 00 00 80 3f 00 00 80 3f
       1.0 1.0 1.0 1.0
000030 00 00 80 3f 00 00 80 3f 00 00 80 3f 00 00 80 3f
       1.0 1.0 1.0 1.0
000040 00 00 80 3f 00 00 80 3f 00 00 80 3f 00 00 80 3f
       1.0 1.0 1.0 1.0
000050 00 00 80 3f 00 00 80 3f 00 00 80 3f 00 00 80 3f
       1.0 1.0 1.0 1.0
000060 00 00 80 3f 00 00 80 3f 00 00 80 3f 00 00 80 3f
       1.0 1.0 1.0 1.0
000070 00 00 80 3f 00 00 80 3f 00 00 80 3f 00 00 80 3f
       1.0 1.0 1.0 1.0
000080 00 00 80 3f 00 00 80 3f 00 00 80 3f 00 00 80 3f
       1.0 1.0 1.0 1.0
000090 00 00 80 3f 00 00 80 3f 00 00 80 3f 00 00 80 3f
       1.0 1.0 1.0 1.0
0000a0 00 00 80 3f 00 00 80 3f 00 00 80 3f 00 00 80 3f
       1.0 1.0 1.0 1.0
0000b0 00 00 80 3f 00 00 80 3f 00 00 80 3f 00 00 80 3f
       1.0 1.0 1.0 1.0
0000c0 00 00 80 3f 00 00 80 3f 00 00 80 3f 00 00 80 3f
       1.0 1.0 1.0 1.0
0000d0 00 00 80 3f 00 00 80 3f 00 00 80 3f 00 00 80 3f
       1.0 1.0 1.0 1.0
0000e0 00 00 80 3f 00 00 80 3f 00 00 80 3f 00 00 80 3f
       1.0 1.0 1.0 1.0
0000f0 00 00 80 3f 00 00 80 3f 00 00 80 3f 00 00 80 3f
       1.0 1.0 1.0 1.0

bias f4 [64]
000000 00 00 00 00 00 00 00 00 00 00 00 00 00 00 00 00
       0.0 0.0 0.0 0.0
000010 00 00 00 00 00 00 00 00 00 00 00 00 00 00 00 00
       0.0 0.0 0.0 0.0
000020 00 00 00 00 00 00 00 00 00 00 00 00 00 00 00 00
       0.0 0.0 0.0 0.0
000030 00 00 00 00 00 00 00 00 00 00 00 00 00 00 00 00
       0.0 0.0 0.0 0.0
000040 00 00 00 00 00 00 00 00 00 00 00 00 00 00 00 00
       0.0 0.0 0.0 0.0
000050 00 00 00 00 00 00 00 00 00 00 00 00 00 00 00 00
       0.0 0.0 0.0 0.0
000060 00 00 00 00 00 00 00 00 00 00 00 00 00 00 00 00
       0.0 0.0 0.0 0.0
000070 00 00 00 00 00 00 00 00 00 00 00 00 00 00 00 00
       0.0 0.0 0.0 0.0
000080 00 00 00 00 00 00 00 00 00 00 00 00 00 00 00 00
       0.0 0.0 0.0 0.0
000090 00 00 00 00 00 00 00 00 00 00 00 00 00 00 00 00
       0.0 0.0 0.0 0.0
0000a0 00 00 00 00 00 00 00 00 00 00 00 00 00 00 00 00
       0.0 0.0 0.0 0.0
0000b0 00 00 00 00 00 00 00 00 00 00 00 00 00 00 00 00
       0.0 0.0 0.0 0.0
0000c0 00 00 00 00 00 00 00 00 00 00 00 00 00 00 00 00
       0.0 0.0 0.0 0.0
0000d0 00 00 00 00 00 00 00 00 00 00 00 00 00 00 00 00
       0.0 0.0 0.0 0.0
0000e0 00 00 00 00 00 00 00 00 00 00 00 00 00 00 00 00
       0.0 0.0 0.0 0.0
0000f0 00 00 00 00 00 00 00 00 00 00 00 00 00 00 00 00
       0.0 0.0 0.0 0.0

running_mean f4 [64]
000000 00 00 00 00 00 00 00 00 00 00 00 00 00 00 00 00
       0.0 0.0 0.0 0.0
000010 00 00 00 00 00 00 00 00 00 00 00 00 00 00 00 00
       0.0 0.0 0.0 0.0
000020 00 00 00 00 00 00 00 00 00 00 00 00 00 00 00 00
       0.0 0.0 0.0 0.0
000030 00 00 00 00 00 00 00 00 00 00 00 00 00 00 00 00
       0.0 0.0 0.0 0.0
000040 00 00 00 00 00 00 00 00 00 00 00 00 00 00 00 00
       0.0 0.0 0.0 0.0
000050 00 00 00 00 00 00 00 00 00 00 00 00 00 00 00 00
       0.0 0.0 0.0 0.0
000060 00 00 00 00 00 00 00 00 00 00 00 00 00 00 00 00
       0.0 0.0 0.0 0.0
000070 00 00 00 00 00 00 00 00 00 00 00 00 00 00 00 00
       0.0 0.0 0.0 0.0
000080 00 00 00 00 00 00 00 00 00 00 00 00 00 00 00 00
       0.0 0.0 0.0 0.0
000090 00 00 00 00 00 00 00 00 00 00 00 00 00 00 00 00
       0.0 0.0 0.0 0.0
0000a0 00 00 00 00 00 00 00 00 00 00 00 00 00 00 00 00
       0.0 0.0 0.0 0.0
0000b0 00 00 00 00 00 00 00 00 00 00 00 00 00 00 00 00
       0.0 0.0 0.0 0.0
0000c0 00 00 00 00 00 00 00 00 00 00 00 00 00 00 00 00
       0.0 0.0 0.0 0.0
0000d0 00 00 00 00 00 00 00 00 00 00 00 00 00 00 00 00
       0.0 0.0 0.0 0.0
0000e0 00 00 00 00 00 00 00 00 00 00 00 00 00 00 00 00
       0.0 0.0 0.0 0.0
0000f0 00 00 00 00 00 00 00 00 00 00 00 00 00 00 00 00
       0.0 0.0 0.0 0.0

running_var f4 [64]
000000 00 00 80 3f 00 00 80 3f 00 00 80 3f 00 00 80 3f
       1.0 1.0 1.0 1.0
000010 00 00 80 3f 00 00 80 3f 00 00 80 3f 00 00 80 3f
       1.0 1.0 1.0 1.0
000020 00 00 80 3f 00 00 80 3f 00 00 80 3f 00 00 80 3f
       1.0 1.0 1.0 1.0
000030 00 00 80 3f 00 00 80 3f 00 00 80 3f 00 00 80 3f
       1.0 1.0 1.0 1.0
000040 00 00 80 3f 00 00 80 3f 00 00 80 3f 00 00 80 3f
       1.0 1.0 1.0 1.0
000050 00 00 80 3f 00 00 80 3f 00 00 80 3f 00 00 80 3f
       1.0 1.0 1.0 1.0
000060 00 00 80 3f 00 00 80 3f 00 00 80 3f 00 00 80 3f
       1.0 1.0 1.0 1.0
000070 00 00 80 3f 00 00 80 3f 00 00 80 3f 00 00 80 3f
       1.0 1.0 1.0 1.0
000080 00 00 80 3f 00 00 80 3f 00 00 80 3f 00 00 80 3f
       1.0 1.0 1.0 1.0
000090 00 00 80 3f 00 00 80 3f 00 00 80 3f 00 00 80 3f
       1.0 1.0 1.0 1.0
0000a0 00 00 80 3f 00 00 80 3f 00 00 80 3f 00 00 80 3f
       1.0 1.0 1.0 1.0
0000b0 00 00 80 3f 00 00 80 3f 00 00 80 3f 00 00 80 3f
       1.0 1.0 1.0 1.0
0000c0 00 00 80 3f 00 00 80 3f 00 00 80 3f 00 00 80 3f
       1.0 1.0 1.0 1.0
0000d0 00 00 80 3f 00 00 80 3f 00 00 80 3f 00 00 80 3f
       1.0 1.0 1.0 1.0
0000e0 00 00 80 3f 00 00 80 3f 00 00 80 3f 00 00 80 3f
       1.0 1.0 1.0 1.0
0000f0 00 00 80 3f 00 00 80 3f 00 00 80 3f 00 00 80 3f
       1.0 1.0 1.0 1.0

weight f4 [128, 64]
000000 80 d9 61 3d 00 91 1b 3a a6 d0 c4 3d e6 e5 ac 3d
       0.055139065 0.00059343874 0.09610109 0.08442287
000010 fc 5a 91 3d 6a 2c c4 bd 2c 16 eb bd ec ed 62 3d
       0.07097432 -0.09578784 -0.11478838 0.05540268
000020 10 0b 03 bc a8 5b fd bd b8 12 5e bd 5c f7 73 bd
       -0.007998243 -0.12370998 -0.05421707 -0.059562072
000030 c0 16 a4 bd 28 cd d1 3c a4 12 28 3d f4 c0 97 bd
       -0.08012152 0.025610521 0.041033402 -0.0740985
000040 c6 e2 da bd 08 a5 a7 3d ec 6c 8f 3d 80 d9 1d 3d
       -0.10687785 0.08185774 0.07003197 0.038537502
000050 e4 76 36 3d 60 97 a0 bc e0 1c 7c bc f8 b5 fa bc
       0.044546977 -0.019603431 -0.015387744 -0.030604348
000060 ac 57 79 bd 08 f3 b8 bd 90 9c 9d 3d b8 1b 9d bc
       -0.060874626 -0.090307295 0.076958776 -0.019178256
000070 00 4b d3 3b 62 9a d4 bd 40 bc 97 3b 00 ce 26 ba
       0.0064481497 -0.10381009 0.0046305954 -0.0006363094
000080 32 2b b5 bd da d7 d9 bd 34 fa cf bd 66 4e f3 bd
       -0.088461295 -0.106368735 -0.10155144 -0.11880188
000090 ac 63 cd 3d 0c eb 76 bd 18 2e db bc b8 7e a1 3d
       0.100287765 -0.060282752 -0.026755378 0.07885498
0000a0 e8 e5 05 3d b0 da 4e 3c 00 a3 52 ba 00 76 8b 39
       0.03268996 0.012625381 -0.0008035153 0.00026600063
0000b0 00 05 57 ba 50 8a 3c bd 20 38 39 3c 30 98 51 3d
       -0.0008202344 -0.046030343 0.011304885 0.051170528
0000c0 de 23 86 bd dc cf c4 3d 40 eb eb 3c 84 37 11 bd
       -0.0654981 0.096099585 0.0287987 -0.035453334
0000d0 60 2f 46 3d a4 e6 3b 3d 54 e5 43 3d d0 99 03 bd
       0.048385024 0.045874253 0.047826126 -0.03212911
0000e0 cc bb a9 3d 40 6b 66 3b fe 3f b8 3d 14 ca 2d bd
       0.082877725 0.003515914 0.089965805 -0.042429045
0000f0 a0 6d 27 bd d8 3f 54 3d 98 d0 84 3c fc 2f 2c 3d
       -0.04087603 0.0518187 0.016212747 0.04203795
000100 22 91 81 bd a0 b2 eb bb ca d9 f3 3d 10 9b 54 bd
       -0.0632651 -0.0071929246 0.11906774 -0.05190569
000110 98 69 71 3d 44 8c f8 bd ec 26 89 3d 50 1f bc 3d
       0.058938593 -0.121361285 0.06696877 0.0918566
000120 00 f6 72 3a 98 e7 c8 bc 14 8c 44 3d 10 86 d6 3c
       0.0009268224 -0.024524495 0.04798515 0.026186973
000130 3c 4e 83 3d 48 15 8e 3c 8e 29 c9 bd 2e 30 c4 bd
       0.064114064 0.017344132 -0.09822379 -0.09579502
000140 de 36 b3 3d 80 61 8d ba 62 64 c0 3d dc 2c 84 3d
       0.087506995 -0.0010786504 0.093941465 0.06453869
000150 e6 c2 8c bd 46 3f ac bd 4c 0c ae 3d 44 cb 21 bd
       -0.068731114 -0.08410506 0.08498439 -0.03950049
000160 1c d9 98 3d 42 c0 a4 bd 58 22 a4 bc 60 d3 89 3c
       0.07463285 -0.08044483 -0.020035908 0.016824424
000170 b0 8e 16 bc f0 fc c8 3d 00 07 17 bc 80 83 fc 3c
       -0.009189293 0.09813869 -0.0092179775 0.030824423
000180 d4 4f c1 3d 66 65 f9 bd 60 b7 db 3c f4 d8 ab 3d
       0.09439054 -0.12177543 0.026820838 0.0839099
000190 f0 76 97 bc f8 54 96 3c 1c b3 9b 3d a4 c3 42 3d
       -0.018489331 0.018351063 0.07602522 0.04754986
0001a0 64 6e 0e bd d6 46 d1 3d 20 42 84 bd be dd b3 3d
       -0.034773245 0.10218589 -0.06457925 0.08782528
0001b0 16 0b f5 3d 6e 43 b0 3d c4 af 0c 3d 54 56 83 bd
       0.11965005 0.08606611 0.03434731 -0.0641295
0001c0 2e b0 c0 3d e0 bf 05 bc ea 79 cc bd 5e 64 98 3d
       0.094086036 -0.008163422 -0.09984191 0.074410185
0001d0 20 f1 8a 3c ea ef a7 3d 54 cd 04 bd 10 b2 35 3c
       0.01696068 0.08200057 -0.03242238 0.011089817
0001e0 fc 43 07 3d 5a 41 83 bd 90 b0 00 3d e4 d3 ad 3d
       0.03302382 -0.06408949 0.031418383 0.084876806
0001f0 e8 3a b3 3d 0c fc 40 3d 38 70 b0 3d 1c 6d 11 bd
       0.0875147 0.04711537 0.08615154 -0.035504445
000200 7c 23 30 bd 70 ff 9a bc 66 85 f0 3d b4 12 40 bd
       -0.04300259 -0.01892063 0.11744194 -0.046892837
000210 b4 48 9c bd 34 80 75 3d 00 9f bf 3a 0c 3a 97 bd
       -0.076310545 0.059936717 0.0014619529 -0.073841184
000220 3a 95 bf bd 30 68 c0 3d c8 fc fe 3c 6e f5 d9 3d
       -0.093546346 0.09394872 0.031126395 0.10642515
000230 22 52 a6 bd 94 1d e6 3d 60 ae cc bc 80 44 87 bb
       -0.08121134 0.1123611 -0.024985492 -0.004128039
000240 e8 26 3f 3d bc 82 8f bd 00 a5 f2 bc 2c 3a 05 bd
       0.046667963 -0.070073575 -0.029619694 -0.03252618
000250 d4 5a 97 3d b0 47 b6 bd a0 02 ed 3c 6c df c6 bd
       0.07390371 -0.08900392 0.028931916 -0.09710583
000260 6c 16 2a bd dc ef 35 bd 78 87 5c bd 94 6b 4e bd
       -0.04152529 -0.0444182 -0.05384013 -0.050395563
000270 4c 76 04 3d 2c 24 9c bd cc a7 26 bd 66 96 8b bd
       0.03233938 -0.07624087 -0.040687367 -0.068157956
000280 00 cb 5e 3c f0 5c 77 3c 64 f4 66 bd 40 d4 07 3c
       0.013598204 0.015097842 -0.056385413 0.00829035
000290 aa 02 db 3d e0 44 11 bc 26 e1 a6 bd 48 8d ed bd
       0.106938675 -0.008866519 -0.081484124 -0.11599213
0002a0 c6 a9 d7 3d 18 09 4a 3d f0 a0 b8 3d aa 2c a9 3d
       0.105304286 0.04932508 0.090150714 0.08260472
0002b0 78 d9 d0 bc 90 94 64 3c 38 ef d4 3c 80 ef 3a 3d
       -0.025494322 0.013951436 0.025992975 0.04563856
0002c0 e4 3e 2a bd 28 24 fb bd 62 40 f5 3d 82 5a 8a 3d
       -0.041563883 -0.12262756 0.11975171 0.06755544
0002d0 40 94 48 bb a8 b1 aa 3d 10 93 2b bd d8 b1 e8 bd
       -0.0030605942 0.083346665 -0.041888297 -0.11362046
0002e0 90 14 25 3c dc d0 b3 bd 50 2d 99 bd 60 85 c3 3d
       0.010075703 -0.08780071 -0.07479346 0.09546924
0002f0 aa 3d 89 bd ac b2 83 3d 84 b7 bb 3d 80 58 b9 bd
       -0.067012146 0.06430563 0.09165862 -0.09050083
000300 50 fa cc bc 60 92 f7 bd 42 03 c1 bd 00 3d bc 3c
       -0.025021702 -0.12088466 -0.094244495 0.022978306
000310 08 43 60 3d 10 06 99 3d d8 62 f6 3c 28 f5 f8 3d
       0.054751426 0.074718595 0.03007643 0.12156135
000320 cc 42 11 bd 76 73 be bd 00 fc a3 3a 30 c7 6e bd
       -0.035464093 -0.09299366 0.0012511015 -0.05829543
000330 b4 e3 41 3d ac f0 ab bd 14 f9 35 bd 20 53 c5 bc
       0.047336295 -0.08395514 -0.044426993 -0.024087489
000340 1c 7a f1 bd 52 e3 fe 3d 58 17 4b 3d 1a 81 ca 3d
       -0.11790869 0.12445702 0.04958281 0.098879054
000350 68 d9 f7 3d 00 65 57 3a 80 a8 a0 ba 96 da e3 3d
       0.12102014 0.00082166493 -0.0012257248 0.11125676
000360 88 43 d9 bc b4 03 03 bd f8 ec f8 bc 6c 05 e3 bd
       -0.02652146 -0.031985953 -0.030386433 -0.110850185
000370 a0 d1 20 bd 9c b6 41 bd 9c ac 34 bd 68 0d 91 bc
       -0.039262414 -0.04729329 -0.044109926 -0.017706588
000380 fe dc 96 bd e8 d8 99 3d 34 4f 84 bd c0 34 e9 3c
       -0.0736637 0.07512075 -0.06460419 0.028467536
000390 c8 32 b6 3d 80 18 ce bd 4e 12 dd 3d 9e 5e 95 3d
       0.088964045 -0.10063267 0.10794507 0.072934374
0003a0 1c 26 c3 bd e2 0d ef bd 80 49 14 3c f8 49 ab bc
       -0.09528753 -0.1167257 0.009050727 -0.020909294
0003b0 00 0a 8b bb 60 e7 3b 3c 80 6f 82 3c 7e 84 88 3d
       -0.0042431355 0.011468738 0.015922308 0.06665896
0003c0 e8 8b 95 bd 0c 47 36 3d 88 e5 85 3c 76 97 ac bd
       -0.073020756 0.04450135 0.0163448 -0.084273264
0003d0 60 55 01 3c 96 c1 9d bd 8a 1d b8 bd d0 6d 4d bc
       0.00789389 -0.07702939 -0.08990009 -0.012538388
0003e0 10 75 fc bd 94 43 ca 3d 4e 1e e3 3d 9c ba b9 bd
       -0.123270154 0.09876171 0.110897645 -0.09068796
0003f0 b2 24 ba 3d d4 ae 3a 3d 84 f0 b0 3d 8c 3d 0e bd
       0.0908903 0.045576885 0.08639625 -0.034726664

bias f4 [128]
000000 48 29 2d bd c0 4f c2 3b 08 aa 2e 3d 56 f4 fd 3d
       -0.042275697 0.005929917 0.042642623 0.12400119
000010 68 62 ea 3d 64 f5 97 bd e6 6e df bd b0 d5 53 bd
       0.11444551 -0.074198514 -0.10909824 -0.05171746
000020 4c 8a 06 bd 38 e9 84 bd a2 81 e6 bd 90 b6 40 3d
       -0.032846734 -0.064897954 -0.11255194 0.047049105
000030 00 58 f6 38 9a 9b ae bd e8 15 a5 3d 60 b8 55 bd
       0.000117465854 -0.085257724 0.08060819 -0.052177787
000040 20 69 ae 3c 0a 6e be 3d c2 83 97 3d 00 c5 b6 bd
       0.021290362 0.09298332 0.07398178 -0.089242935
000050 dc 0c 85 3d 92 ad ee 3d a8 1e 12 3d de c2 be 3d
       0.06496593 0.116542 0.035673767 0.09314512
000060 b6 ce 90 3d 8c 1a 53 3d 62 aa bf 3d 6e a2 bf bd
       0.07070677 0.05153899 0.0935867 -0.09357153
000070 22 af a8 3d 48 c8 d2 3d b8 4b 58 3d 9a bc b9 3d
       0.08236529 0.10292107 0.052806586 0.09069176
000080 3a 68 b3 3d d8 81 01 bd d0 20 98 3d c6 22 e2 bd
       0.08760114 -0.03161797 0.074281335 -0.11041789
000090 52 0a cf 3d f0 b1 bf 3c 56 04 d9 3d 20 f7 a4 3c
       0.1010939 0.023400277 0.1059653 0.02013737
0000a0 5c b5 03 3d dc 0b 67 3d 98 04 a6 bd 5c 40 77 3d
       0.03215538 0.056407794 -0.08106345 0.060364112
0000b0 3a 68 df 3d a4 3d 77 bd 74 18 ad 3d d2 2a bd 3d
       0.109085515 -0.06036152 0.0845193 0.09236683
0000c0 5a 6f e6 3d b4 bc ed 3d 60 68 76 bd 30 0d 82 3c
       0.112517074 0.11608258 -0.060158134 0.015875429
0000d0 24 2b d3 bd fc 01 fe 3d 42 6a 9f bd 88 92 e6 bc
       -0.10310963 0.12402722 -0.07783939 -0.028146043
0000e0 80 2d af 3b 14 2f 62 3d 44 e8 4a 3d 0e c5 c1 3d
       0.005346 0.05522068 0.049537912 0.09461413
0000f0 1c 67 08 3d e0 2b da 3c b6 f8 be bd 80 8d 22 bd
       0.033301458 0.02663225 -0.093247816 -0.039685726
000100 2c e0 70 3d 6c 6d a7 bd 10 0d d9 bc 00 5b c6 3a
       0.058807537 -0.081751674 -0.026495486 0.0015133321
000110 a2 d8 cd bd 4c 39 ef 3d 1c d1 89 bd 90 1d db bc
       -0.10051085 0.116808504 -0.067293376 -0.026747495
000120 78 d1 b7 3d 8e f7 d6 bd 40 68 11 3b 00 34 11 b9
       0.089755 -0.10496436 0.0022187382 -0.00013847649
000130 d8 84 89 3c c0 b8 48 bc 98 f4 a5 3d 4e f1 ea 3d
       0.016786978 -0.012251079 0.08103293 0.114718065
000140 a8 49 ed 3d a4 ad 1a 3d ec 8d b4 3d 24 c6 cd bd
       0.115863144 0.037763253 0.08816132 -0.10047558
000150 00 f6 47 3c fe a8 84 3d 7e 3c 9c 3d 60 44 4f 3d
       0.012204647 0.06477545 0.076287255 0.050602317
000160 56 89 d0 bd e6 a9 ff 3d 00 80 a4 b8 ec ce d1 3d
       -0.10182445 0.124835774 -7.843971e-05 0.10244545
000170 00 10 bc bb d2 3e bc bd e8 7a ca 3c 78 5c b2 bc
       -0.005739212 -0.091916695 0.02471681 -0.021772608
000180 8c 3e 0c bd ac b1 a1 3d 00 e1 1d 3a 86 85 d7 3d
       -0.034239337 0.07895216 0.00060226023 0.105235144
000190 e4 c0 ec bd 62 ee fd bd 00 c0 4e bc 80 fa d7 bb
       -0.115602285 -0.123989835 -0.012619019 -0.006591141
0001a0 84 69 2e 3d 40 2e 06 3c 96 a5 89 3d c4 3a 1d bd
       0.042581096 0.008189738 0.06721036 -0.03838612
0001b0 74 c7 5a 3d 50 ad 43 3d 80 9c ae ba b8 ab f3 3c
       0.05341287 0.047772706 -0.0013321787 0.029744968
0001c0 28 be d9 bd 00 54 6d ba 62 99 ca 3d 2c c3 7c 3d
       -0.106319726 -0.00090533495 0.09892537 0.061709568
0001d0 66 80 dd bd 94 00 1a 3d 5c 84 78 bd 56 6d a4 3d
       -0.10815506 0.037598208 -0.060673103 0.08028667
0001e0 ae 88 a0 3d 9c 82 92 3d 56 24 8f 3d c0 85 a9 3c
       0.078385696 0.07153818 0.069893524 0.02069366
0001f0 20 2c b6 bb 94 97 c4 bd ec 0d cf bd d6 a7 da 3d
       -0.0055594593 -0.09599224 -0.10110077 0.106765434

weight f4 [128]
000000 00 00 80 3f 00 00 80 3f 00 00 80 3f 00 00 80 3f
       1.0 1.0 1.0 1.0
000010 00 00 80 3f 00 00 80 3f 00 00 80 3f 00 00 80 3f
       1.0 1.0 1.0 1.0
000020 00 00 80 3f 00 00 80 3f 00 00 80 3f 00 00 80 3f
       1.0 1.0 1.0 1.0
000030 00 00 80 3f 00 00 80 3f 00 00 80 3f 00 00 80 3f
       1.0 1.0 1.0 1.0
000040 00 00 80 3f 00 00 80 3f 00 00 80 3f 00 00 80 3f
       1.0 1.0 1.0 1.0
000050 00 00 80 3f 00 00 80 3f 00 00 80 3f 00 00 80 3f
       1.0 1.0 1.0 1.0
000060 00 00 80 3f 00 00 80 3f 00 00 80 3f 00 00 80 3f
       1.0 1.0 1.0 1.0
000070 00 00 80 3f 00 00 80 3f 00 00 80 3f 00 00 80 3f
       1.0 1.0 1.0 1.0
000080 00 00 80 3f 00 00 80 3f 00 00 80 3f 00 00 80 3f
       1.0 1.0 1.0 1.0
000090 00 00 80 3f 00 00 80 3f 00 00 80 3f 00 00 80 3f
       1.0 1.0 1.0 1.0
0000a0 00 00 80 3f 00 00 80 3f 00 00 80 3f 00 00 80 3f
       1.0 1.0 1.0 1.0
0000b0 00 00 80 3f 00 00 80 3f 00 00 80 3f 00 00 80 3f
       1.0 1.0 1.0 1.0
0000c0 00 00 80 3f 00 00 80 3f 00 00 80 3f 00 00 80 3f
       1.0 1.0 1.0 1.0
0000d0 00 00 80 3f 00 00 80 3f 00 00 80 3f 00 00 80 3f
       1.0 1.0 1.0 1.0
0000e0 00 00 80 3f 00 00 80 3f 00 00 80 3f 00 00 80 3f
       1.0 1.0 1.0 1.0
0000f0 00 00 80 3f 00 00 80 3f 00 00 80 3f 00 00 80 3f
       1.0 1.0 1.0 1.0
000100 00 00 80 3f 00 00 80 3f 00 00 80 3f 00 00 80 3f
       1.0 1.0 1.0 1.0
000110 00 00 80 3f 00 00 80 3f 00 00 80 3f 00 00 80 3f
       1.0 1.0 1.0 1.0
000120 00 00 80 3f 00 00 80 3f 00 00 80 3f 00 00 80 3f
       1.0 1.0 1.0 1.0
000130 00 00 80 3f 00 00 80 3f 00 00 80 3f 00 00 80 3f
       1.0 1.0 1.0 1.0
000140 00 00 80 3f 00 00 80 3f 00 00 80 3f 00 00 80 3f
       1.0 1.0 1.0 1.0
000150 00 00 80 3f 00 00 80 3f 00 00 80 3f 00 00 80 3f
       1.0 1.0 1.0 1.0
000160 00 00 80 3f 00 00 80 3f 00 00 80 3f 00 00 80 3f
       1.0 1.0 1.0 1.0
000170 00 00 80 3f 00 00 80 3f 00 00 80 3f 00 00 80 3f
       1.0 1.0 1.0 1.0
000180 00 00 80 3f 00 00 80 3f 00 00 80 3f 00 00 80 3f
       1.0 1.0 1.0 1.0
000190 00 00 80 3f 00 00 80 3f 00 00 80 3f 00 00 80 3f
       1.0 1.0 1.0 1.0
0001a0 00 00 80 3f 00 00 80 3f 00 00 80 3f 00 00 80 3f
       1.0 1.0 1.0 1.0
0001b0 00 00 80 3f 00 00 80 3f 00 00 80 3f 00 00 80 3f
       1.0 1.0 1.0 1.0
0001c0 00 00 80 3f 00 00 80 3f 00 00 80 3f 00 00 80 3f
       1.0 1.0 1.0 1.0
0001d0 00 00 80 3f 00 00 80 3f 00 00 80 3f 00 00 80 3f
       1.0 1.0 1.0 1.0
0001e0 00 00 80 3f 00 00 80 3f 00 00 80 3f 00 00 80 3f
       1.0 1.0 1.0 1.0
0001f0 00 00 80 3f 00 00 80 3f 00 00 80 3f 00 00 80 3f
       1.0 1.0 1.0 1.0

bias f4 [128]
000000 00 00 00 00 00 00 00 00 00 00 00 00 00 00 00 00
       0.0 0.0 0.0 0.0
000010 00 00 00 00 00 00 00 00 00 00 00 00 00 00 00 00
       0.0 0.0 0.0 0.0
000020 00 00 00 00 00 00 00 00 00 00 00 00 00 00 00 00
       0.0 0.0 0.0 0.0
000030 00 00 00 00 00 00 00 00 00 00 00 00 00 00 00 00
       0.0 0.0 0.0 0.0
000040 00 00 00 00 00 00 00 00 00 00 00 00 00 00 00 00
       0.0 0.0 0.0 0.0
000050 00 00 00 00 00 00 00 00 00 00 00 00 00 00 00 00
       0.0 0.0 0.0 0.0
000060 00 00 00 00 00 00 00 00 00 00 00 00 00 00 00 00
       0.0 0.0 0.0 0.0
000070 00 00 00 00 00 00 00 00 00 00 00 00 00 00 00 00
       0.0 0.0 0.0 0.0
000080 00 00 00 00 00 00 00 00 00 00 00 00 00 00 00 00
       0.0 0.0 0.0 0.0
000090 00 00 00 00 00 00 00 00 00 00 00 00 00 00 00 00
       0.0 0.0 0.0 0.0
0000a0 00 00 00 00 00 00 00 00 00 00 00 00 00 00 00 00
       0.0 0.0 0.0 0.0
0000b0 00 00 00 00 00 00 00 00 00 00 00 00 00 00 00 00
       0.0 0.0 0.0 0.0
0000c0 00 00 00 00 00 00 00 00 00 00 00 00 00 00 00 00
       0.0 0.0 0.0 0.0
0000d0 00 00 00 00 00 00 00 00 00 00 00 00 00 00 00 00
       0.0 0.0 0.0 0.0
0000e0 00 00 00 00 00 00 00 00 00 00 00 00 00 00 00 00
       0.0 0.0 0.0 0.0
0000f0 00 00 00 00 00 00 00 00 00 00 00 00 00 00 00 00
       0.0 0.0 0.0 0.0
000100 00 00 00 00 00 00 00 00 00 00 00 00 00 00 00 00
       0.0 0.0 0.0 0.0
000110 00 00 00 00 00 00 00 00 00 00 00 00 00 00 00 00
       0.0 0.0 0.0 0.0
000120 00 00 00 00 00 00 00 00 00 00 00 00 00 00 00 00
       0.0 0.0 0.0 0.0
000130 00 00 00 00 00 00 00 00 00 00 00 00 00 00 00 00
       0.0 0.0 0.0 0.0
000140 00 00 00 00 00 00 00 00 00 00 00 00 00 00 00 00
       0.0 0.0 0.0 0.0
000150 00 00 00 00 00 00 00 00 00 00 00 00 00 00 00 00
       0.0 0.0 0.0 0.0
000160 00 00 00 00 00 00 00 00 00 00 00 00 00 00 00 00
       0.0 0.0 0.0 0.0
000170 00 00 00 00 00 00 00 00 00 00 00 00 00 00 00 00
       0.0 0.0 0.0 0.0
000180 00 00 00 00 00 00 00 00 00 00 00 00 00 00 00 00
       0.0 0.0 0.0 0.0
000190 00 00 00 00 00 00 00 00 00 00 00 00 00 00 00 00
       0.0 0.0 0.0 0.0
0001a0 00 00 00 00 00 00 00 00 00 00 00 00 00 00 00 00
       0.0 0.0 0.0 0.0
0001b0 00 00 00 00 00 00 00 00 00 00 00 00 00 00 00 00
       0.0 0.0 0.0 0.0
0001c0 00 00 00 00 00 00 00 00 00 00 00 00 00 00 00 00
       0.0 0.0 0.0 0.0
0001d0 00 00 00 00 00 00 00 00 00 00 00 00 00 00 00 00
       0.0 0.0 0.0 0.0
0001e0 00 00 00 00 00 00 00 00 00 00 00 00 00 00 00 00
       0.0 0.0 0.0 0.0
0001f0 00 00 00 00 00 00 00 00 00 00 00 00 00 00 00 00
       0.0 0.0 0.0 0.0

running_mean f4 [128]
000000 00 00 00 00 00 00 00 00 00 00 00 00 00 00 00 00
       0.0 0.0 0.0 0.0
000010 00 00 00 00 00 00 00 00 00 00 00 00 00 00 00 00
       0.0 0.0 0.0 0.0
000020 00 00 00 00 00 00 00 00 00 00 00 00 00 00 00 00
       0.0 0.0 0.0 0.0
000030 00 00 00 00 00 00 00 00 00 00 00 00 00 00 00 00
       0.0 0.0 0.0 0.0
000040 00 00 00 00 00 00 00 00 00 00 00 00 00 00 00 00
       0.0 0.0 0.0 0.0
000050 00 00 00 00 00 00 00 00 00 00 00 00 00 00 00 00
       0.0 0.0 0.0 0.0
000060 00 00 00 00 00 00 00 00 00 00 00 00 00 00 00 00
       0.0 0.0 0.0 0.0
000070 00 00 00 00 00 00 00 00 00 00 00 00 00 00 00 00
       0.0 0.0 0.0 0.0
000080 00 00 00 00 00 00 00 00 00 00 00 00 00 00 00 00
       0.0 0.0 0.0 0.0
000090 00 00 00 00 00 00 00 00 00 00 00 00 00 00 00 00
       0.0 0.0 0.0 0.0
0000a0 00 00 00 00 00 00 00 00 00 00 00 00 00 00 00 00
       0.0 0.0 0.0 0.0
0000b0 00 00 00 00 00 00 00 00 00 00 00 00 00 00 00 00
       0.0 0.0 0.0 0.0
0000c0 00 00 00 00 00 00 00 00 00 00 00 00 00 00 00 00
       0.0 0.0 0.0 0.0
0000d0 00 00 00 00 00 00 00 00 00 00 00 00 00 00 00 00
       0.0 0.0 0.0 0.0
0000e0 00 00 00 00 00 00 00 00 00 00 00 00 00 00 00 00
       0.0 0.0 0.0 0.0
0000f0 00 00 00 00 00 00 00 00 00 00 00 00 00 00 00 00
       0.0 0.0 0.0 0.0
000100 00 00 00 00 00 00 00 00 00 00 00 00 00 00 00 00
       0.0 0.0 0.0 0.0
000110 00 00 00 00 00 00 00 00 00 00 00 00 00 00 00 00
       0.0 0.0 0.0 0.0
000120 00 00 00 00 00 00 00 00 00 00 00 00 00 00 00 00
       0.0 0.0 0.0 0.0
000130 00 00 00 00 00 00 00 00 00 00 00 00 00 00 00 00
       0.0 0.0 0.0 0.0
000140 00 00 00 00 00 00 00 00 00 00 00 00 00 00 00 00
       0.0 0.0 0.0 0.0
000150 00 00 00 00 00 00 00 00 00 00 00 00 00 00 00 00
       0.0 0.0 0.0 0.0
000160 00 00 00 00 00 00 00 00 00 00 00 00 00 00 00 00
       0.0 0.0 0.0 0.0
000170 00 00 00 00 00 00 00 00 00 00 00 00 00 00 00 00
       0.0 0.0 0.0 0.0
000180 00 00 00 00 00 00 00 00 00 00 00 00 00 00 00 00
       0.0 0.0 0.0 0.0
000190 00 00 00 00 00 00 00 00 00 00 00 00 00 00 00 00
       0.0 0.0 0.0 0.0
0001a0 00 00 00 00 00 00 00 00 00 00 00 00 00 00 00 00
       0.0 0.0 0.0 0.0
0001b0 00 00 00 00 00 00 00 00 00 00 00 00 00 00 00 00
       0.0 0.0 0.0 0.0
0001c0 00 00 00 00 00 00 00 00 00 00 00 00 00 00 00 00
       0.0 0.0 0.0 0.0
0001d0 00 00 00 00 00 00 00 00 00 00 00 00 00 00 00 00
       0.0 0.0 0.0 0.0
0001e0 00 00 00 00 00 00 00 00 00 00 00 00 00 00 00 00
       0.0 0.0 0.0 0.0
0001f0 00 00 00 00 00 00 00 00 00 00 00 00 00 00 00 00
       0.0 0.0 0.0 0.0

running_var f4 [128]
000000 00 00 80 3f 00 00 80 3f 00 00 80 3f 00 00 80 3f
       1.0 1.0 1.0 1.0
000010 00 00 80 3f 00 00 80 3f 00 00 80 3f 00 00 80 3f
       1.0 1.0 1.0 1.0
000020 00 00 80 3f 00 00 80 3f 00 00 80 3f 00 00 80 3f
       1.0 1.0 1.0 1.0
000030 00 00 80 3f 00 00 80 3f 00 00 80 3f 00 00 80 3f
       1.0 1.0 1.0 1.0
000040 00 00 80 3f 00 00 80 3f 00 00 80 3f 00 00 80 3f
       1.0 1.0 1.0 1.0
000050 00 00 80 3f 00 00 80 3f 00 00 80 3f 00 00 80 3f
       1.0 1.0 1.0 1.0
000060 00 00 80 3f 00 00 80 3f 00 00 80 3f 00 00 80 3f
       1.0 1.0 1.0 1.0
000070 00 00 80 3f 00 00 80 3f 00 00 80 3f 00 00 80 3f
       1.0 1.0 1.0 1.0
000080 00 00 80 3f 00 00 80 3f 00 00 80 3f 00 00 80 3f
       1.0 1.0 1.0 1.0
000090 00 00 80 3f 00 00 80 3f 00 00 80 3f 00 00 80 3f
       1.0 1.0 1.0 1.0
0000a0 00 00 80 3f 00 00 80 3f 00 00 80 3f 00 00 80 3f
       1.0 1.0 1.0 1.0
0000b0 00 00 80 3f 00 00 80 3f 00 00 80 3f 00 00 80 3f
       1.0 1.0 1.0 1.0
0000c0 00 00 80 3f 00 00 80 3f 00 00 80 3f 00 00 80 3f
       1.0 1.0 1.0 1.0
0000d0 00 00 80 3f 00 00 80 3f 00 00 80 3f 00 00 80 3f
       1.0 1.0 1.0 1.0
0000e0 00 00 80 3f 00 00 80 3f 00 00 80 3f 00 00 80 3f
       1.0 1.0 1.0 1.0
0000f0 00 00 80 3f 00 00 80 3f 00 00 80 3f 00 00 80 3f
       1.0 1.0 1.0 1.0
000100 00 00 80 3f 00 00 80 3f 00 00 80 3f 00 00 80 3f
       1.0 1.0 1.0 1.0
000110 00 00 80 3f 00 00 80 3f 00 00 80 3f 00 00 80 3f
       1.0 1.0 1.0 1.0
000120 00 00 80 3f 00 00 80 3f 00 00 80 3f 00 00 80 3f
       1.0 1.0 1.0 1.0
000130 00 00 80 3f 00 00 80 3f 00 00 80 3f 00 00 80 3f
       1.0 1.0 1.0 1.0
000140 00 00 80 3f 00 00 80 3f 00 00 80 3f 00 00 80 3f
       1.0 1.0 1.0 1.0
000150 00 00 80 3f 00 00 80 3f 00 00 80 3f 00 00 80 3f
       1.0 1.0 1.0 1.0
000160 00 00 80 3f 00 00 80 3f 00 00 80 3f 00 00 80 3f
       1.0 1.0 1.0 1.0
000170 00 00 80 3f 00 00 80 3f 00 00 80 3f 00 00 80 3f
       1.0 1.0 1.0 1.0
000180 00 00 80 3f 00 00 80 3f 00 00 80 3f 00 00 80 3f
       1.0 1.0 1.0 1.0
000190 00 00 80 3f 00 00 80 3f 00 00 80 3f 00 00 80 3f
       1.0 1.0 1.0 1.0
0001a0 00 00 80 3f 00 00 80 3f 00 00 80 3f 00 00 80 3f
       1.0 1.0 1.0 1.0
0001b0 00 00 80 3f 00 00 80 3f 00 00 80 3f 00 00 80 3f
       1.0 1.0 1.0 1.0
0001c0 00 00 80 3f 00 00 80 3f 00 00 80 3f 00 00 80 3f
       1.0 1.0 1.0 1.0
0001d0 00 00 80 3f 00 00 80 3f 00 00 80 3f 00 00 80 3f
       1.0 1.0 1.0 1.0
0001e0 00 00 80 3f 00 00 80 3f 00 00 80 3f 00 00 80 3f
       1.0 1.0 1.0 1.0
0001f0 00 00 80 3f 00 00 80 3f 00 00 80 3f 00 00 80 3f
       1.0 1.0 1.0 1.0

weight f4 [128, 131]
000000 52 78 6e 3b 58 69 9f bd f6 e8 a9 bc ac 12 1c 3d
       0.0036387634 -0.077837646 -0.020740967 0.038103744
000010 7a f2 8d bd ca 55 9b 3d 0d 82 86 bc be 8e fa bc
       -0.06931014 0.07584722 -0.016419435 -0.030585643
000020 86 7e 92 bc 7c f1 49 3d b6 e0 36 3d 0a 12 3a bc
       -0.017882597 0.049302563 0.044647895 -0.01135684
000030 31 f8 6d bc 74 3e 74 38 43 49 f0 bc 54 68 10 bd
       -0.0145245055 5.8232297e-05 -0.029331809 -0.035255745
000040 b3 29 b9 3c b4 55 bf bc 06 37 3d 3d fb 06 42 bd
       0.022602892 -0.023356296 0.046195053 -0.04736994
000050 14 65 ce bb 90 9f 5e bd 3b 6e 77 bc 99 28 e9 bc
       -0.0062986705 -0.05435139 -0.015101965 -0.028461741
000060 e0 fd 19 bb 47 d9 5c bd 48 70 4e bd 2e 45 3d 3c
       -0.0023497269 -0.05391815 -0.05040005 0.011552138
000070 ae 71 ee bb 01 45 4d 3d d6 0a 47 bd 7c 28 f3 3c
       -0.0072767353 0.050114635 -0.04859432 0.02968239
000080 85 84 2b 3d f8 55 0c bd 6a 09 40 bd 3b f0 2f 3c
       0.041874427 -0.034261674 -0.046883978 0.010738428
000090 37 80 a8 3d fb 7e 22 3d a8 b4 8c bd 06 3f 02 3d
       0.0822758 0.03967188 -0.06870395 0.031798385
0000a0 3e f4 00 bd 60 27 9a 3d 88 41 f9 3c 0b 45 af 3d
       -0.031482928 0.075270414 0.030426756 0.08558091
0000b0 97 5a 19 bd 8d 07 1f bd db a3 e9 bb cd bf 37 3d
       -0.03743991 -0.03882556 -0.007130129 0.04486065
0000c0 1f e7 a7 3d 2d 2f 07 bd 82 c0 17 bd fb 8b 6c bd
       0.0819838 -0.033003975 -0.037048824 -0.057750683
0000d0 61 8f 2f bc 3c 67 95 3d 3c f0 1b bb f6 b8 b0 3d
       -0.010715337 0.07295081 -0.0023794314 0.086290285
0000e0 af f3 ef bc 89 5b a2 3d 73 61 61 bc 08 6c 6a 3d
       -0.029291002 0.07927615 -0.013756144 0.057231933
0000f0 34 0a 7e bd 4a 96 a4 bd 24 46 aa 39 16 da c5 bc
       -0.06202145 -0.08036478 0.00032477186 -0.024151843
000100 fe 6d 72 bb 51 d4 a1 3d d2 64 05 bd 6c 4c 28 3d
       -0.003699183 0.07901824 -0.032566853 0.041088507
000110 3c 7d b7 3c 4e e1 a8 bd 92 b7 4f bd 12 ac 70 bd
       0.022398584 -0.082460985 -0.050712176 -0.05875785
000120 d4 82 9f b9 d2 99 85 3c 01 17 97 bd 6b 2f b0 3c
       -0.00030424318 0.016308699 -0.073774345 0.021506986
000130 44 59 e4 bb d2 e7 64 bd 73 55 ab 3d 0a 9d d7 bc
       -0.006968649 -0.055885144 0.083659075 -0.02632
000140 4f ea fe bc d7 04 ae bd cc 36 46 3d c8 eb 2d 3c
       -0.031117586 -0.08497017 0.048392102 0.010615297
000150 e5 52 bd 3c b2 75 aa 3c 10 e9 62 bd bc 27 44 bd
       0.023110816 0.020808075 -0.055398047 -0.047889456
000160 b5 d5 3c 3d 3a cf 7d bc a0 c8 75 bc 90 b9 af 3d
       0.046102244 -0.015491301 -0.015001446 0.08580315
000170 7e 49 81 3d 9d 7d cc 3c 66 c5 e6 bc 12 62 09 bd
       0.06312846 0.02496224 -0.028170299 -0.033540793
000180 de 8d da bc 78 ba b0 3c a7 ea ff 3c 14 ad 1c 3d
       -0.026678976 0.02157329 0.03123982 0.038250998
000190 91 69 26 bd 1d be 41 bd b9 54 1a 3b 8d fc 4a bc
       -0.04062802 -0.047300447 0.0023549034 -0.012389314
0001a0 3f 42 7f bd 57 96 87 3b 66 3b 98 3d d1 f9 a0 bd
       -0.062319037 0.004137795 0.07433204 -0.07860149
0001b0 f5 7a 41 bd c9 c3 9b 3c 60 87 b0 3d 96 d9 dc bc
       -0.0472364 0.019014256 0.08619571 -0.026959222
0001c0 d2 5f 3a bd b2 77 8b 3d 8f bb 07 3d 36 db 4c 3d
       -0.045501538 0.068099394 0.033137854 0.050013743
0001d0 58 2b 89 bc 63 3d 71 3d 26 80 10 3d bb 89 95 bd
       -0.0167443 0.058896434 0.035278462 -0.073016606
0001e0 be 3e 73 bd 96 23 23 bd e6 f4 a6 bd 1a a9 e8 3a
       -0.059386007 -0.03982886 -0.081521794 0.0017750592
0001f0 bd 7c 48 bc 9f f3 84 bc 4f 72 f4 bc e6 04 2f bd
       -0.012236771 -0.016229449 -0.029839663 -0.04272928
000200 78 12 fc bc 95 6c a3 3d a4 58 21 3d 4f da 0d 3d
       -0.030770525 0.07979695 0.039391175 0.034632023
000210 06 18 4f 3d 53 f3 4c bc 6a 91 80 3d a3 8e f9 bc
       0.05056002 -0.012509185 0.062777355 -0.030463522
000220 27 42 a4 3b de 16 9f bd f1 73 9d 3c cb 0a 8a 3d
       0.005012769 -0.077680334 0.019220324 0.0674034
000230 e1 07 6d 3d e7 a2 30 3b 83 a4 28 3c d6 f3 85 3b
       0.057868842 0.0026952566 0.010293129 0.0040879054
000240 82 a2 9f bd 53 dc e3 3b a8 59 11 3d dc eb 01 3c
       -0.07794668 0.006953755 0.035485893 0.007929768
000250 99 a2 67 3c bd c8 9f 3d 00 85 a2 bd 76 c6 88 3d
       0.014137887 0.0780196 -0.07935524 0.066784784
000260 0a 21 a3 3d 2b b5 b0 3d a5 51 27 bc 4c e8 39 3d
       0.07965286 0.08628305 -0.010212337 0.04538755
000270 d5 f1 f3 3c b7 72 82 ba 95 dc f7 3a 9c 6e 96 bd
       0.0297784 -0.00099524 0.0018910343 -0.07345316
000280 aa 99 14 bd 6d db 21 bd 63 e2 71 bd de 7e 1c 3d
       -0.036279358 -0.0395159 -0.05905379 0.038206927
000290 05 d3 c3 3c b7 48 6c bc 42 e8 46 bc 23 c5 2a 3d
       0.023904333 -0.014421633 -0.0121403355 0.04169191
0002a0 11 0d 9b bd 94 f4 86 bd a0 cf 9b 3c 06 09 4b bd
       -0.075708516 -0.06589618 0.019019902 -0.049569152
0002b0 bb 3a e8 3c 4c a8 95 bd 48 2c ab 3d 28 83 8e 3d
       0.028348317 -0.07307491 0.08358055 0.0695861
0002c0 98 9b ce 3a a8 ad 09 bc 58 0c 96 3d 9d 96 d3 3c
       0.0015762923 -0.008403219 0.07326573 0.025828654
0002d0 7b 20 94 3c c8 65 4d bb 1d c5 c6 3c 23 2b a7 3c
       0.018081894 -0.0031341184 0.024263913 0.020406311
0002e0 e1 a8 9e 3d a9 09 d8 bc ba fe b5 3c 41 64 15 3d
       0.07747055 -0.026371794 0.02221619 0.036472563
0002f0 aa 0c 9e 3d 34 46 67 3d 39 59 1e bd ee 9e 26 ba
       0.07717259 0.056463435 -0.038659308 -0.000635608
000300 9d ee 41 bc 70 df ea bc 93 0a 1f 3d 2f c3 fa 3c
       -0.011836675 -0.028670996 0.038828444 0.030610649
000310 a4 f1 2c bd 02 75 23 bb 42 84 16 bd db 3e a5 3d
       -0.042222634 -0.0024941568 -0.036747225 0.08068629
000320 27 3b 2f 3c 56 88 46 bd a9 03 9c 3d f6 4c f3 ba
       0.010695255 -0.048469864 0.076178856 -0.0018562365
000330 57 7d 38 bc 58 17 64 3c 9e 0b ba bc 93 04 e1 3c
       -0.011260352 0.013921581 -0.022710618 0.027468001
000340 40 ea a0 bc bc 66 4c 3d 6b 94 87 3d 44 3b 31 bd
       -0.01964295 0.049902663 0.06620105 -0.04326941
000350 69 66 ad 3d 57 97 5b 3c d6 1a 24 3b db b2 ca bc
       0.08466799 0.013402781 0.002504041 -0.024743488
000360 6b e3 6e 3d 2b 64 d5 3c 7f 45 0f bd 6a bb a6 bc
       0.05832235 0.02604874 -0.034978386 -0.020353038
000370 94 6d 1a bd 89 7e 8d 3d fd e5 31 bd 9c e1 a7 3d
       -0.037702158 0.069089 -0.043432225 0.081973284
000380 5d 51 fa bc 34 e3 d6 38 35 6b 0f 3d 4a c8 cd bc
       -0.030556375 0.00010246635 0.03501435 -0.02511992
000390 fc e6 aa bd 90 55 46 bc 20 7f 87 3d a2 11 33 bd
       -0.08344838 -0.012105361 0.06616044 -0.043717988
0003a0 2b 9e 11 3d 03 2c 82 bc d9 8e 9e 3c bc 3a 94 bd
       0.03555123 -0.015890127 0.019355224 -0.07237765
0003b0 dd 47 8c bd 40 42 04 bd 1f 40 96 bd 89 aa 53 3d
       -0.06849644 -0.032289743 -0.07336449 0.051676307
0003c0 2e 4f a2 bc 14 d0 c6 bc ba 33 9d bd 7a cc 9f 3d
       -0.019813146 -0.024269141 -0.07675882 0.07802673
0003d0 17 23 99 bd 4c a8 27 bd 35 1d e2 3c 53 0d 8c 3d
       -0.07477396 -0.040931985 0.027601818 0.06838479
0003e0 7f cf 9c 3d 6f fc b5 3b e3 b2 9e 3a 7e e0 69 3b
       0.07656764 0.005553774 0.0012107756 0.0035686786
0003f0 3f 38 29 3d 5e cb 34 bd 25 52 82 3d 23 80 41 3d
       0.041313406 -0.04413926 0.06363324 0.04724134

bias f4 [128]
000000 37 90 e5 3b c5 01 b9 bc a1 4a 52 3c a6 ee 56 3d
       0.007005717 -0.022583852 0.012835176 0.052473687
000010 58 ea 5d bd 36 b5 a6 bb f7 3a ce bb 4f 46 98 3d
       -0.054178566 -0.00508752 -0.0062936503 0.07435285
000020 9f e1 80 bd 7d c5 f3 bc 1a fd 95 3d ab 3c d7 ba
       -0.06293034 -0.029757256 0.07323666 -0.0016421279
000030 eb 1f d4 bc b6 d6 7a bd ce 1e a4 bd ca df 40 3d
       -0.025894126 -0.06123992 -0.08013688 0.047088422
000040 3a 2b af bd f9 00 7c 3d ab ac 36 bd 71 11 37 3d
       -0.08553167 0.061524365 -0.044598263 0.044694368
000050 20 93 e0 3a a7 02 71 bd 1c 2b 44 3b 42 54 e5 bc
       0.001713369 -0.05884042 0.0029932922 -0.027994279
000060 d1 ec 8c 3d 30 88 8d bd 2a 09 a4 3c 4b ea a1 3d
       0.06881107 -0.06910741 0.020023901 0.07906016
000070 87 e6 0d bd 7d ac ab bd 66 c5 97 bc d5 09 0f 3d
       -0.034643676 -0.08382509 -0.018526744 0.034921486
000080 5c c3 ad 3d 24 c0 39 bd d1 0c ed bc 66 a2 10 bd
       0.084845275 -0.045349255 -0.028936775 -0.035311125
000090 6a 2c ef 3c aa 54 06 3d 11 4a 3e bb 0d f9 14 3d
       0.029195983 0.032795586 -0.0029035846 0.036370326
0000a0 9a 08 3c 3d 05 21 a6 bd a6 b4 10 3d 1e 1d 47 3b
       0.04590664 -0.08111767 0.03532853 0.0030382345
0000b0 77 fb 2b 3d 18 0a 2f 3d 98 6c 1a bd a0 ed 2b bd
       0.041987862 0.042734236 -0.03770122 -0.041974664
0000c0 78 cf 94 3d a4 8f e2 bc ba da b1 3b 37 c7 92 bb
       0.07266134 -0.027656384 0.0054276856 -0.0044793147
0000d0 42 84 2d bd be 7f fd bc ac 0e 48 bd 23 58 32 3d
       -0.04236246 -0.030944701 -0.048842117 0.043541085
0000e0 a8 9b 86 bd f1 41 1e bd 17 88 93 bd a8 49 75 3d
       -0.06572658 -0.038637105 -0.072036915 0.059884697
0000f0 57 ca 32 3c 71 0c 49 bd 5e 76 5e 3d c6 bf 4d 3d
       0.010912499 -0.04908413 0.054312102 0.050231718
000100 70 c9 54 3d 05 e0 08 bd 0c 25 90 3d b1 41 04 3d
       0.05194992 -0.033416767 0.07038316 0.03228921
000110 f2 4f 01 bc d3 eb a3 3d ab b6 8c 3d a6 39 86 3d
       -0.007892596 0.08003964 0.06870779 0.06553964
000120 f0 c5 22 bd 11 82 4f 3d 4b 74 7e bd 66 ee 35 bd
       -0.03973955 0.05066115 -0.062122624 -0.044416808
000130 f6 2e 86 3c cd 25 91 3d f5 b0 a0 bb f5 d2 3b 3d
       0.016379815 0.07087288 -0.0049039074 0.04585548
000140 fd ed 1f bd 1c 69 81 bc bf 44 85 3a 1e 97 29 3d
       -0.039045323 -0.01579719 0.0010167583 0.041403882
000150 a8 dc 16 3d 1b b7 b0 bc 2c 25 88 bd b9 92 93 3c
       0.036831528 -0.021571686 -0.06647715 0.018014299
000160 00 cc e0 3b 1d 3b 96 3d 63 a7 a3 bd d3 f4 2d 3c
       0.006860256 0.07335494 -0.07990911 0.010617453
000170 16 42 57 3d 8c 4c e5 bc f5 d9 92 bd b0 53 8e bc
       0.05255326 -0.027990602 -0.07170478 -0.01737389
000180 fd f5 20 bd 51 9c 49 3b 56 5a 4d bd d2 04 81 bd
       -0.039297093 0.0030763338 -0.05013498 -0.062997475
000190 ab 33 5a bd be ac 32 bd 35 33 10 3d 41 fa a5 bd
       -0.05327193 -0.04362177 0.035205085 -0.08104373
0001a0 c9 6d f0 3c 9c 44 59 bd 21 8a 98 bd 92 e4 92 bb
       0.029349225 -0.053043947 -0.07448221 -0.004482814
0001b0 27 07 b1 3d 13 a2 01 bb 2f 1f af bd 69 15 af bc
       0.08643942 -0.0019780442 -0.0855087 -0.021372514
0001c0 fe a2 95 bd 31 cc 4f 3d 0c 5a 93 3d 15 bb 7a bd
       -0.07306479 0.05073184 0.071949095 -0.06121357
0001d0 a0 03 20 3d f7 a7 6f bd c0 97 a1 bd 32 50 ac 3d
       0.039065957 -0.058509793 -0.07890272 0.084137335
0001e0 68 05 0b bd d0 bb 89 3d 28 3c 88 bd 79 51 cc bc
       -0.033940703 0.067252755 -0.06652099 -0.024941193
0001f0 c4 eb 78 3d 2e 17 a2 bd f9 17 b2 39 dc 60 55 bd
       0.06077172 -0.079145774 0.00033968667 -0.052094325

weight f4 [128]
000000 00 00 80 3f 00 00 80 3f 00 00 80 3f 00 00 80 3f
       1.0 1.0 1.0 1.0
000010 00 00 80 3f 00 00 80 3f 00 00 80 3f 00 00 80 3f
       1.0 1.0 1.0 1.0
000020 00 00 80 3f 00 00 80 3f 00 00 80 3f 00 00 80 3f
       1.0 1.0 1.0 1.0
000030 00 00 80 3f 00 00 80 3f 00 00 80 3f 00 00 80 3f
       1.0 1.0 1.0 1.0
000040 00 00 80 3f 00 00 80 3f 00 00 80 3f 00 00 80 3f
       1.0 1.0 1.0 1.0
000050 00 00 80 3f 00 00 80 3f 00 00 80 3f 00 00 80 3f
       1.0 1.0 1.0 1.0
000060 00 00 80 3f 00 00 80 3f 00 00 80 3f 00 00 80 3f
       1.0 1.0 1.0 1.0
000070 00 00 80 3f 00 00 80 3f 00 00 80 3f 00 00 80 3f
       1.0 1.0 1.0 1.0
000080 00 00 80 3f 00 00 80 3f 00 00 80 3f 00 00 80 3f
       1.0 1.0 1.0 1.0
000090 00 00 80 3f 00 00 80 3f 00 00 80 3f 00 00 80 3f
       1.0 1.0 1.0 1.0
0000a0 00 00 80 3f 00 00 80 3f 00 00 80 3f 00 00 80 3f
       1.0 1.0 1.0 1.0
0000b0 00 00 80 3f 00 00 80 3f 00 00 80 3f 00 00 80 3f
       1.0 1.0 1.0 1.0
0000c0 00 00 80 3f 00 00 80 3f 00 00 80 3f 00 00 80 3f
       1.0 1.0 1.0 1.0
0000d0 00 00 80 3f 00 00 80 3f 00 00 80 3f 00 00 80 3f
       1.0 1.0 1.0 1.0
0000e0 00 00 80 3f 00 00 80 3f 00 00 80 3f 00 00 80 3f
       1.0 1.0 1.0 1.0
0000f0 00 00 80 3f 00 00 80 3f 00 00 80 3f 00 00 80 3f
       1.0 1.0 1.0 1.0
000100 00 00 80 3f 00 00 80 3f 00 00 80 3f 00 00 80 3f
       1.0 1.0 1.0 1.0
000110 00 00 80 3f 00 00 80 3f 00 00 80 3f 00 00 80 3f
       1.0 1.0 1.0 1.0
000120 00 00 80 3f 00 00 80 3f 00 00 80 3f 00 00 80 3f
       1.0 1.0 1.0 1.0
000130 00 00 80 3f 00 00 80 3f 00 00 80 3f 00 00 80 3f
       1.0 1.0 1.0 1.0
000140 00 00 80 3f 00 00 80 3f 00 00 80 3f 00 00 80 3f
       1.0 1.0 1.0 1.0
000150 00 00 80 3f 00 00 80 3f 00 00 80 3f 00 00 80 3f
       1.0 1.0 1.0 1.0
000160 00 00 80 3f 00 00 80 3f 00 00 80 3f 00 00 80 3f
       1.0 1.0 1.0 1.0
000170 00 00 80 3f 00 00 80 3f 00 00 80 3f 00 00 80 3f
       1.0 1.0 1.0 1.0
000180 00 00 80 3f 00 00 80 3f 00 00 80 3f 00 00 80 3f
       1.0 1.0 1.0 1.0
000190 00 00 80 3f 00 00 80 3f 00 00 80 3f 00 00 80 3f
       1.0 1.0 1.0 1.0
0001a0 00 00 80 3f 00 00 80 3f 00 00 80 3f 00 00 80 3f
       1.0 1.0 1.0 1.0
0001b0 00 00 80 3f 00 00 80 3f 00 00 80 3f 00 00 80 3f
       1.0 1.0 1.0 1.0
0001c0 00 00 80 3f 00 00 80 3f 00 00 80 3f 00 00 80 3f
       1.0 1.0 1.0 1.0
0001d0 00 00 80 3f 00 00 80 3f 00 00 80 3f 00 00 80 3f
       1.0 1.0 1.0 1.0
0001e0 00 00 80 3f 00 00 80 3f 00 00 80 3f 00 00 80 3f
       1.0 1.0 1.0 1.0
0001f0 00 00 80 3f 00 00 80 3f 00 00 80 3f 00 00 80 3f
       1.0 1.0 1.0 1.0

bias f4 [128]
000000 00 00 00 00 00 00 00 00 00 00 00 00 00 00 00 00
       0.0 0.0 0.0 0.0
000010 00 00 00 00 00 00 00 00 00 00 00 00 00 00 00 00
       0.0 0.0 0.0 0.0
000020 00 00 00 00 00 00 00 00 00 00 00 00 00 00 00 00
       0.0 0.0 0.0 0.0
000030 00 00 00 00 00 00 00 00 00 00 00 00 00 00 00 00
       0.0 0.0 0.0 0.0
000040 00 00 00 00 00 00 00 00 00 00 00 00 00 00 00 00
       0.0 0.0 0.0 0.0
000050 00 00 00 00 00 00 00 00 00 00 00 00 00 00 00 00
       0.0 0.0 0.0 0.0
000060 00 00 00 00 00 00 00 00 00 00 00 00 00 00 00 00
       0.0 0.0 0.0 0.0
000070 00 00 00 00 00 00 00 00 00 00 00 00 00 00 00 00
       0.0 0.0 0.0 0.0
000080 00 00 00 00 00 00 00 00 00 00 00 00 00 00 00 00
       0.0 0.0 0.0 0.0
000090 00 00 00 00 00 00 00 00 00 00 00 00 00 00 00 00
       0.0 0.0 0.0 0.0
0000a0 00 00 00 00 00 00 00 00 00 00 00 00 00 00 00 00
       0.0 0.0 0.0 0.0
0000b0 00 00 00 00 00 00 00 00 00 00 00 00 00 00 00 00
       0.0 0.0 0.0 0.0
0000c0 00 00 00 00 00 00 00 00 00 00 00 00 00 00 00 00
       0.0 0.0 0.0 0.0
0000d0 00 00 00 00 00 00 00 00 00 00 00 00 00 00 00 00
       0.0 0.0 0.0 0.0
0000e0 00 00 00 00 00 00 00 00 00 00 00 00 00 00 00 00
       0.0 0.0 0.0 0.0
0000f0 00 00 00 00 00 00 00 00 00 00 00 00 00 00 00 00
       0.0 0.0 0.0 0.0
000100 00 00 00 00 00 00 00 00 00 00 00 00 00 00 00 00
       0.0 0.0 0.0 0.0
000110 00 00 00 00 00 00 00 00 00 00 00 00 00 00 00 00
       0.0 0.0 0.0 0.0
000120 00 00 00 00 00 00 00 00 00 00 00 00 00 00 00 00
       0.0 0.0 0.0 0.0
000130 00 00 00 00 00 00 00 00 00 00 00 00 00 00 00 00
       0.0 0.0 0.0 0.0
000140 00 00 00 00 00 00 00 00 00 00 00 00 00 00 00 00
       0.0 0.0 0.0 0.0
000150 00 00 00 00 00 00 00 00 00 00 00 00 00 00 00 00
       0.0 0.0 0.0 0.0
000160 00 00 00 00 00 00 00 00 00 00 00 00 00 00 00 00
       0.0 0.0 0.0 0.0
000170 00 00 00 00 00 00 00 00 00 00 00 00 00 00 00 00
       0.0 0.0 0.0 0.0
000180 00 00 00 00 00 00 00 00 00 00 00 00 00 00 00 00
       0.0 0.0 0.0 0.0
000190 00 00 00 00 00 00 00 00 00 00 00 00 00 00 00 00
       0.0 0.0 0.0 0.0
0001a0 00 00 00 00 00 00 00 00 00 00 00 00 00 00 00 00
       0.0 0.0 0.0 0.0
0001b0 00 00 00 00 00 00 00 00 00 00 00 00 00 00 00 00
       0.0 0.0 0.0 0.0
0001c0 00 00 00 00 00 00 00 00 00 00 00 00 00 00 00 00
       0.0 0.0 0.0 0.0
0001d0 00 00 00 00 00 00 00 00 00 00 00 00 00 00 00 00
       0.0 0.0 0.0 0.0
0001e0 00 00 00 00 00 00 00 00 00 00 00 00 00 00 00 00
       0.0 0.0 0.0 0.0
0001f0 00 00 00 00 00 00 00 00 00 00 00 00 00 00 00 00
       0.0 0.0 0.0 0.0
