hepgnn_4top_resampling/result/train20220815_4top_cla_alledge_w2_L1_16ncpu_12h/weightFinal.pth (torch, 152509 bytes, 25 tensors)

conv1.conv.local_nn.0.0.weight f4 [64, 7]
0.2667812 0.25131777 0.4688888 -0.074396536 -0.48927838 -0.09126836 -0.035151377 0.009110899
-0.15115556 -0.083450615 -0.009036323 0.063940205 0.24027845 -0.50237733 -0.21669713 -0.017410787
0.16637923 0.16919303 -0.14068744 0.13091104 -0.0642612 -0.074728124 -0.2762907 0.24085903
-0.29350778 0.11459215 -0.16287228 -0.28770098 -0.06408916 0.13554125 -0.2999581 -0.0152197825
-0.09392827 -0.031150296 -0.1403251 -0.0548736 0.33221945 -0.355567 -0.18660207 0.321207
-0.019893195 -0.07852566 0.062101565 -0.11125481 0.16251776 -0.28335536 -0.2230186 0.58206123
0.069962025 -0.29894736 0.22708426 -0.25118172 -0.024390412 -0.0010921336 -0.16655423 0.16916032
-0.060969282 0.17379215 0.16627146 -0.31878287 0.27610767 -0.020918809 0.26703608 0.33757484
-0.17491212 -0.070014335 -0.08314682 -0.33573347 0.14384112 0.16739255 0.16366826 0.3091488
0.14571215 0.032155763 -0.09516644 0.46533272 -0.29361615 0.09239861 -0.123070985 -0.265821
0.06023562 0.26040027 -0.59554005 -0.3413709 -0.06917627 -0.37461576 0.051360197 -0.26761127
-0.33925188 -0.1535355 -0.20252863 0.0021389143 0.22558232 -0.065473944 0.009960016 0.21543439
0.0194345 0.42799267 0.01808155 0.30139554 -0.115244456 -0.078441374 0.71501786 0.020756334
0.6326456 -0.30196312 0.084407024 -0.011049839 -0.35500196 0.08470625 -0.040082823 -0.3668511
-0.11759574 0.31140018 0.07582568 -0.2308046 -0.19505815 -0.1724551 -0.19586742 0.0069770096
-0.27696064 0.27677697 0.2587274 0.5835838 -0.18620418 0.17975186 -0.31641904 -0.20392147
-0.21511059 0.17662264 -0.3594253 -0.17909509 0.150671 0.30796203 0.24681523 0.07696772
-0.25197673 -0.07976859 -0.5992276 -0.002143204 -0.013071817 0.2807243 0.18477756 0.067588255
-0.4285992 0.36958933 0.54911613 0.055384394 -0.34961307 -0.34295028 0.021697631 -0.71414614
0.2386887 0.062929116 0.36810586 0.19367264 0.15173599 0.07769551 -0.42791873 -0.17604436
-0.28123945 -0.080872916 0.022019492 -0.11056485 0.08368012 0.2580041 0.051305626 -0.12511057
-0.32934022 -0.19425334 0.11641431 -0.35197774 -0.3755363 0.020535393 0.0096789375 -0.29716536
0.08924348 0.16532864 -0.2941918 -0.056120276 0.22396277 0.3371439 -0.26434973 -0.20314099
-0.21405828 -0.19240426 -0.24501893 0.29003292 -0.019151289 -0.2874685 -0.26783225 -0.321339
-0.35519415 0.021851368 0.04035839 0.21722235 0.13978913 0.33730283 0.29710343 -0.21210472
-0.6315646 -0.2933813 0.05373186 -0.038737353 -0.016405294 -0.1917317 -0.34362096 -0.13228607
0.0593614 0.16739799 -0.3389672 -0.33946097 -0.02163451 -0.14486393 -0.15405144 -0.36552742
0.16977458 -0.06364238 0.2981249 -0.24272238 -0.34343144 -0.004904486 0.089740545 0.2203169
-0.05761782 0.2933253 -0.18798839 -0.31263193 -0.16097943 -0.13519315 0.1287574 0.2710965
0.38317597 -0.13002843 -0.1145022 -0.113525175 0.33809298 -0.006451667 -0.1414572 0.057386447
-0.23493497 0.31717327 -0.32383132 -0.32146794 -0.027333649 -0.26700827 -0.16469887 0.21827641
0.0017042313 -0.042928297 -0.35086262 -0.12342835 -0.12622656 0.2785163 0.14864096 -0.034632564
00000000: 8c97 883e b9ac 803e 3112 f03e 365d 98bd
00000010: b282 fabe e8ea babd e4fa 0fbd e145 153c
00000020: 86c8 1abe 28e8 aabd 160d 14bc 15f3 823d
00000030: 8e0b 763e cd9b 00bf dae5 5dbe 11a1 8ebc
00000040: 515f 2a3e f040 2d3e 5e10 10be 8b0d 063e
00000050: 609b 83bd 0f0b 99bd fa75 8dbe c0a3 763e
00000060: a746 96be 4aaf ea3d fec7 26be 8b4d 93be
00000070: 2d41 83bd 53cb 0a3e 1c94 99be 655c 79bc
00000080: 775d c0bd e82e ffbc 62b1 0fbe 24c3 60bd
00000090: ab18 aa3e e10c b6be 9d14 3fbe 3e75 a43e
000000a0: 0ef7 a2bc 10d2 a0bd 365e 7e3d 90d9 e3bd
000000b0: 0e6b 263e f413 91be fd5e 64be f701 153f
000000c0: 4048 8f3d a10f 99be c788 683e e49a 80be
000000d0: 67ce c7bc ec25 8fba 318d 2abe 5d38 2d3e
000000e0: edba 79bd 92f6 313e 1143 2a3e 8237 a3be
000000f0: fc5d 8d3e ec5d abbc f4b8 883e 9cd6 ac3e
00000100: 2a1c 33be ad63 8fbd e148 aabd 42e5 abbe
00000110: 164b 133e f468 2b3e a798 273e c048 9e3e
00000120: 9135 153e c3b5 033d 9fe6 c2bd 1740 ee3e
00000130: db54 96be 7c3b bd3d a40c fcbd b119 88be
00000140: a0b9 763d 2f53 853e 5075 18bf 2bc8 aebe
00000150: 4aac 8dbd a3cd bfbe 125f 523d 5804 89be
00000160: 6cb2 adbe 6938 1dbe aa63 4fbe 072d 0c3b
00000170: 0dff 663e 3417 86bd 562f 233c d59a 5c3e
00000180: 1a35 9f3c db21 db3e c21f 943c 8450 9a3e
00000190: 4905 ecbd dfa5 a0bd 690b 373f 3009 aa3c
000001a0: 10f5 213f e99a 9abe 97dd ac3d 620a 35bc
000001b0: d1c2 b5be 787a ad3d e32d 24bd e8d3 bbbe
000001c0: 09d6 f0bd d86f 9f3e 7e4a 9b3d 0b58 6cbe
000001d0: 53bd 47be 1298 30be 7891 48be 669f e43b
000001e0: c9cd 8dbe b6b5 8d3e eb77 843e bf65 153f
000001f0: 4fac 3ebe df10 383e ad01 a2be cad0 50be
00000200: f345 5cbe 91dc 343e 9806 b8be b464 37be
00000210: 8049 1a3e 33ad 9d3e 22bd 7c3e 41a1 9d3d
00000220: 1803 81be b75d a3bd fb66 19bf ff74 0cbb
00000230: 2d2b 56bc 18bb 8f3e 5436 3d3e b66b 8a3d
00000240: 5b71 dbbe d03a bd3e e092 0c3f bfda 623d
00000250: 7c00 b3be 2e97 afbe 3bbf b13c 48d2 36bf
00000260: d06a 743e fbe0 803d 5f78 bc3e 1f52 463e
00000270: ae60 1b3e d31e 9f3d 2a18 dbbe f944 34be
00000280: 9efe 8fbe b3a0 a5bd 3962 b43c d36f e2bd
00000290: 7c60 ab3d 1d19 843e d925 523d fc1c 00be
000002a0: 489f a8be 59ea 46be a06a ee3d 6d36 b4be
000002b0: 4b46 c0be d739 a83c 6894 1e3c 0f26 98be
000002c0: 49c5 b63d e94b 293e 4fa0 96be 60de 65bd
000002d0: 7f56 653e 209e ac3e d958 87be 3104 50be
000002e0: 1832 5bbe 9f05 45be 3ee6 7abe 327f 943e
000002f0: 2ae3 9cbc 122f 93be 4f21 89be 8c86 a4be
00000300: 02dc b5be a401 b33c d74e 253d 896f 5e3e
00000310: e224 0f3e f5b2 ac3e f11d 983e fb31 59be
00000320: 38ae 21bf 1336 96be f015 5c3d 0fab 1ebd
00000330: 6564 86bc 5155 44be 16ef afbe 0076 07be
00000340: f024 733d 616a 2b3e 1c8d adbe d4cd adbe
00000350: db3a b1bc 3657 14be a9bf 1dbe 6926 bbbe
00000360: 63d9 2d3e f056 82bd d4a3 983e 378c 78be
00000370: 3fd6 afbe cfb5 a0bb e4c9 b73d c19a 613e
00000380: aa00 6cbd bc2e 963e 0780 40be 4b11 a0be
00000390: cbd7 24be 1370 0abe fbd8 033e 29cd 8a3e
000003a0: a42f c43e 2c26 05be 2180 eabd e37f e8bd
000003b0: 861a ad3e 8168 d3bb 28da 10be 0d0e 6b3d
000003c0: cb92 70be 8964 a23e 38cd a5be 7297 a4be
000003d0: d1ea dfbc 4fb5 88be d2a6 28be da83 5f3e
000003e0: 8360 df3a 95d5 2fbd 44a4 b3be 01c8 fcbd
000003f0: 8941 01be b099 8e3e 5635 183e e0da 0dbd

conv1.conv.local_nn.0.0.bias f4 [64]
-0.086024985 -0.80584085 0.11423045 -0.3842292 -0.2076123 -0.26850352 0.2809954 0.120854884
0.31505945 -0.058445837 0.31235516 -0.212342 -0.24440296 -0.69593734 0.17783679 -0.34226197
0.25621736 -0.52801985 0.16066588 -0.16539557 0.21125755 -0.06055924 0.18034205 0.33760208
-0.37258607 -0.324055 -0.031333767 0.013280379 0.36034843 0.1463876 -0.0032778876 -0.32516795
0.07010125 -0.14597215 0.13801412 -0.13430616 -0.02026478 0.26331264 0.096785724 -0.3319207
-0.2290943 -0.14535528 -0.6893762 0.2618075 0.22931293 -0.031653356 -1.1789674 0.33763868
-0.06386134 -0.16898644 0.17148404 0.20840594 0.11715081 -0.08928134 0.10426017 -0.11195962
0.27728647 0.20953497 0.1646827 -0.036205273 0.18215351 -0.25436458 0.024353238 -0.14747615
00000000: de2d b0bd 964b 4ebf a7f1 e93d b1b9 c4be
00000010: 5298 54be 4b79 89be a1de 8f3e c482 f73d
00000020: 794f a13e e764 6fbd 04ed 9f3e 2e70 59be
00000030: c544 7abe f328 32bf d91a 363e f63c afbe
00000040: ec2e 833e 4f2c 07bf 9985 243e 755d 29be
00000050: e653 583e f70c 78bd 96ab 383e 2eda ac3e
00000060: 9ac3 bebe 89ea a5be d657 00bd f295 593c
00000070: 977f b83e a2e6 153e d4d1 56bb 6a7c a6be
00000080: 3f91 8f3d b979 15be 9353 0d3e 8e87 09be
00000090: 5302 a6bc ead0 863e 9837 c63d 83f1 a9be
000000a0: b297 6abe 04d8 14be f57a 30bf a20b 863e
000000b0: 02d1 6a3e f3a6 01bd 67e8 96bf fade ac3e
000000c0: bcc9 82bd c80a 2dbe 8399 2f3e 5e68 553e
000000d0: c4ec ef3d 23d9 b6bd 5b86 d53d 164b e5bd
000000e0: 7ef8 8d3e 5690 563e 95a2 283e fb4b 14bd
000000f0: 7386 3a3e 133c 82be 7180 c73c fd03 17be

conv1.conv.local_nn.0.2.weight f4 [64]
0.96309227 1.2752676 1.0 0.96890837 0.97821504 0.99221414 0.9743648 1.0
0.91650945 0.89995134 0.89264053 0.9053905 1.0 1.1327928 1.1128039 1.0
1.0 0.97479516 1.0 0.928108 0.9113672 0.93633246 0.93490136 0.9870189
1.0 1.0 1.0 1.0 0.909892 0.96395445 1.0 1.0
0.9853146 0.9589892 0.9935143 1.0 1.0 1.0 1.0138553 0.8939116
1.0 1.0 0.93434185 0.8925627 0.8784575 1.0 1.2291989 0.9097522
1.0654064 1.0 1.0 0.9445792 0.96525383 0.89312184 1.0123695 0.8894143
1.0 1.0 1.0 1.0 1.0 1.1664006 1.0179394 1.0
00000000: 378d 763f f83b a33f 0000 803f 610a 783f
00000010: 4d6c 7a3f bf01 7e3f f96f 793f 0000 803f
00000020: 5da0 6a3f 3663 663f 1784 643f acc7 673f
00000030: 0000 803f 5bff 903f 5c70 8e3f 0000 803f
00000040: 0000 803f 2d8c 793f 0000 803f 7c98 6d3f
00000050: 5c4f 693f 7cb3 6f3f b255 6f3f 45ad 7c3f
00000060: 0000 803f 0000 803f 0000 803f 0000 803f
00000070: afee 683f b8c5 763f 0000 803f 0000 803f
00000080: 943d 7c3f 5180 753f f456 7e3f 0000 803f
00000090: 0000 803f 0000 803f 03c6 813f 64d7 643f
000000a0: 0000 803f 0000 803f 0731 6f3f fd7e 643f
000000b0: 97e2 603f 0000 803f 6456 9d3f 85e5 683f
000000c0: 3d5f 883f 0000 803f 0000 803f f1cf 713f
000000d0: e01a 773f a2a3 643f 5395 813f a8b0 633f
000000e0: 0000 803f 0000 803f 0000 803f 0000 803f
000000f0: 0000 803f 9d4c 953f d74b 823f 0000 803f

conv1.conv.local_nn.0.2.bias f4 [64]
-0.032924637 0.104772225 -0.050243717 0.0020704244 0.057791315 0.049807776 -0.097462066 -0.038734265
-0.021275824 0.089155346 0.021845035 0.0696793 -0.04363931 0.1296915 0.005535513 -0.05574626
0.085436195 0.060436383 0.04755989 0.010780489 0.124695264 -0.011349642 0.02274494 -0.021532929
0.034363866 -0.06258702 0.044760734 -0.0940641 0.030363768 -0.0034873965 0.026820296 0.10584194
0.0961761 -0.015292875 0.07257729 0.012391848 0.053315133 0.0017023955 0.056299992 0.074237525
-0.079910256 -0.08544633 0.07569768 0.06569289 0.05737125 0.107584864 0.15548381 0.045236
0.024733996 0.019893298 0.0002745424 0.024773957 0.0043425886 0.05564477 0.013443902 0.015348667
-0.06809429 0.050569303 0.04332857 0.06337438 -0.050813 0.079688035 -0.00082582724 -0.08873037
00000000: fcdb 06bd d292 d63d 5bcc 4dbd f5af 073b
00000010: 96b6 6c3d 3d03 4c3d 319a c7bd d2a7 1ebd
00000020: a34a aebc 1497 b63d 5cf4 b23c 05b4 8e3d
00000030: 22bf 32bd d9cd 043e 4063 b53b 3156 64bd
00000040: 2cf9 ae3d 248c 773d 29ce 423d a6a0 303c
00000050: 3b60 ff3d d9f3 39bc 9953 ba3c d365 b0bc
00000060: 20c1 0c3d a02d 80bd 0857 373d aea4 c0bd
00000070: 70bd f83c ce8c 64bb 3db6 db3c a9c3 d83d
00000080: faf7 c43d f78e 7abc 67a3 943d 2d07 4b3c
00000090: f860 5a3d ea22 df3a d29a 663d d809 983d
000000a0: fda7 a3bd 7cfe aebd 6307 9b3d fe89 863d
000000b0: 1efe 6a3d 7455 dc3d 2637 1f3e 6249 393d
000000c0: f39e ca3c 45f7 a23c 75f0 8f39 c1f2 ca3c
000000d0: 464c 8e3b c5eb 633d d043 5c3c fa78 7b3c
000000e0: 0575 8bbd c221 4f3d 4c79 313d 6dca 813d
000000f0: 4b21 50bd 7b33 a33d 547c 58ba 45b8 b5bd

conv1.conv.local_nn.0.2.running_mean f4 [64]
34.17011 0.6513542 0.0 6e-45 6e-45 6e-45 3.9014134 0.0
1.025159e-37 43.642 22.697319 12.838708 0.0 0.3877985 1.5906221 0.0
0.0 4.3821487 0.0 36.705288 0.44038358 7.6889668 50.521114 6e-45
0.0 0.0 0.0 0.0 15.437482 6e-45 0.0 0.0
6e-45 34.125565 1.665e-42 0.0 0.0 0.0 0.7027517 17.543411
0.0 0.0 2.7637897 40.99507 43.496986 0.0 0.24909025 41.614655
1.6271172 0.0 0.0 15.161779 21.800276 20.545805 2.7045832 17.265627
0.0 0.0 0.0 0.0 0.0 1.222855 1.8856012 0.0
00000000: 31ae 0842 26bf 263f 0000 0000 0400 0000
00000010: 0400 0000 0400 0000 c2b0 7940 0000 0000
00000020: 9489 0b02 6891 2e42 1c94 b541 596b 4d41
00000030: 0000 0000 868d c63e 8199 cb3f 0000 0000
00000040: 0000 0000 903a 8c40 0000 0000 37d2 1242
00000050: f579 e13e 040c f640 9f15 4a42 0400 0000
00000060: 0000 0000 0000 0000 0000 0000 0000 0000
00000070: edff 7641 0400 0000 0000 0000 0000 0000
00000080: 0400 0000 9480 0842 a404 0000 0000 0000
00000090: 0000 0000 0000 0000 89e7 333f e858 8c41
000000a0: 0000 0000 0000 0000 eee1 3040 f4fa 2342
000000b0: eafc 2d42 0000 0000 8411 7f3e 6875 2642
000000c0: 6045 d03f 0000 0000 0000 0000 a696 7241
000000d0: f766 ae41 cf5d a441 e417 2d40 0120 8a41
000000e0: 0000 0000 0000 0000 0000 0000 0000 0000
000000f0: 0000 0000 8386 9c3f 615b f13f 0000 0000

conv1.conv.local_nn.0.2.running_var f4 [64]
1007.9642 1.121466 6e-45 6e-45 6e-45 6e-45 21.82417 6e-45
3.117308e-38 1636.7784 423.05173 143.15292 6e-45 0.44966683 3.080428 6e-45
6e-45 21.20967 6e-45 1196.8604 0.6052684 51.31575 2137.4219 6e-45
6e-45 6e-45 6e-45 6e-45 210.25734 6e-45 6e-45 6e-45
6e-45 1014.29584 4e-44 6e-45 6e-45 6e-45 1.3336074 304.24966
6e-45 6e-45 11.327413 1402.4225 1539.2428 6e-45 0.42995784 1427.3679
4.5745273 6e-45 6e-45 207.74109 421.94577 356.44412 8.218414 289.95413
6e-45 6e-45 6e-45 6e-45 6e-45 2.0646987 4.9304276 6e-45
00000000: b5fd 7b44 338c 8f3f 0400 0000 0400 0000
00000010: 0400 0000 0400 0000 e697 ae41 0400 0000
00000020: efb8 2901 e998 cc44 9f86 d343 2627 0f43
00000030: 0400 0000 bb3a e63e bb25 4540 0400 0000
00000040: 0400 0000 67ad a941 0400 0000 889b 9544
00000050: dff2 1a3f 5443 4d42 c096 0545 0400 0000
00000060: 0400 0000 0400 0000 0400 0000 0400 0000
00000070: e141 5243 0400 0000 0400 0000 0400 0000
00000080: 0400 0000 ef92 7d44 1d00 0000 0400 0000
00000090: 0400 0000 0400 0000 a6b3 aa3f f51f 9843
000000a0: 0400 0000 0400 0000 153d 3541 854d af44
000000b0: c567 c044 0400 0000 6f23 dc3e c66b b244
000000c0: 8762 9240 0400 0000 0400 0000 b8bd 4f43
000000d0: 0ff9 d243 d938 b243 a07e 0341 21fa 9043
000000e0: 0400 0000 0400 0000 0400 0000 0400 0000
000000f0: 0400 0000 0624 0440 10c6 9d40 0400 0000

conv1.conv.local_nn.1.0.weight f4 [128, 64]
0.07478277 0.033828437 -0.005118693 0.09839426 0.0712257 -0.02280626 -0.08123237 -0.059180573
0.011676261 -0.10161619 -0.02844929 -0.041975796 -0.16201644 0.03707983 0.058955777 -0.16693777
-0.0078498 0.09525915 0.19351327 0.05951116 0.049756005 -0.004464795 0.005631702 -0.01836308
0.028883453 -0.20624527 0.16275108 -0.12257181 0.02804062 -0.044542804 0.120540544 0.1061852
0.033629958 -0.0839593 -0.000638642 -0.012420741 0.19421265 0.0039934837 -0.038224887 0.09885936
-0.06458667 -0.098807886 -0.0011550619 0.021739306 0.02033944 0.05015368 0.04560979 0.07572884
-0.0657159 0.18317746 -0.042576443 -0.016075581 0.06996724 0.06727128 0.087110884 -0.012082849
-0.024008928 0.123619996 0.22135642 0.07892121 -0.17456377 0.119659334 0.045750476 -0.059416134
-0.040288743 -0.09610285 0.045516275 -0.08408373 0.062154546 -0.04388087 0.074996024 0.02287531
-0.054525755 -0.011043754 0.064047575 0.034817267 -0.011015923 0.02811006 -0.063530676 -0.17681164
0.15734491 -0.0123158805 0.16458598 0.08451922 -0.1351164 -0.09199289 0.10042234 -0.1139599
0.14905135 -0.14094059 0.054476935 -0.058278386 0.029246403 0.09836727 0.028417708 0.07567547
0.11515919 -0.103975356 0.03432003 0.13169222 0.055618063 0.11134658 0.09450987 0.06747272
-0.114201896 0.041517377 -0.05759342 0.101883344 0.13189714 0.16596568 0.10039054 -0.049287982
0.07506779 0.059259027 -0.14539605 0.08370797 0.026999194 0.10129178 -0.020639995 0.029467199
-0.013643009 -0.036917463 0.06287209 0.16800532 0.031091543 0.043026343 0.07357503 -0.112208545
-0.03695527 -0.08787418 0.07853865 -0.097869165 -0.117826305 0.10025753 0.035706244 -0.105737
-0.09217972 0.09882955 0.044984415 0.10202247 -0.11031376 0.08684785 0.012407469 -0.050092388
0.09041883 -0.07115795 0.007991718 -0.025855199 0.012277793 -0.10557638 0.032283608 -0.13572182
0.00074924843 -0.08066861 -0.017187351 -0.09013083 0.03863166 -0.037345767 -0.0035768612 -0.05132302
0.0011878358 0.025681933 -0.016207479 0.016032733 0.14820495 0.015746191 -0.16069803 -0.11099049
0.063519046 0.008572085 0.030316306 0.08573252 -0.0253816 0.053353354 -0.022762697 0.055087365
-0.0670912 -0.08788234 0.07364426 0.07616777 0.008686942 0.088514276 -0.03110795 -0.10058654
-0.0116396835 -0.09220488 -0.094391316 0.13099028 -0.05404836 0.19180684 0.15322809 -0.12924293
0.008269075 -0.21671858 0.057831664 0.020555062 0.015963301 -0.06318196 0.11127981 0.26159325
-0.024075532 -0.0709707 0.02438376 -0.047449995 0.1939953 -0.2847366 -0.2917394 0.10652928
-0.2505784 0.08694615 -0.113619775 0.12127783 0.046667185 0.0442187 0.021582337 0.1135793
-0.16321814 0.10598524 -0.16447335 0.03535068 0.0017966947 -0.124411635 -0.1731822 -0.17596717
-0.22592407 0.0955819 -0.23381974 -0.16061385 -0.060160104 -0.13587812 0.06053111 0.09857008
0.048476275 0.025623873 -0.01392835 -0.0064217607 0.004101831 -0.13575709 -0.016912999 0.07724868
-0.18503667 -0.11293914 0.14316186 -0.05182605 0.022087628 -0.061584007 9.095848e-05 0.014511455
0.041324142 -0.067865245 -0.0539626 -0.24221404 0.25742075 0.016406085 0.016475752 0.11127891
00000000: b527 993d b08f 0a3d b6ba a7bb ee82 c93d
00000010: c8de 913d 32d4 babc 285d a6bd 5467 72bd
00000020: ca4d 3f3c 261c d0bd 7c0e e9bc d0ee 2bbd
00000030: a3e7 25be 05e1 173d 9d7b 713d bcf1 2abe
00000040: 739c 00bc 3b17 c33d 5828 463e f9c1 733d
00000050: f4cc 4b3d 6a4d 92bb 248a b83b 2c6e 96bc
00000060: fe9c ec3c f631 53be 38a8 263e ee06 fbbd
00000070: 71b5 e53c 8472 36bd f6dd f63d a077 d93d
00000080: 91bf 093d daf2 abbd 8a6a 27ba 5d80 4bbc
00000090: aedf 463e c5db 823b b391 1cbd c776 ca3d
000000a0: 0446 84bd ca5b cabd 7265 97ba a116 b23c
000000b0: e69e a63c f26d 4d3d 55d1 3a3d b917 9b3d
000000c0: 0f96 86bd df92 3b3e a364 2ebd f0b0 83bc
000000d0: fc4a 8f3d 86c5 893d 3167 b23d 24f7 45bc
000000e0: 5fae c4bc 7b2c fd3d 42ab 623e 71a1 a13d
000000f0: d8c0 32be f40f f53d da64 3b3d 555e 73bd
00000100: cf05 25bd 92d1 c4bd 466f 3a3d 1734 acbd
00000110: c495 7e3d 6dbc 33bd 8497 993d 0165 bb3c
00000120: 6656 5fbd ddf0 34bc 602b 833d 8d9c 0e3d
00000130: 217c 34bc 1247 e63c 5f1c 82bd 1c0e 35be
00000140: 061f 213e 8cc8 49bc 3a89 283e 6a18 ad3d
00000150: f45b 0abe c566 bcbd 3aaa cd3d cf63 e9bd
00000160: eba0 183e bb52 10be 3523 5f3d 51b5 6ebd
00000170: 2796 ef3c c774 c93d 41cc e83c befb 9a3d
00000180: 95d8 eb3d 08f1 d4bd 2993 0c3d 53da 063e
00000190: c4cf 633d ad09 e43d 648e c13d 232f 8a3d
000001a0: afe2 e9bd 200e 2a3d 14e7 6bbd 37a8 d03d
000001b0: 0b10 073e e8f2 293e 8e99 cd3d 32e2 49bd
000001c0: 24bd 993d 98b9 723d b4e2 14be 166f ab3d
000001d0: 6a2d dd3c 1172 cf3d 3515 a9bc 3265 f13c
000001e0: ed86 5fbc c436 17bd 15c3 803d 9609 2c3e
000001f0: b1b3 fe3c 643c 303d 81ae 963d 98cd e5bd
00000200: 695e 17bd 61f7 b3bd dfd8 a03d a16f c8bd
00000210: eb4e f1bd d253 cd3d b640 123d a48c d8bd
00000220: b9c8 bcbd 2667 ca3d 9441 383d 28f1 d03d
00000230: 2eec e1bd 49dd b13d b248 4b3c ad2d 4dbd
00000240: 822d b93d 42bb 91bd b2ef 023c 48ce d3bc
00000250: cc28 493c 6e38 d8bd d13b 043d a9fa 0abe
00000260: 3669 443a 9635 a5bd 7dcc 8cbc 8396 b8bd
00000270: 3b3c 1e3d e0f7 18bd c669 6abb 1638 52bd
00000280: 28b1 9b3a eb62 d23c 8cc5 84bc 1457 833c
00000290: 0ac3 173e 28fe 803c 068e 24be fb4e e3bd
000002a0: 4616 823d ee71 0c3c e759 f83c 8894 af3d
000002b0: 13ed cfbc 0c89 5a3d d678 babc 4aa3 613d
000002c0: 1c67 89bd a8fb b3bd cdd2 963d d9fd 9b3d
000002d0: ad53 0e3c f946 b53d 19d6 febc 5100 cebd
000002e0: 5fb4 3ebc ead5 bcbd 3c50 c1bd 5122 063e
000002f0: d061 5dbd 0369 443e d3e7 1c3e 4258 04be
00000300: 047b 073c 7aeb 5dbe e5e0 6c3d 1763 a83c
00000310: 78c5 823c 8b65 81bd abe6 e33d 8def 853e
00000320: 0d3a c5bc 1659 91bd 73c0 c73c ed5a 42bd
00000330: b4a6 463e ffc8 91be de5e 95be 062c da3d
00000340: d04b 80be d310 b23d 7cb1 e8bd 8360 f83d
00000350: 1726 3f3d ab1e 353d 71cd b03c 449c e83d
00000360: a822 27be ca0e d93d b46b 28be e0cb 103d
00000370: 127f eb3a 87cb febd ad56 31be bd30 34be
00000380: a458 67be 71c0 c33d 716e 6fbe f577 24be
00000390: 716a 76bd a223 0bbe 78ef 773d 1cdf c93d
000003a0: 0f8f 463d 28e9 d13c bc33 64bc a26d d2bb
000003b0: a768 863b e803 0bbe 218d 8abc 8e34 9e3d
000003c0: 417a 3dbe a34c e7bd 0699 123e 8d47 54bd
000003d0: 1df1 b43c 833f 7cbd f6c0 be38 74c1 6d3c
000003e0: 8143 293d effc 8abd e307 5dbd f506 78be
000003f0: a7cc 833e 0e66 863c 28f8 863c 32e6 e33d

conv1.conv.local_nn.1.0.bias f4 [128]
0.009813925 0.06619674 0.071943045 -0.013258915 0.024060452 -0.11664495 -0.099146105 -0.15938887
-0.10224472 -0.19691943 -0.14969496 -0.06428151 0.053774443 -0.14724278 0.11841931 -0.009812862
0.072623335 0.03589326 0.0969904 -0.15439118 0.028932827 0.16140905 0.027075749 0.09975197
0.08137264 -0.056619134 0.15893692 -0.23809409 0.07578298 0.17278749 0.10420602 0.042362247
0.0575706 -0.015893243 0.110425144 -0.19262838 0.16815339 -0.01989222 0.11632562 0.08741821
0.0516851 -0.018102633 -0.021048406 0.13951674 0.12211006 -0.1401975 0.09020635 0.18423569
0.19724496 0.14021969 -0.042031113 0.01988992 -0.0829553 0.2175623 -0.03885467 0.06999517
0.034072276 -0.012474323 0.04489706 0.0710728 0.060147665 -0.030591452 -0.15101469 0.04183447
-0.088989235 -0.14973752 -0.09912142 0.05451194 -0.14551264 0.17281826 -0.13213292 0.024021722
0.06577245 -0.12379375 0.029987218 0.04404205 0.055748988 0.095344156 0.11305567 0.14361428
0.09840678 0.075650334 0.07105784 -0.09808286 0.024587333 0.11230833 0.13586111 -0.014626353
-0.15795776 0.0936784 -0.0072979834 0.15295286 0.05815318 -0.06738513 -0.019437876 -0.08281729
-0.029346049 0.09511285 -0.072678246 0.15517893 -0.014811842 -0.10279119 -0.014432419 -0.078057036
0.025428366 0.032201536 0.14527453 -0.022523277 -0.050911237 0.054008916 -0.037845656 0.039410505
-0.18192255 0.013933226 0.027689785 0.056147583 -0.22911003 0.11076497 -0.015102162 -0.06439022
-0.0065920637 0.13025007 0.046476107 0.075028814 -0.010364247 -0.0985607 -0.07492041 0.16124949
00000000: 96ca 203c 2892 873d e056 933d ec3b 59bc
00000010: 6d1a c53c 8ce3 eebd 1d0d cbbd d636 23be
00000020: ae65 d1bd 3fa5 49be a349 19be 06a6 83bd
00000030: 9742 5c3d d0c6 16be d385 f23d 20c6 20bc
00000040: 8bbb 943d d004 133d e7a2 c63d b918 1ebe
00000050: 8904 ed3c 6a48 253e f6cd dd3c c34a cc3d
00000060: b3a6 a63d 77e9 67bd 5cc0 223e f0ce 73be
00000070: 1b34 9b3d 34ef 303e f769 d53d 0984 2d3d
00000080: 26cf 6b3d 8c32 82bc 9426 e23d 6040 45be
00000090: 6730 2c3e 02f5 a2bc 203c ee3d 5208 b33d
000000a0: c1b3 533d f94b 94bc b56d acbc 7add 0e3e
000000b0: d714 fa3d ef8f 0fbe 1bbe b83d 48a8 3c3e
000000c0: 95fa 493e c095 0f3e d128 2cbd 2ff0 a23c
000000d0: 78e4 a9bd a7c8 5e3e 1326 1fbd a159 8f3d
000000e0: 5f8f 0b3d 1a61 4cbc fbe5 373d 9e8e 913d
000000f0: 665d 763d ed9a fabc 98a3 1abe 9f5a 2b3d
00000100: fd3f b6bd cb54 19be 2c00 cbbd e947 5f3d
00000110: 4401 15be 45f7 303e da4d 07be 34c9 c43c
00000120: b5b3 863d 9487 fdbd c1a7 f53c 7065 343d
00000130: 0d59 643d cc43 c33d bb89 e73d 9f0f 133e
00000140: 7e89 c93d 90ee 9a3d c686 913d abdf c8bd
00000150: 606b c93c e901 e63d 2d1f 0b3e 5fa3 6fbc
00000160: aebf 21be 76da bf3d ec23 efbb ad9f 1c3e
00000170: 0732 6e3d 3701 8abd 2e3c 9fbc 1d9c a9bd
00000180: 2067 f0bc 87ca c23d 55d8 94bd 3ae7 1e3e
00000190: 5ead 72bc 3084 d2bd f475 6cbc 5edc 9fbd
000001a0: 264f d03c c2e5 033d d9c2 143e bc82 b8bc
000001b0: 4d88 50bd 7438 5d3d 0c04 1bbd e96c 213d
000001c0: e849 3abe 2f48 643c b0d5 e23c 02fb 653d
000001d0: d29b 6abe bfd8 e23d 0f6f 77bc 05df 83bd
000001e0: 3d02 d8bb 4660 053e bb5d 3e3d b5a8 993d
000001f0: cdce 29bc 31da c9bd df6f 99bd 961e 253e

conv1.conv.local_nn.1.2.weight f4 [128]
0.91964066 0.88633996 0.9338526 1.0530297 1.0448834 1.1436058 0.9122886 0.9061086
0.9412314 0.91434956 1.0884188 0.9683919 0.87752193 1.1063741 0.9649551 0.9400747
0.92216897 1.00059 1.0229558 0.903816 1.0620767 0.94835204 0.92795646 0.9897961
0.95506215 1.0750186 0.9410095 0.9630761 1.0074116 0.9575118 0.9404445 1.0253302
0.93206215 0.7925812 0.9308372 0.95262057 0.9178426 1.0289657 0.8851049 0.91074723
0.91633356 0.8861392 0.96141386 0.85732454 1.017097 0.99275136 0.8960104 0.9180827
0.96174484 0.9993001 1.0094614 1.0059379 0.99852705 0.915294 0.87391305 0.9075303
0.89232624 1.0824666 1.016289 0.87050414 0.92399967 1.0033131 0.9340467 0.99508005
0.9237884 0.9188975 1.0083067 0.9127048 1.0250008 0.99639386 0.9652351 0.9190953
0.9041127 0.92745477 1.0354971 0.85434425 0.8538005 1.0217326 1.0083026 0.92395926
0.9902197 1.0157298 0.97199005 0.99980986 0.9091269 0.986527 0.927654 1.0104526
1.0752071 0.9065257 0.96091133 0.8920107 0.98019004 1.0193838 1.0332694 0.8471165
1.0154434 1.0460145 0.9253091 0.9495377 0.8499433 1.0351561 0.89165086 1.0094347
1.0656599 1.0027165 0.86666554 0.9457251 1.0886673 1.0630274 1.0124395 0.8884617
1.0223863 1.0551797 1.1786075 0.9968851 1.0281477 1.0168546 0.8962174 0.9042861
1.1028655 1.0012864 1.0505389 0.991423 0.92154 0.96515703 0.97544104 1.0513184
00000000: 926d 6b3f 2de7 623f f710 6f3f adc9 863f
00000010: bdbe 853f ad61 923f bf8b 693f bcf6 673f
00000020: 8bf4 703f d012 6a3f 4f51 8b3f 88e8 773f
00000030: 47a5 603f ab9d 8d3f 4c07 773f bca8 703f
00000040: 4413 6c3f 5513 803f 37f0 823f 7c60 673f
00000050: 21f2 873f 33c7 723f 8e8e 6d3f 4763 7d3f
00000060: f47e 743f 369a 893f 00e6 703f 288c 763f
00000070: ddf2 803f 7e1f 753f f9c0 703f 053e 833f
00000080: a09b 6e3f 9ae6 4a3f 594b 6e3f f1de 733f
00000090: bcf7 6a3f 26b5 833f 3c96 623f bb26 693f
000000a0: d694 6a3f 05da 623f 381f 763f 9f79 5b3f
000000b0: 3c30 823f f424 7e3f f060 653f 7807 6b3f
000000c0: e934 763f 22d2 7f3f 0836 813f 93c2 803f
000000d0: 789f 7f3f b550 6a3f c4b8 5f3f e853 683f
000000e0: 7e6f 643f 448e 8a3f c215 823f 5cd9 5e3f
000000f0: 3e8b 6c3f 906c 803f af1d 6f3f 91bd 7e3f
00000100: 667d 6c3f de3c 6b3f 3210 813f 06a7 693f
00000110: 3a33 833f ab13 7f3f a619 773f d449 6b3f
00000120: ee73 673f ad6d 6d3f 2b8b 843f 4eb6 5a3f
00000130: ab92 5a3f 22c8 823f 0f10 813f 9888 6c3f
00000140: 0a7f 7d3f 6f03 823f 57d4 783f 8af3 7f3f
00000150: 8abc 683f 098d 7c3f bc7a 6d3f 8356 813f
00000160: 63a0 893f 1112 683f 49fe 753f d05a 643f
00000170: bced 7a3f 2b7b 823f 2c42 843f a0dc 583f
00000180: 0dfa 813f cee3 853f 0fe1 6c3f e714 733f
00000190: e295 593f ff7f 843f 3b43 643f 2835 813f
000001a0: 8b67 883f 0459 803f cbdd 5d3f 0a1b 723f
000001b0: 7359 8b3f 4811 883f 9e97 813f 3a72 633f
000001c0: 8edd 823f 2110 873f 9cdc 963f dd33 7f3f
000001d0: 589a 833f 4b28 823f 816e 653f 4b7f 673f
000001e0: b22a 8d3f 272a 803f 0f78 863f e6cd 7d3f
000001f0: 0cea 6b3f 8814 773f 81b6 793f 9a91 863f

conv1.conv.local_nn.1.2.bias f4 [128]
0.07194749 0.0008803713 0.059614744 -0.20809041 -0.13428494 -0.18734787 0.16233334 -0.0041835024
-0.089331985 -0.065623514 -0.2546281 -0.07103992 0.08436066 -0.17347221 0.013776228 0.13610409
0.077679455 -0.11395791 0.09548639 -0.05185821 0.22163387 0.032456726 0.09107464 -0.014669427
0.054833643 -0.05783992 -0.016482629 0.09689567 -0.012962588 0.17468947 0.08102743 -0.067815974
0.14342885 0.06621426 0.10850874 -0.079185545 -0.02959631 -0.0036164622 0.13575184 -0.114112295
0.06608983 0.098525286 0.044363063 0.038428996 0.1180872 -0.0067018834 -0.0072251973 -0.001121537
0.033192888 0.01566451 0.018354706 0.056083377 0.054866493 -0.01958028 0.11116458 0.07487069
0.12086299 -0.13911441 -0.010867406 0.08754928 0.017764062 -0.112007365 0.07593697 0.06786637
0.122055225 0.027264891 -0.17697968 -0.040684313 0.06505411 0.11836211 0.038205653 0.13881096
0.123916544 0.087031685 0.079827264 -0.03782569 0.077888206 0.13630253 0.09348849 0.05835614
-0.0550053 0.09810935 0.07887409 -0.17547071 -0.007816914 0.035420846 -0.015100375 -0.17614014
-0.20158933 0.120058365 -0.060960807 -0.064983875 0.02715155 0.06321088 0.17755982 0.007678493
0.04622942 0.11011378 0.074770615 -0.024963425 0.052100204 0.06896149 0.013027768 -0.07534484
0.22349533 0.019775981 0.04609251 0.055906158 -0.09289083 0.11516456 -0.08102696 0.1064401
-0.1584254 0.09065429 -0.19469193 0.022324618 -0.09914358 0.077896304 0.045907486 -0.033593483
-0.11084567 0.08732612 0.14847808 0.045294385 0.032104366 0.062273074 0.008215457 0.12599187
00000000: 3559 933d b8c8 663a 972e 743d a715 55be
00000010: fe81 09be 1fd8 3fbe b63a 263e c315 89bb
00000020: b0f3 b6bd 9f65 86bd 9d5e 82be 617d 91bd
00000030: 48c5 ac3d b3a2 31be b0b5 613c df5e 0b3e
00000040: 6816 9f3d c462 e9bd 5e8e c33d 4669 54bd
00000050: fdf3 623e 58f1 043d 5785 ba3d 0958 70bc
00000060: 3e99 603d 8de9 6cbd 9406 87bc 3d71 c63d
00000070: 0961 54bc cce1 323e b6f1 a53d 1ae3 8abd
00000080: 03df 123e 589b 873d d539 de3d 082c a2bd
00000090: f673 f2bc 2b02 6dbb 8802 0b3e b5b3 e9bd
000000a0: 1b5a 873d a0c7 c93d 0bb6 353d b967 1d3d
000000b0: b4d7 f13d 799b dbbb 59c1 ecbb 8900 93ba
000000c0: 44f5 073d dc52 803c 9c5c 963c afb7 653d
000000d0: b0bb 603d d366 a0bc 41aa e33d ce55 993d
000000e0: 0487 f73d 0274 0ebe 340d 32bc 094d b33d
000000f0: f085 913c 1e64 e5bd d884 9b3d 86fd 8a3d
00000100: 17f8 f93d 9f5a df3c 293a 35be 98a4 26bd
00000110: 173b 853d d567 f23d 887d 1c3d 7624 0e3e
00000120: f5c7 fd3d ab3d b23d 7a7c a33d 1cef 1abd
00000130: da83 9f3d e492 0b3e e576 bf3d d906 6f3d
00000140: 3d4d 61bd 8eed c83d bd88 a13d 98ae 33be
00000150: 8312 00bc 7315 113d 9067 77bc 155e 34be
00000160: 6f6d 4ebe 29e1 f53d 0ab2 79bd 4416 85bd
00000170: ed6c de3c b574 813d 3ed2 353e de9b fb3b
00000180: 0f5b 3d3d 5583 e13d 5621 993d 1980 ccbc
00000190: 0667 553d af3b 8d3d 6b72 553c 654e 9abd
000001a0: f6db 643e 3d01 a23c 80cb 3c3d dbfd 643d
000001b0: 8c3d bebd 66db eb3d 76f1 a5bd 44fd d93d
000001c0: 453a 22be f5a8 b93d 525d 47be 1ee2 b63c
000001d0: ca0b cbbd 1988 9f3d 7d09 3c3d 5299 09bd
000001e0: 0e03 e3bd 09d8 b23d a30a 183e 9b86 393d
000001f0: de7f 033d 0d12 7f3d 209a 063c 0304 013e

conv1.conv.local_nn.1.2.running_mean f4 [128]
0.2678092 0.30922002 0.20851113 0.050634656 0.041263312 0.027324056 0.11525421 0.094029404
0.14638713 0.22941266 0.027356517 0.23956306 0.24041665 0.04732379 0.44443893 0.25009558
0.47563526 0.058041222 0.1930387 0.03435835 0.13340694 0.27702796 0.14059943 0.3421833
0.24634324 0.05393251 0.29555142 2.0413651e-18 0.34139094 0.5339756 0.30358028 0.10078443
0.24737935 0.3146225 0.3214894 0.11532434 0.35191047 0.22702548 0.37060368 0.36757058
0.16990072 0.10210911 0.32439083 0.4181849 0.21162558 0.030268136 0.22676641 0.5039314
0.5499258 0.4683688 0.30348033 0.15693706 0.3234229 0.5854635 0.23674332 0.36213678
0.31891373 0.021664735 0.22309269 0.18062541 0.28634548 0.1414437 0.014517503 0.60352033
0.12995698 0.15117933 0.014306808 0.5627004 0.016621212 0.4830978 0.122370474 0.36015624
0.13305876 0.08114372 0.24526273 0.25708738 0.44005764 0.5233878 0.30977815 0.3555643
0.17203489 0.2804941 0.17465688 0.05565006 0.19415845 0.4397153 0.45154217 0.095785454
0.024989825 0.29181057 0.1369233 0.36678115 0.32312828 0.20473662 0.08812182 0.22640868
0.3102877 0.4882501 0.083223134 0.3502973 0.4355419 0.272692 0.15275183 0.09335136
0.13231058 0.27260998 0.39210024 0.1383573 0.049916916 0.4845777 0.01578159 0.30101457
0.022099087 0.3879577 0.06789541 0.28281304 1.7138882e-15 0.5555213 0.226008 0.08020077
0.017530037 0.720869 0.17536174 0.3454047 0.23004156 0.2384727 0.26083326 0.69619834
00000000: 4a1e 893e 1652 9e3e f183 553e 4966 4f3d
00000010: b803 293d b3d6 df3c 660a ec3d 7d92 c03d
00000020: 82e6 153e 27eb 6a3e c61a e03c 0550 753e
00000030: c82f 763e 97d6 413d 808d e33e 870c 803e
00000040: 7786 f33e a2bc 6d3d f0ab 453e 57bb 0c3d
00000050: d49b 083e 9cd6 8d3e 4cf9 0f3e a632 af3e
00000060: 6741 7c3e 56e8 5c3d 8452 973e 4ca0 1622
00000070: cbca ae3e a0b2 083f e06e 9b3e 1168 ce3d
00000080: 0351 7d3e 3316 a13e 429a a43e 2b2f ec3d
00000090: 9c2d b43e 5e79 683e c4bf bd3e 3632 bc3e
000000a0: 74fa 2d3e 951e d13d 8e16 a63e 551c d63e
000000b0: 60b4 583e e2f4 f73c 7435 683e a601 013f
000000c0: f0c7 0c3f 09ce ef3e c661 9b3e 1cb4 203e
000000d0: b097 a53e f0e0 153f d76c 723e fe69 b93e
000000e0: a948 a33e 3e7a b13c 6972 643e def5 383e
000000f0: e09b 923e 9ed6 103e d2da 6d3c 4f80 1a3f
00000100: 7113 053e c1ce 1a3e 1a67 6a3c 220d 103f
00000110: 3529 883c 9858 f73e 5f9d fa3d 6666 b83e
00000120: 8e40 083e ae2e a63d 2726 7b3e f5a0 833e
00000130: 3c4f e13e befc 053f 3e9b 9e3e 860c b63e
00000140: ea29 303e ec9c 8f3e 41d9 323e 51f1 633d
00000150: 79d1 463e 5d22 e13e 8930 e73e 2a2b c43d
00000160: 76b7 cc3c 3268 953e 9f35 0c3e bdca bb3e
00000170: 1271 a53e 7aa6 513e 3679 b43d add7 673e
00000180: 08de 9e3e ebfb f93e e470 aa3d 2b5a b33e
00000190: 59ff de3e 499e 8b3e fa6a 1c3e ff2e bf3d
000001a0: 6d7c 073e 8993 8b3e 5dc1 c83e 89ad 0d3e
000001b0: ae75 4c3d 911a f83e 6548 813c 951e 9a3e
000001c0: 2509 b53c 64a2 c63e c00c 8b3d dfcc 903e
000001d0: 50ff f626 a536 0e3f a46e 673e 4d40 a43d
000001e0: 279b 8f3c df8a 383f 0792 333e e3d8 b03e
000001f0: 0490 6b3e 3032 743e f08b 853e 0e3a 323f

conv1.conv.local_nn.1.2.running_var f4 [128]
0.26307938 0.42803416 0.12572955 0.011199699 0.0061845533 0.0043291436 0.09444262 0.17311636
0.19504143 0.6143031 0.00356816 0.5887139 0.21058834 0.0112490775 0.09882579 0.24248752
0.12549599 0.013441483 0.08663981 0.018276205 0.054786943 0.20947419 0.060639106 0.10125251
0.172744 0.013914105 0.20822854 1.3958356e-19 0.09280044 0.17310083 0.25643036 0.017847506
0.28345618 0.62479097 0.5051617 0.22157449 0.33416528 0.05255332 0.74957263 0.43065238
0.046357967 0.090020455 0.071966514 0.1016508 0.08593368 0.0045334827 0.1122589 0.14098805
0.151682 0.14062367 0.08140031 0.030272357 0.09609059 0.12904298 0.0501701 0.32072046
0.61349916 0.0034418036 0.052430294 0.14364612 0.28145534 0.09005125 0.0030284016 0.22179165
0.22026879 0.2561175 0.0017368649 0.20168348 0.0088662375 0.12846074 0.18431525 0.65048784
0.11293526 0.035616003 0.13797697 0.27895686 1.1408724 0.1649536 0.2841711 0.47270197
0.07617034 0.047821883 0.18168004 0.03841661 0.045429356 0.10907376 0.13088748 0.029486539
0.003876295 0.6064054 0.034165375 0.4308844 0.06505444 0.04276862 0.04247155 0.4770697
0.07880321 0.187785 0.016405435 0.051738814 0.13241147 0.07130241 0.1881595 0.12947181
0.09044024 0.06917598 0.12089772 0.038460974 0.007981049 0.18012825 0.0013989359 0.5277311
0.0035592788 0.10213935 0.013995385 0.07234087 5.278884e-17 0.14783229 0.1929578 0.09820022
0.0028955217 0.3325343 0.123731606 0.07757609 0.3082553 0.06585806 0.071595736 0.32115832
00000000: 57b2 863e 4b27 db3e 3fbf 003e f17e 373c
00000010: cba7 ca3b 7ddb 8d3b 226b c13d 6a45 313e
00000020: f1b8 473e f842 1d3f cbd7 693b f4b5 163f
00000030: 78a4 573e 0d4e 383c 2d65 ca3d a64e 783e
00000040: 0582 003e aa39 5c3c 3670 b13d fbb7 953c
00000050: 4668 603d 6780 563e b660 783d 7a5d cf3d
00000060: cee3 303e fcf7 633c dd39 553e 8bca 2420
00000070: 280e be3d 5841 313e d74a 833e ef34 923c
00000080: 2b21 913e 4df2 1f3f 4752 013f 6ce4 623e
00000090: b617 ab3e 2642 573d fee3 3f3f 787e dc3e
000000a0: dae1 3d3d a55c b83d 2e63 933d 4b2e d03d
000000b0: fffd af3d 9c8d 943b ffe7 e53d 2c5f 103e
000000c0: 8752 1b3e a7ff 0f3e 35b5 a63d bcfd f73c
000000d0: 25cb c43d d823 043e 2a7f 4d3d 7935 a43e
000000e0: 480e 1d3f e28f 613b 26c1 563d f817 133e
000000f0: ea1a 903e ca6c b83d 2678 463b 5a1d 633e
00000100: 248e 613e d521 833e 84a7 e33a 1d86 4e3e
00000110: b243 113c 368b 033e 23bd 3c3e 5f86 263f
00000120: 9a4a e73d 16e2 113d d649 0d3e 6fd3 8e3e
00000130: 1b08 923f 99e9 283e e07e 913e fe05 f23e
00000140: 32ff 9b3d e1e0 433d 550a 3a3e bc5a 1d3d
00000150: 2214 3a3d 1062 df3d 5e07 063e c18d f13c
00000160: 7009 7e3b 623d 1b3f fef0 0b3d e19c dc3e
00000170: 433b 853d 262e 2f3d a6f6 2d3d 7b42 f43e
00000180: 9463 a13d b64a 403e b164 863c 14ec 533d
00000190: df96 073e ff06 923d e2ac 403e 4294 043e
000001a0: bc38 b93d 23ac 8d3d 3999 f73d 4189 1d3d
000001b0: f2c2 023c 8a73 383e 805c b73a 6319 073f
000001c0: ca42 693b 6f2e d13d e64c 653c 7327 943d
000001d0: 1072 7324 5961 173e bb96 453e 321d c93d
000001e0: cbc2 3d3b f041 aa3e ff66 fd3d 37e0 9e3d
000001f0: a4d3 9d3e 97e0 863d c9a0 923d dd6e a43e

pool.net.0.0.weight f4 [128, 131]
-0.018455056 -0.10927707 -0.055882066 0.059912104 -0.11394936 0.08364046 -0.089394204 -0.020972565
-0.008433069 0.023662332 0.045437675 -0.035779357 -0.06434755 0.056543723 -0.06576616 -0.08996544
-0.016347794 -0.017129797 0.025310274 -0.02296122 -0.06384277 -0.05319793 -0.08331357 -0.019949224
-0.019262793 -0.086386 -0.0713027 -0.041576106 -0.025407096 -0.004031832 -0.073751755 0.0207089
-0.0005598653 -0.041937925 -0.09832826 -0.018991606 0.066895135 0.017117232 -0.0894423 0.011037215
-0.080889635 0.029439265 0.016748527 0.02913477 -0.063809715 0.0009052287 -0.047203273 -0.021004763
0.059104748 -0.06524527 -0.07976515 -0.09691367 -0.08036809 0.042069618 -0.03845125 0.05167604
-0.06312756 0.07835377 -0.028656403 -0.00061366084 -0.07613308 -0.11506103 -0.03705617 -0.08723643
-0.052822936 0.0011704064 -0.04309304 -0.025290357 0.00025034204 -0.13680868 -0.080457024 -0.08855666
-0.036278564 -0.062374737 -0.1433652 0.02181474 -0.033423692 -0.08697995 0.06221802 -0.050117977
-0.044224817 -0.080292255 0.0036851221 0.06911237 -0.06532316 -0.017919522 -0.10699031 -0.03905457
0.061600387 -0.06943636 -0.026623571 0.061699137 0.017617831 0.040138297 -0.08255453 -0.04824066
-0.09776063 -0.02613272 -0.03730031 0.04577554 -0.12113189 -0.084549546 -0.016681304 -0.0028380537
-0.15398927 -0.045894574 0.072209954 -0.037810348 -0.02265716 -0.03628633 0.08109615 -0.06565487
-0.030733109 0.035048533 0.05003514 -0.0131752845 -0.07793864 -0.0043134773 0.013980024 -0.06369402
-0.071423456 -0.10408045 -0.104466826 -0.0008464365 -0.029312083 -0.09217583 -0.06295902 -0.09122738
0.0018066388 0.1773531 0.07529797 0.09491468 0.07524038 0.065504335 0.061452996 -0.11072345
-0.19355562 -0.08995087 -0.022796178 0.092861645 0.0049762595 -0.09873891 -0.04167055 -0.029632796
0.002752693 0.013935252 0.06497887 -0.0001451817 0.09596921 0.17561148 -0.034976635 0.12611158
0.13020724 0.1757204 -0.20343071 0.026531273 0.009184775 -0.02265523 -0.028218841 -0.1448257
-0.11878206 -0.024026131 -0.026387833 0.057840347 -0.02025091 -0.0025147817 -0.018878479 0.026751395
-0.0831475 -0.06360088 0.037129678 -0.02943205 0.0118398415 -0.11930614 0.09774891 0.18112424
-0.063600115 0.009074013 0.04866755 0.02081468 -0.06883859 -0.07506743 -0.031113377 -0.09035483
0.062341847 -0.05439977 -0.022802224 0.03176972 0.18655756 0.05016306 0.011577836 0.04227006
-0.020794991 -0.014081034 -0.013192607 -0.0022553683 -0.07205974 0.025501639 -0.0695644 0.03471283
-0.0015341982 -0.08837502 0.09556221 0.022663908 0.09995412 0.02061669 0.03544146 0.0598098
-0.039887413 0.06036572 0.041326713 -0.023873152 0.011811405 0.0087935245 0.15927044 -0.004377058
0.0129860975 0.017820967 -0.039009955 -0.12765233 -0.023178726 0.057216085 0.0010828411 0.04290558
-0.16801171 0.043357115 0.04001635 -0.05707064 -0.0778386 -0.028645081 0.040862758 -0.035350658
-0.018455666 -0.02693115 -0.036664777 -0.06697822 -0.09532771 0.027130786 0.04732965 0.04556575
-0.09937315 -0.05126113 -0.08655269 0.12837781 -0.13970539 -0.070702456 0.021891313 0.039091606
0.040117886 0.044703364 -0.099196605 0.16599923 0.042698033 -0.037340265 -0.00629753 -0.0018343373
00000000: 0f2f 97bc a8cc dfbd 98e4 64bd 6566 753d
00000010: 485e e9bd b14b ab3d 4f14 b7bd a8ce abbc
00000020: db2a 0abc 82d7 c13c db1c 3a3d 608d 12bd
00000030: a6c8 83bd 649a 673d 69b0 86bd cd3f b8bd
00000040: cfeb 85bc ca53 8cbc 7e57 cf3c 2b19 bcbc
00000050: 00c0 82bd 13e6 59bd 4ea0 aabd 8e6c a3bc
00000060: 01cd 9dbc 25eb b0bd 2607 92bd b54b 2abd
00000070: 8b22 d0bc 751d 84bb 290b 97bd b6a5 a93c
00000080: edc3 12ba 1ac7 2bbd 5460 c9bd 4994 9bbc
00000090: 5100 893d 7039 8c3c 862d b7bd 6fd5 343c
000000a0: 77a9 a5bd 9d2a f13c 3534 893c 0bac ee3c
000000b0: abae 82bd df4c 6d3a 3858 41bd 2e12 acbc
000000c0: d217 723d 509f 85bd e95b a3bd ad7a c6bd
000000d0: 0698 a4bd 3151 2c3d 0f7f 1dbd 41aa 533d
000000e0: 0649 81bd f177 a03d d5c0 eabc 15de 20ba
000000f0: a9eb 9bbd 1ea5 ebbd 36c8 17bd 03a9 b2bd
00000100: dd5c 58bd 5268 993a 5482 30bd b92d cfbc
00000110: 5740 8339 9317 0cbe a7c6 a4bd 325d b5bd
00000120: d598 14bd a77c 7fbd 54ce 12be d3b4 b23c
00000130: 48e7 08bd 8b22 b2bd 53d8 7e3d 8248 4dbd
00000140: 1525 35bd 4470 a4bd 1782 713b c98a 8d3d
00000150: 26c8 85bd f6cb 92bc bc1d dbbd aff7 1fbd
00000160: b050 7c3d a634 8ebd ad19 dabc 3cb8 7c3d
00000170: 4553 903c 0e68 243d 5912 a9bd 0098 45bd
00000180: ba36 c8bd 4914 d6bc 36c8 18bd 227f 3b3d
00000190: ff13 f8bd 5028 adbd 3ba7 88bc a4fe 39bb
000001a0: 5daf 1dbe f3fb 3bbd d0e2 933d 06df 1abd
000001b0: 829b b9bc faa0 14bd bd15 a63d 0f76 86bd
000001c0: 00c4 fbbc 0d8f 0f3d a6f1 4c3d 26dd 57bc
000001d0: 4b9e 9fbd 1258 8dbb 780c 653c 0372 82bd
000001e0: 7646 92bd 2228 d5bd b4f2 d5bd 64e3 5dba
000001f0: e51f f0bc aec6 bcbd a9f0 80bd 6cd5 babd
00000200: bdcc ec3a 0d9c 353e d235 9a3d a162 c23d
00000210: a117 9a3d 2327 863d 23b6 7b3d fac2 e2bd
00000220: 7233 46be 2938 b8bd 0dbf babc 3f2e be3d
00000230: e40f a33b a037 cabd bdae 2abd 7ac0 f2bc
00000240: 8666 343b af50 643c a413 853d ea3b 18b9
00000250: 818b c43d 7fd3 333e a943 0fbd 6523 013e
00000260: 0c55 053e 0cf0 333e 2450 50be 1d58 d93c
00000270: bd7b 163c 7697 b9bc 332b e7bc 304d 14be
00000280: 0244 f3bd 73d2 c4bc 4c2b d8bc 00ea 6c3d
00000290: 3de5 a5bc 09cf 24bb 0aa7 9abc be25 db3c
000002a0: 3d49 aabd 2e41 82bd 4a15 183d 7c1b f1bc
000002b0: e5fb 413c c756 f4bd 9530 c83d a278 393e
000002c0: c740 82bd 2bab 143c a057 473d 8c83 aa3c
000002d0: 3ffb 8cbd f4bc 99bd 7be1 febc f40b b9bd
000002e0: 2a5a 7f3d 4bd2 5ebd bbcb babc f720 023d
000002f0: f208 3f3e c877 4d3d f7b0 3d3c 5f23 2d3d
00000300: 425a aabc 23b4 66bc ce25 58bc cdce 13bb
00000310: 0f94 93bd d0e8 d03c c877 8ebd 0a2f 0e3d
00000320: 2617 c9ba f6fd b4bd 1fb6 c33d a9a9 b93c
00000330: bfb4 cc3d 55e4 a83c 102b 113d 1ffb 743d
00000340: fc60 23bd 0c42 773d 3346 293d a191 c3bc
00000350: a084 413c b712 103c ca17 233e 6c6d 8fbb
00000360: a4c3 543c 47fd 913c e7c8 1fbd 4bb7 02be
00000370: 50e1 bdbc 6a5b 6a3d 1eee 8d3a c3bd 2f3d
00000380: 430b 2cbe 3b97 313d 2fe8 233d e7c2 69bd
00000390: d869 9fbd 17a9 eabc b55f 273d dacb 10bd
000003a0: 5630 97bc b79e dcbc ce2d 16bd e12b 89bd
000003b0: 2d3b c3bd 6241 de3c bcdc 413d 27a3 3a3d
000003c0: 2684 cbbd 31f7 51bd 8942 b1bd 7975 033e
000003d0: ee0e 0fbe 73cc 90bd 6955 b33c 851e 203d
000003e0: a752 243d e01a 373d 9727 cbbd b4fb 293e
000003f0: 22e4 2e3d 1bf2 18bd 835b cebb 256e f0ba

pool.net.0.0.bias f4 [128]
-0.019297792 0.034261618 0.021331683 -0.01358386 0.034288432 0.011920137 -0.011862702 0.055533923
-0.025507607 -0.057539172 0.055860035 -0.07287393 -0.015806474 -0.06159121 -0.15827823 0.2479582
-0.05039251 0.14485426 -0.04140092 0.04691972 -0.057421688 0.0041200747 -0.015832134 0.03574591
0.10189343 -0.15100989 0.030623939 0.10489494 -0.03203669 -0.06301198 0.0060262573 -0.08894507
0.07032568 -0.09889684 -0.02300361 -0.011995218 -0.016304376 0.14311375 -0.023803541 0.058755804
-0.080563866 -0.06563137 0.053507235 -0.010472223 -0.030323336 0.089496516 -0.06896075 -0.0052746045
0.14952865 -0.011643884 -0.016610708 0.14554147 -0.041673828 0.0038957826 -0.15389873 0.10752018
-0.0888112 -0.091592744 -0.1222153 0.09929818 0.046373084 -0.121756524 7.713091e-05 0.010112648
0.058471985 -0.089292414 0.107520506 0.0008050241 0.19548689 0.07585977 0.21517307 0.0662689
-0.08058317 0.039066985 -0.028343773 -0.02557574 -0.10924953 -0.021995807 -0.07473929 0.054974724
0.02981567 0.0001763455 0.08787351 0.054796357 0.056432895 -0.06569909 -0.05537573 -0.007168858
-0.090394214 0.11708208 -0.17636892 0.030245492 -0.007798745 -0.073528804 -0.12045869 -0.0658197
0.06267922 -0.027953107 0.112611786 -0.02448037 -0.1860206 -0.073129185 0.026233846 -0.13789678
0.06775958 0.13098466 -0.007826953 0.027008103 0.051450055 0.19043243 -0.028078733 0.044965614
-0.1107705 0.006460661 0.06746816 -0.17672856 0.0020164822 -0.12615806 -0.046908125 0.15720291
-0.063044146 -0.07018091 -0.09126958 0.020954853 0.14008906 0.023569264 0.061464034 -0.07410404
00000000: 6716 9ebc e955 0c3d c8bf ae3c d78e 5ebc
00000010: 0772 0c3d ae4c 433c c75b 42bc 8a77 633d
00000020: 54f5 d0bc 32ae 6bbd 7ecd 643d ed3e 95bd
00000030: 947c 81bc 1147 7cbd b013 22be c1e8 7d3e
00000040: 6068 4ebd ad54 143e 0394 29bd e42e 403d
00000050: 0133 6bbd b101 873b 64b2 81bc 4e6a 123d
00000060: 81ad d03d 56a2 1abe 0edf fa3c 29d3 d63d
00000070: e738 03bd 6d0c 81bd e977 c53b d528 b6bd
00000080: e906 903d 6d8a cabd 1172 bcbc 9787 44bc
00000090: c190 85bc 698c 123e a5ff c2bc eda9 703d
000000a0: abfe a4bd bd69 86bd 672a 5b3d b093 2bbc
000000b0: a568 f8bc f349 b73d 4b3b 8dbd 97d6 acbb
000000c0: 0a1e 193e fdc5 3ebc 2e13 88bc d308 153e
000000d0: 2db2 2abd 6350 7f3b a197 1dbe 8a33 dc3d
000000e0: a5e2 b5bd fa94 bbbd 044c fabd d85c cb3d
000000f0: b4f1 3d3d 7c5b f9bd 58c1 a138 85af 253c
00000100: 5280 6f3d f1de b6bd b633 dc3d 4108 533a
00000110: b72d 483e 5e5c 9b3d 5456 5c3e fdb7 873d
00000120: ca08 a5bd b404 203d 3331 e8bc 3784 d1bc
00000130: 38be dfbd 8d30 b4bc ea10 99bd 2d2d 613d
00000140: fe3f f43c 62e9 3839 07f7 b33d 2572 603d
00000150: 2e26 673d 3f8d 86bd a9d1 62bd bde8 eabb
00000160: 9a20 b9bd bbc8 ef3d 0e9a 34be 65c5 f73c
00000170: 9d8c ffbb 4596 96bd 0cb3 f6bd 7bcc 86bd
00000180: f75d 803d eafd e4bc 02a1 e63d 0f8b c8bc
00000190: 2f7c 3ebe c1c4 95bd 5de8 d63c d034 0dbe
000001a0: 89c5 8a3d d820 063e 9f3c 00bc 1940 dd3c
000001b0: 4bbd 523d b800 433e 5f05 e6bc dd2d 383d
000001c0: a5db e2bd f4b3 d33b bf2c 8a3d 55f8 34be
000001d0: f526 043b 942f 01be bc22 40bd cdf9 203e
000001e0: 4a1d 81bd 02bb 8fbd 8ceb babd 83a9 ab3c
000001f0: 8273 0f3e 5414 c13c b6c1 7b3d dcc3 97bd

pool.net.0.2.weight f4 [128]
0.8793106 1.0256566 0.9558223 0.94685376 1.092453 0.9599758 1.0650566 1.0681682
1.0451307 0.8979529 0.96703744 1.1192378 0.97638166 1.0683215 1.1872869 0.91087383
0.9569458 0.9615671 1.0387924 0.8733684 1.0331259 0.9637156 1.0638658 0.96114516
0.8615976 0.9154447 1.0062593 0.92632234 1.1296262 0.9773954 1.0267776 1.0421343
0.9951072 1.2085438 1.0221839 0.8813759 0.91699785 0.92465246 0.99234325 1.1548909
1.051598 0.9125464 0.9600421 1.1258838 0.99890465 1.0029159 1.0244077 1.1422983
0.9480647 0.83029306 0.9395524 0.98059595 1.1397619 0.865717 0.95747155 1.0417867
1.042366 0.99933994 1.1261114 0.9449948 0.9120032 1.0834697 0.9652746 0.9651473
1.0724853 0.9845604 0.9672474 0.9956517 1.0153333 0.9415187 0.9133044 0.9699694
1.1459372 0.93024755 0.9888869 1.0133191 1.0681685 0.9633446 1.0950508 1.0292904
0.954882 0.9371775 0.9057108 0.91706645 1.0048784 0.99077183 0.9516137 1.111212
0.9489455 0.9021817 1.0393206 0.84467643 0.9232388 0.9448237 0.8199633 0.92054206
0.92898 0.83011043 1.0268803 0.98593587 0.9989402 0.91944087 0.99222386 1.0131813
1.0111389 0.94883186 1.0216656 1.0350729 0.9331389 0.9227766 0.96657807 0.99077344
0.99506676 1.0908897 1.165366 1.1222509 0.9089954 1.1365299 0.9590434 0.9698638
0.9276952 1.0522324 0.94958353 1.0510727 1.0404702 0.90934235 0.9777795 1.153202
00000000: 801a 613f b748 833f c5b0 743f 0265 723f
00000010: 80d5 8b3f f9c0 753f c653 883f bcb9 883f
00000020: d8c6 853f 3ee0 653f c48f 773f 2f43 8f3f
00000030: 26f4 793f c2be 883f 04f9 973f 072f 693f
00000040: 66fa 743f 4329 763f 26f7 843f 1295 5f3f
00000050: 783d 843f 11b6 763f c12c 883f 9c0d 763f
00000060: a991 5c3f 955a 6a3f 1bcd 803f 7623 6d3f
00000070: 9797 903f 9636 7a3f 736d 833f a864 853f
00000080: 58bf 7e3f 90b1 9a3f ecd6 823f daa1 613f
00000090: 5fc0 6a3f 06b6 6c3f 350a 7e3f 77d3 933f
000000a0: c39a 863f a49c 693f 52c5 753f f61c 903f
000000b0: 37b8 7f3f 8c5f 803f cb1f 833f d536 923f
000000c0: 5eb4 723f 168e 543f 8286 703f 5608 7b3f
000000d0: b8e3 913f a19f 5d3f db1c 753f 4459 853f
000000e0: 406c 853f bed4 7f3f 6b24 903f 2eeb 713f
000000f0: 0b79 693f 23af 8a3f 3c1c 773f e513 773f
00000100: 3347 893f 260c 7c3f 879d 773f 08e3 7e3f
00000110: 71f6 813f 5f07 713f 51ce 693f ea4f 783f
00000120: 12ae 923f b424 6e3f b127 7d3f 71b4 813f
00000130: bfb9 883f c09d 763f a02a 8c3f cabf 833f
00000140: 2673 743f ddea 6f3f aadc 673f dec4 6a3f
00000150: db9f 803f 39a3 7d3f f59c 733f 323c 8e3f
00000160: 18ee 723f 61f5 663f 7508 853f b73c 583f
00000170: 6159 6c3f f7df 713f 1de9 513f a5a8 6b3f
00000180: a2d1 6d3f 1e82 543f d070 833f 4b66 7c3f
00000190: 8cba 7f3f 7a60 6b3f 6202 7e3f edaf 813f
000001a0: 006d 813f a5e6 723f f0c5 823f 457d 843f
000001b0: 31e2 6e3f 163b 6c3f a971 773f 54a3 7d3f
000001c0: b2bc 7e3f 46a2 8b3f b72a 953f eba5 8f3f
000001d0: ecb3 683f d079 913f de83 753f fe48 783f
000001e0: 6f7d 6d3f 8daf 863f e817 733f 8d89 863f
000001f0: 212e 853f a9ca 683f c24f 7a3f 209c 933f

pool.net.0.2.bias f4 [128]
-0.24461025 0.14320748 0.09022162 0.11991707 0.18576583 -0.16701445 -0.24520166 -0.13904811
0.23039427 -0.1026567 0.08570378 -0.21231017 0.043135982 -0.21883018 -0.30844814 0.23645963
0.035378985 0.12880929 -0.1443679 -0.11173611 -0.2693757 0.1463986 -0.008540215 0.1862663
-0.19399801 -0.13222398 0.11704082 -0.1644954 -0.0074436977 0.20966166 0.076828845 -0.17639035
-0.083312355 -0.18056579 -0.19926503 -0.13221349 0.013140936 0.17153333 -0.19438593 -0.110637456
-0.25800607 0.12682375 -0.046582848 -0.020500464 -0.14224106 0.15104155 -0.24115856 0.19571432
0.08496897 -0.09835146 -0.07764143 0.25285468 -0.10998233 -0.06430679 -0.2274687 0.13446894
-0.22735417 -0.17957343 -0.26127985 -0.045446306 -0.19216585 -0.257472 -0.23432751 -0.20910382
-0.1893402 -0.23161444 0.07583902 -0.18695256 0.15822051 0.12298031 0.17815511 0.05200952
-0.26151183 -0.1210006 0.109249726 -0.19040404 -0.17014432 -0.06471332 -0.16744581 -0.109717965
0.0018993748 0.116915256 0.12841624 0.085178636 0.06203415 -0.1648623 -0.21649474 -0.17629349
-0.112572275 -0.0067430753 -0.1815192 0.054504517 0.12147429 -0.1348677 0.031074397 -0.22224674
0.039985646 -0.09675239 0.21262497 -0.06727175 -0.216316 0.1000812 -0.12105579 -0.03747532
0.17296451 0.1060353 0.23931836 0.20084378 -0.013967349 0.20806915 0.12848172 0.20389245
-0.04992017 -0.23532885 -0.24131896 -0.28582224 -0.048211403 -0.26873952 -0.23529725 0.21820238
0.03359378 -0.12015909 0.027878858 -0.0709991 0.1726178 0.051651675 0.13798983 -0.1580287
00000000: 1c7b 7abe fba4 123e 1dc6 b83d 1597 f53d
00000010: 6639 3e3e d605 2bbe 2516 7bbe a162 0ebe
00000020: 7aec 6b3e ad3d d2bd 7785 af3d d667 59be
00000030: 5baf 303d 0515 60be eaec 9dbe 7922 723e
00000040: 8ee9 103d 95e6 033e 2ed5 13be e7d5 e4bd
00000050: 9deb 89be 84e9 153e 42ec 0bbc 98bc 3e3e
00000060: 6aa7 46be b965 07be 19b3 ef3d 7b71 28be
00000070: 43ea f3bb 8cb1 563e 7158 9d3d ac9f 34be
00000080: ab9f aabd 3de6 38be 220c 4cbe f962 07be
00000090: 154d 573c 6fa6 2f3e 1b0d 47be e495 e2bd
000000a0: 5f19 84be 16de 013e a8cd 3ebd 97f0 a7bc
000000b0: a4a7 11be a3aa 1a3e 45f2 76be 5669 483e
000000c0: 3604 ae3d 7e6c c9bd 7802 9fbd 2b76 813e
000000d0: 6a3e e1bd 47b3 83bd 8eed 68be 3ab2 093e
000000e0: 88cf 68be 19e2 37be 79c6 85be e825 3abd
000000f0: 20c7 44be 5fd3 83be 8df3 6fbe 501f 56be
00000100: 66e2 41be 562c 6dbe 7d51 9b3d 7e70 3fbe
00000110: 8f04 223e 1add fb3d 4b6e 363e ef07 553d
00000120: e1e4 85be 2acf f7bd 52be df3d 47f9 42be
00000130: 503a 2ebe 6b88 84bd ea76 2bbe d0b3 e0bd
00000140: 71f4 f83a 4471 ef3d 8c7f 033e 2372 ae3d
00000150: 8517 7e3d aad1 28be ccb0 5dbe 4886 34be
00000160: 4b8c e6bd 04f5 dcbb 2be0 39be 2140 5f3d
00000170: 83c7 f83d c21a 0abe bc8f fe3c a694 63be
00000180: fdc7 233d 1e26 c6bd 5cba 593e c5c5 89bd
00000190: f181 5dbe 5ff7 cc3d 19ec f7bd b97f 19bd
000001a0: 9c1d 313e 0929 d93d df0f 753e fea9 4d3e
000001b0: 4fd7 64bc 1410 553e b690 033e 2fc9 503e
000001c0: 1879 4cbd 0cfa 70be 511c 77be 4b57 92be
000001d0: 5279 45bd 3a98 89be c3f1 70be 7270 5f3e
000001e0: a299 093d f815 f6bd 3462 e43c fa67 91bd
000001f0: b8c2 303e b590 533d 354d 0d3e 47d2 21be
