hepgnn_4top_resampling/result/test_train20220726_4top_cla_alledge_w1_L1/weight.pth (torch, 152509 bytes, 25 tensors)

conv1.conv.local_nn.0.0.weight f4 [64, 7]
0.36084735 0.29219633 0.3743433 -0.028261479 -0.30979854 -0.24219447 -0.095760904 0.04721147
-0.12637003 -0.2222358 -0.03458174 0.237544 0.31616712 -0.18814923 -0.21669713 -0.017410787
0.16637923 0.16919303 -0.14068744 0.13091104 -0.0642612 -0.04536029 -0.30651036 0.27075124
-0.26653716 0.09419744 -0.18916313 -0.3186443 -0.020267924 0.12247971 -0.35071304 0.031693857
-0.13906747 -0.057622537 -0.17172416 -0.047087364 0.34000564 -0.3633532 -0.17881592 0.321207
-0.019893195 -0.07852566 0.12763433 -0.16014816 0.15250406 -0.232888 -0.111762375 0.2833807
0.030908357 -0.29894736 0.22708426 -0.25118172 -0.024390412 -0.0010921336 -0.16655423 0.16916032
-0.041616075 0.20239541 0.18793376 -0.29958695 0.27785853 0.00534018 0.29420954 0.23224044
-0.1128002 -0.078747086 -0.1404794 -0.17542082 0.29259333 0.35772762 0.1696091 0.33651316
0.12996858 0.054282974 -0.15380505 0.3528541 -0.27207994 0.27923042 -0.052080803 -0.14903949
-0.0028193174 0.2354847 -0.33006454 -0.29196736 -0.06917627 -0.37461576 0.051360197 -0.26761127
-0.33925188 -0.1535355 -0.20252863 -0.0011029409 0.25304693 -0.089623675 0.07687409 0.1717984
0.10136741 0.023505304 0.05881259 0.2217426 -0.33818084 -0.1534359 0.33636144 -0.09876016
0.24490759 -0.30196312 0.084407024 -0.011049839 -0.35500196 0.08470625 -0.040082823 -0.3668511
-0.11759574 0.31140018 0.07582568 -0.2308046 -0.19505815 -0.1724551 -0.19586742 0.07079601
-0.1716914 0.27117187 0.20062515 0.2795722 0.01124346 0.34476078 -0.31641904 -0.20392147
-0.21511059 0.17662264 -0.3594253 -0.17909509 0.150671 0.3584449 0.24103086 0.15245958
-0.26213494 0.11227981 -0.13986894 0.017208003 -0.04345416 0.35905987 0.25182444 0.044516284
-0.36209255 0.3010596 0.25993702 0.13264391 -0.36889032 -0.25005144 0.19398332 -0.35086748
0.16297852 0.047890827 0.35197455 0.13616973 0.20252474 0.11518841 -0.17693593 -0.2089762
-0.3599945 -0.0645382 0.011034565 -0.117964715 0.09873823 0.2635846 0.03572714 -0.14136368
-0.32934022 -0.19425334 0.11641431 -0.35197774 -0.3755363 0.020535393 0.0096789375 -0.29716536
0.08924348 0.16532864 -0.2941918 -0.056120276 0.22396277 0.3371439 -0.26434973 -0.20314099
-0.21405828 -0.19240426 -0.24501893 0.29003292 -0.019151289 -0.2874685 -0.26783225 -0.321339
-0.35519415 0.021851368 0.04035839 0.21722235 0.3153129 0.26785755 0.32917222 -0.1433683
-0.2784722 -0.037333835 -0.08573674 -0.012213322 0.014495074 -0.21799195 -0.31891385 -0.16045322
0.06496649 0.19903313 -0.3389672 -0.33946097 -0.02163451 -0.14486393 -0.15405144 -0.36552742
0.16977458 -0.06364238 0.2981249 -0.24272238 -0.34343144 -0.004904486 0.089740545 0.2203169
-0.044691734 0.29034272 -0.20622848 -0.32016817 -0.1864635 -0.15101092 0.13094038 0.29895166
0.35905892 -0.17746726 -0.089328945 -0.06485102 0.14157836 -0.11022 -0.1342986 0.06564422
-0.24077547 0.3242072 -0.32866147 -0.33391052 -0.020462625 -0.26700827 -0.16469887 0.21827641
0.0017042313 -0.042928297 -0.35086262 -0.12342835 -0.12622656 0.2785163 0.14864096 -0.034632564
00000000: fcc0 b83e c29a 953e eda9 bf3e 9e84 e7bc
00000010: ea9d 9ebe d401 78be 4b1e c4bd d060 413d
00000020: 2567 01be c891 63be 95a5 0dbd bc3e 733e
00000030: a8e0 a13e 31aa 40be dae5 5dbe 11a1 8ebc
00000040: 515f 2a3e f040 2d3e 5e10 10be 8b0d 063e
00000050: 609b 83bd b6cb 39bd edee 9cbe e89f 8a3e
00000060: 8f77 88be 96ea c03d fbb3 41be 5825 a3be
00000070: eb08 a6bc a4d6 fa3d a990 b3be 6bd1 013d
00000080: b467 0ebe 9c05 6cbd 75d8 2fbe aede 40bd
00000090: 3815 ae3e 6e09 babe 851b 37be 3e75 a43e
000000a0: 0ef7 a2bc 10d2 a0bd 93b2 023e e1fd 23be
000000b0: 062a 1c3e 317a 6ebe ace3 e4bd 4617 913e
000000c0: 8633 fd3c a10f 99be c788 683e e49a 80be
000000d0: 67ce c7bc ec25 8fba 318d 2abe 5d38 2d3e
000000e0: 9e75 2abd be40 4f3e b571 403e 7663 99be
000000f0: 7943 8e3e adfc ae3b a2a2 963e 70d0 6d3e
00000100: cb03 e7bd 2746 a1bd d5d9 0fbe 84a1 33be
00000110: cbce 953e 1328 b73e 02ae 2d3e 744b ac3e
00000120: 7c16 053e d357 5e3d 127f 1dbe 4ba9 b43e
00000130: 104e 8bbe 4af7 8e3e ae52 55bd cf9d 18be
00000140: 4cc4 38bb e722 713e 38fe a8be bf7c 95be
00000150: 4aac 8dbd a3cd bfbe 125f 523d 5804 89be
00000160: 6cb2 adbe 6938 1dbe aa63 4fbe 8e90 90ba
00000170: 5e8f 813e 9e8c b7bd 2a70 9d3d ebeb 2f3e
00000180: b799 cf3d 328e c03c 78e5 703d 7e10 633e
00000190: 0a26 adbe 4d1e 1dbe 9137 ac3e c442 cabd
000001a0: 0ec9 7a3e e99a 9abe 97dd ac3d 620a 35bc
000001b0: d1c2 b5be 787a ad3d e32d 24bd e8d3 bbbe
000001c0: 09d6 f0bd d86f 9f3e 7e4a 9b3d 0b58 6cbe
000001d0: 53bd 47be 1298 30be 7891 48be 80fd 903d
000001e0: dfcf 2fbe 0ad7 8a3e ae70 4d3e 1624 8f3e
000001f0: 7d36 383c 7c84 b03e ad01 a2be cad0 50be
00000200: f345 5cbe 91dc 343e 9806 b8be b464 37be
00000210: 8049 1a3e 1786 b73e cbd0 763e 5d1e 1c3e
00000220: 8d36 86be f5f2 e53d ce39 0fbe ccf7 8c3c
00000230: fdfc 31bd b2d6 b73e 22ef 803e b556 363d
00000240: 3264 b9be 7c24 9a3e 7716 853e ced3 073e
00000250: 31df bcbe be06 80be 90a3 463e e7a4 b3be
00000260: d7e3 263e 2c29 443d 0236 b43e 1470 0b3e
00000270: a562 4f3e e7e7 eb3d b12e 35be dbfd 55be
00000280: 3351 b8be 9b2c 84bd 52ca 343c 7c97 f1bd
00000290: 4537 ca3d 90f4 863e 9f56 123d a4c1 10be
000002a0: 489f a8be 59ea 46be a06a ee3d 6d36 b4be
000002b0: 4b46 c0be d739 a83c 6894 1e3c 0f26 98be
000002c0: 49c5 b63d e94b 293e 4fa0 96be 60de 65bd
000002d0: 7f56 653e 209e ac3e d958 87be 3104 50be
000002e0: 1832 5bbe 9f05 45be 3ee6 7abe 327f 943e
000002f0: 2ae3 9cbc 122f 93be 4f21 89be 8c86 a4be
00000300: 02dc b5be a401 b33c d74e 253d 896f 5e3e
00000310: b170 a13e a024 893e 4389 a83e 24cf 12be
00000320: e893 8ebe 5deb 18bd be96 afbd 631a 48bc
00000330: bf7c 6d3c 4839 5fbe ad48 a3be d94d 24be
00000340: 270d 853d 57cf 4b3e 1c8d adbe d4cd adbe
00000350: db3a b1bc 3657 14be a9bf 1dbe 6926 bbbe
00000360: 63d9 2d3e f056 82bd d4a3 983e 378c 78be
00000370: 3fd6 afbe cfb5 a0bb e4c9 b73d c19a 613e
00000380: ae0e 37bd cda7 943e 8f2d 53be 15ed a3be
00000390: 4af0 3ebe 9ba2 1abe 3c15 063e 3110 993e
000003a0: 92d6 b73e fab9 35be 18f2 b6bd 9dd0 84bd
000003b0: ebf9 103e 06bb e1bd 9285 09be 7a70 863d
000003c0: d88d 76be 7cfe a53e 5146 a8be 52f6 aabe
000003d0: 3ca1 a7bc 4fb5 88be d2a6 28be da83 5f3e
000003e0: 8360 df3a 95d5 2fbd 44a4 b3be 01c8 fcbd
000003f0: 8941 01be b099 8e3e 5635 183e e0da 0dbd

conv1.conv.local_nn.0.0.bias f4 [64]
-0.08664552 -0.2702319 0.11423045 -0.3541549 -0.16031826 -0.26071733 0.13483222 0.120854884
0.3348348 -0.05767935 0.3118082 -0.25945142 -0.24440296 -0.27255335 0.012327391 -0.34226197
0.25621736 -0.29556495 0.16066588 -0.16592833 0.012282373 -0.10292948 0.17968954 0.35298103
-0.37258607 -0.324055 -0.031333767 0.013280379 0.3607905 0.17215562 -0.0032778876 -0.32516795
0.083433755 -0.14579314 0.14478004 -0.13430616 -0.02026478 0.26331264 0.33450007 -0.33260575
-0.2290943 -0.14535528 -0.010797915 0.26242432 0.22972505 -0.031653356 -0.2063816 0.3367366
-0.13252077 -0.16898644 0.17148404 0.20968881 0.11372606 -0.090202175 -0.1487474 -0.11020757
0.27728647 0.20953497 0.1646827 -0.036205273 0.18215351 0.049731888 -0.14517608 -0.14747615
00000000: 3573 b1bd d65b 8abe a7f1 e93d cb53 b5be
00000010: 782a 24be be7c 85be 7511 0a3e c482 f73d
00000020: 786f ab3e 2f41 6cbd 53a5 9f3e d1d6 84be
00000030: c544 7abe 1d8c 8bbe d3f8 493c f63c afbe
00000040: ec2e 833e 4a54 97be 9985 243e 1ee9 29be
00000050: 023c 493c b1cc d2bd 8900 383e eeb9 b43e
00000060: 9ac3 bebe 89ea a5be d657 00bd f295 593c
00000070: 88b9 b83e 9049 303e d4d1 56bb 6a7c a6be
00000080: 51df aa3d cc4a 15be 3841 143e 8e87 09be
00000090: 5302 a6bc ead0 863e 9843 ab3e 4d4b aabe
000000a0: b297 6abe 04d8 14be bde9 30bc 7b5c 863e
000000b0: 0b3d 6b3e f3a6 01bd b355 53be bd68 ac3e
000000c0: 86b3 07be c80a 2dbe 8399 2f3e aab8 563e
000000d0: 35e9 e83d ebbb b8bd 3d51 18be 82b4 e1bd
000000e0: 7ef8 8d3e 5690 563e 95a2 283e fb4b 14bd
000000f0: 7386 3a3e aab3 4b3d 0aa9 14be fd03 17be

conv1.conv.local_nn.0.2.weight f4 [64]
1.0039227 1.004589 1.0 1.0 1.0018235 1.0 0.99965423 1.0
0.9948291 0.9931199 0.9978478 0.99759537 1.0 1.003061 1.0029271 1.0
1.0 1.0021951 1.0 1.0015004 0.99673253 0.9942126 1.0021417 0.9943088
1.0 1.0 1.0 1.0 1.0041796 1.004966 1.0 1.0
1.0 0.99732506 1.0 1.0 1.0 1.0 1.0010263 1.0012617
1.0 1.0 1.0012797 1.0021242 0.9977805 1.0 0.9982481 1.0042713
1.0007 1.0 1.0 0.9929063 0.99680454 1.0010877 0.99512964 0.9939955
1.0 1.0 1.0 1.0 1.0 1.0012519 0.9993624 1.0
00000000: 8a80 803f 5f96 803f 0000 803f 0000 803f
00000010: c13b 803f 0000 803f 57e9 7f3f 0000 803f
00000020: 1fad 7e3f 1b3d 7e3f f472 7f3f 6962 7f3f
00000030: 0000 803f 4e64 803f ea5f 803f 0000 803f
00000040: 0000 803f ee47 803f 0000 803f 2a31 803f
00000050: dd29 7f3f b884 7e3f 2e46 803f 068b 7e3f
00000060: 0000 803f 0000 803f 0000 803f 0000 803f
00000070: f588 803f baa2 803f 0000 803f 0000 803f
00000080: 0000 803f b250 7f3f 0000 803f 0000 803f
00000090: 0000 803f 0000 803f a121 803f 5829 803f
000000a0: 0000 803f 0000 803f ef29 803f 9b45 803f
000000b0: 8b6e 7f3f 0000 803f 308d 7f3f f68b 803f
000000c0: f016 803f 0000 803f 0000 803f 1b2f 7e3f
000000d0: 952e 7f3f a423 803f d1c0 7e3f 7d76 7e3f
000000e0: 0000 803f 0000 803f 0000 803f 0000 803f
000000f0: 0000 803f 0629 803f 37d6 7f3f 0000 803f

conv1.conv.local_nn.0.2.bias f4 [64]
0.003704193 -0.0050061624 -0.0024667573 0.002381835 -0.0045253076 0.0047432333 -0.0025898742 -0.0037282268
-0.002403223 0.0044379067 -0.00014115614 -0.0012310941 -0.0024122347 0.004949083 -0.0024043643 0.0050159027
-0.0044317227 0.004470318 0.0030324971 -0.0052538207 -0.004403669 0.0071268263 0.0023805634 -0.004869548
0.0068123364 0.0020850229 -0.006744268 0.0056052934 -0.0042328476 -0.00057212415 -0.00521829 -0.0040676286
-0.0019342994 0.0030736576 -0.0024306201 0.0014997054 -0.0038846815 0.005333105 0.0035856003 0.00097646407
-0.0021707728 0.0008346366 -0.004128378 0.0061419136 0.0039305524 -0.004849003 -0.0030344063 0.00053052313
0.004871969 0.0025135186 0.0023698045 0.0035097413 0.00022648601 -0.0064186556 0.0020295992 0.0010809754
0.0032774692 0.0010654518 0.0032055445 0.001864606 -0.005788042 0.0022113395 -0.006209167 -0.0024936579
00000000: 0cc2 723b bc0a a4bb 52a9 21bb 8f18 1c3b
00000010: 0849 94bb 206d 9b3b e1ba 29bb 4455 74bb
00000020: 647f 1dbb dc6b 913b 5003 14b9 aa5c a1ba
00000030: 9516 1ebb eb2b a23b 8a92 1dbb 715c a43b
00000040: fc37 91bb bf7b 923b dcbc 463b 3e28 acbb
00000050: a74c 90bb 2788 e93b 3a03 1c3b bb90 9fbb
00000060: 053a df3b e1a4 083b 05ff dcbb 9cac b73b
00000070: b3b3 8abb 9afa 15ba 30fe aabb be49 85bb
00000080: 5188 fdba 6b6f 493b 0a4b 1fbb c391 c43a
00000090: 2496 7ebb 54c1 ae3b 64fc 6a3b 65f9 7f3a
000000a0: 8643 0ebb 84cb 5a3a 5847 87bb 1b42 c93b
000000b0: ddcb 803b 63e4 9ebb e4dc 46bb ce12 0b3a
000000c0: 0aa5 9f3b d8b9 243b b94e 1b3b b003 663b
000000d0: e07c 6d39 9653 d2bb 0603 053b 84af 8d3a
000000e0: cfca 563b a1a6 8b3a 1d14 523b cc65 f43a
000000f0: 9ea9 bdbb 1fec 103b 4576 cbbb a36c 23bb

conv1.conv.local_nn.0.2.running_mean f4 [64]
27.902073 3.298377 0.0 0.0 0.0043385676 0.0 7.822704 0.0
9.3794887e-07 16.807669 13.848234 21.624308 0.0 0.37881497 3.1828566 0.0
0.0 7.252654 0.0 25.251568 0.005373976 12.047808 28.461433 2.940713e-06
0.0 0.0 0.0 0.0 23.399136 1.924671e-06 0.0 0.0
0.0 22.442024 0.0 0.0 0.0 0.0 0.64167017 14.009445
0.0 0.0 19.399124 21.163824 24.073217 0.0 5.9638567 21.230986
3.1480231 0.0 0.0 13.079886 15.641469 17.10134 5.456577 16.925303
0.0 0.0 0.0 0.0 0.0 4.562254 5.808424 0.0
00000000: 7237 df41 9c18 5340 0000 0000 0000 0000
00000010: 8b2a 8e3b 0000 0000 9753 fa40 0000 0000
00000020: 5bc7 7b35 1b76 8641 5e92 5d41 95fe ac41
00000030: 0000 0000 09f4 c13e ecb3 4b40 0000 0000
00000040: 0000 0000 be15 e840 0000 0000 3603 ca41
00000050: 2e18 b03b d2c3 4041 04b1 e341 1159 4536
00000060: 0000 0000 0000 0000 0000 0000 0000 0000
00000070: 6e31 bb41 9929 0136 0000 0000 0000 0000
00000080: 0000 0000 4489 b341 0000 0000 0000 0000
00000090: 0000 0000 0000 0000 7f44 243f b026 6041
000000a0: 0000 0000 0000 0000 6831 9b41 834f a941
000000b0: f395 c041 0000 0000 ead7 be40 0fd9 a941
000000c0: 3679 4940 0000 0000 0000 0000 3747 5141
000000d0: 7543 7a41 8bcf 8841 479c ae40 0567 8741
000000e0: 0000 0000 0000 0000 0000 0000 0000 0000
000000f0: 0000 0000 fcfd 9140 9cde b940 0000 0000

conv1.conv.local_nn.0.2.running_var f4 [64]
1313.5376 21.250938 0.4304672 0.4304672 0.43208012 0.4304672 113.15889 0.4304672
0.4304676 488.94168 310.13654 795.6656 0.4304672 0.9765821 21.479313 0.4304672
0.4304672 87.325935 0.4304672 1115.5538 0.43548456 236.28964 1332.227 0.43046802
0.4304672 0.4304672 0.4304672 0.4304672 920.51843 0.43046758 0.4304672 0.4304672
0.4304672 861.59485 0.4304672 0.4304672 0.4304672 0.4304672 2.2381434 367.0763
0.4304672 0.4304672 620.6237 740.3648 923.3805 0.4304672 58.08582 723.80707
22.259726 0.4304672 0.4304672 297.36258 426.24792 486.76056 55.30244 516.2026
0.4304672 0.4304672 0.4304672 0.4304672 0.4304672 33.195778 62.98788 0.4304672
00000000: 3431 a444 ec01 aa41 3266 dc3e 3266 dc3e
00000010: 9b39 dd3e 3266 dc3e 5a51 e242 3266 dc3e
00000020: 4066 dc3e 8978 f443 7a11 9b43 99ea 4644
00000030: 3266 dc3e 4901 7a3f a2d5 ab41 3266 dc3e
00000040: 3266 dc3e e1a6 ae42 3266 dc3e b971 8b44
00000050: d5f7 de3e 264a 6c43 4487 a644 4e66 dc3e
00000060: 3266 dc3e 3266 dc3e 3266 dc3e 3266 dc3e
00000070: 2e21 6644 3f66 dc3e 3266 dc3e 3266 dc3e
00000080: 3266 dc3e 1266 5744 3266 dc3e 3266 dc3e
00000090: 3266 dc3e 3266 dc3e be3d 0f40 c489 b743
000000a0: 3266 dc3e 3266 dc3e eb27 1b44 5917 3944
000000b0: 5ad8 6644 3266 dc3e e157 6842 a7f3 3444
000000c0: eb13 b241 3266 dc3e 3266 dc3e 69ae 9443
000000d0: bc1f d543 5a61 f343 b335 5d42 f70c 0144
000000e0: 3266 dc3e 3266 dc3e 3266 dc3e 3266 dc3e
000000f0: 3266 dc3e 7ac8 0442 97f3 7b42 3266 dc3e

conv1.conv.local_nn.1.0.weight f4 [128, 64]
0.05698992 0.0027966702 0.09685976 0.08346398 0.06906638 -0.09655333 -0.11325803 0.05616087
-0.010401057 -0.12196173 -0.052283723 -0.05759663 -0.079206854 0.027686402 0.04223142 -0.074785054
-0.106107466 0.083754234 0.069283195 0.04036035 0.04343114 -0.017661871 -0.013458817 -0.03056795
-0.06161577 -0.09103754 0.07771008 -0.019976621 0.008272421 -0.10756919 0.005389936 9.915326e-06
-0.087710716 -0.10449739 -0.100506485 -0.117776684 0.10105224 -0.06112685 -0.03055781 0.08064544
0.033487495 0.013920882 0.0010488468 0.0021155702 0.0011550612 -0.045336924 0.013152399 0.05306314
-0.06418566 0.09537783 0.02792253 -0.03368831 0.050281167 0.047817316 0.049618926 -0.03043295
0.083900064 0.0013749518 0.08911485 -0.043190822 -0.04015841 0.05383997 0.01807215 0.04245456
-0.06470977 -0.012876217 0.11744998 -0.050211627 0.060267344 -0.11949584 0.061353594 0.08997006
-0.0026220025 -0.027191112 0.046887267 0.024237402 0.06274848 0.020216059 -0.10395483 -0.09382193
0.085547656 -0.0005739307 0.09584212 0.062125705 -0.07257432 -0.084993005 0.08379408 -0.044086233
0.07659768 -0.07859103 -0.022011109 0.018749718 -0.011081419 0.10209207 -0.011139868 0.028911695
0.09249173 -0.12385213 0.02536258 0.086933106 -0.020467745 0.020147242 0.07295775 0.044404984
-0.036605038 0.10159478 -0.06573993 0.08604889 0.1191899 0.084073894 0.03592447 -0.06478099
0.088349365 -0.0063880803 -0.09809462 0.071413904 0.013946075 0.08102792 -0.035633273 0.0078104315
0.03631805 -0.064525746 0.033276144 0.08689741 0.08554915 0.047551315 0.08274986 -0.036993872
-0.038644508 -0.014700253 0.11368366 -0.04313885 -0.075942814 0.06360147 0.005833142 -0.077585205
-0.09101119 0.098330304 0.035438333 0.11075171 -0.084942825 0.11631966 -0.020836575 -0.000461017
0.042968668 -0.06570213 -0.025843704 -0.028159745 0.070164286 -0.08468791 0.033259377 -0.09639186
-0.037936553 -0.040568486 -0.0574263 -0.04679369 0.036700252 -0.074030325 -0.044354796 -0.07190491
0.009637478 0.019460773 -0.060153473 0.0052801417 0.10317907 -0.005242193 -0.07686615 -0.11164353
0.101462066 0.045325365 0.09451959 0.08697196 -0.021161659 0.010269059 0.030283492 0.050014265
-0.037296288 -0.11877799 0.12354474 0.07191029 0.001276514 0.08768586 -0.03756804 -0.109252006
0.0071643195 -0.08463986 -0.07099945 0.09948887 -0.070658 0.068448156 0.09598524 -0.094233215
-0.029321648 -0.1253286 -0.09648904 0.025508357 0.059049264 0.076963335 0.025621932 0.11933892
-0.03113765 -0.097498894 -0.0028371555 -0.06270878 0.045140285 -0.08518091 -0.04894524 -0.021989172
-0.12015647 0.119985685 0.051747765 0.094478674 0.117600225 -0.0036275778 -0.0055150986 0.10728869
-0.02431914 -0.029860187 -0.0325947 -0.10858016 -0.043564603 -0.05124915 -0.046314687 -0.01975993
-0.075746 0.07077353 -0.06720905 0.027489955 0.08672507 -0.09824973 0.10539824 0.068518855
-0.097532 -0.11928423 0.004579278 -0.0253609 -0.008600548 0.009332782 0.01219346 0.062361315
-0.077736385 0.046528753 0.01871104 -0.08878294 0.00342888 -0.08129885 -0.0942008 -0.01710993
-0.12343724 0.10275264 0.11324157 -0.08863621 0.08873217 0.041428003 0.08186527 -0.03664359
00000000: 436e 693d 5748 373b 695e c63d 2aef aa3d
00000010: ad72 8d3d c1bd c5bd d3f3 e7bd f108 663d
00000020: 3269 2abc 12c7 f9bd 7527 56bd 72ea 6bbd
00000030: 3437 a2bd 98ce e23c dafa 2c3d e828 99bd
00000040: df4e d9bd 5787 ab3d 59e4 8d3d e550 253d
00000050: dae4 313d a1af 90bc 5f82 5cbc a369 fabc
00000060: d160 7cbd e471 babd 7626 9f3d 03a6 a3bc
00000070: 0c89 073c 3c4d dcbd 0f9e b03b 005a 2637
00000080: ada1 b3bd ba02 d6bd 58d6 cdbd e734 f1bd
00000090: 7af4 ce3d 2660 7abd 5f54 fabc 7029 a53d
000000a0: 2f2a 093d 6914 643c 7579 893a 61a5 0a3b
000000b0: 6c65 973a 36b3 39bd 297d 573c bc58 593d
000000c0: c573 83bd 7455 c33d cabd e43c c1fc 09bd
000000d0: a0f3 4d3d 17dc 433d 373d 4b3d 864e f9bc
000000e0: ccd3 ab3d ba37 b43a d981 b63d dce8 30bd
000000f0: 257d 24bd 4d87 5c3d 0c0c 943c d5e4 2d3d
00000100: 8e86 84bd c5f6 52bc 9d89 f03d b5aa 4dbd
00000110: e4da 763d 3cba f4bd e84d 7b3d 3942 b83d
00000120: e7d5 2bbb e5bf debc dd0c 403d 848d c63c
00000130: 4682 803d 269c a53c 45e6 d4bd b625 c0bd
00000140: 9c33 af3d d673 16ba e048 c43d 8677 7e3d
00000150: d8a1 94bd d010 aebd 3b9c ab3d c493 34bd
00000160: 3fdf 9c3d 55f4 a0bd a450 b4bc 0299 993c
00000170: d78e 35bc a615 d13d fe83 36bc 38d8 ec3c
00000180: 4e6c bd3d 2fa6 fdbd 2fc5 cf3c fc09 b23d
00000190: f9ab a7bc d40b a53c df6a 953d 00e2 353d
000001a0: 2aef 15bd ed10 d03d a8a2 86bd 673a b03d
000001b0: d619 f43d ef2e ac3d 8925 133d e5ab 84bd
000001c0: 83f0 b43d 1a53 d1bb d5e5 c8bd 7441 923d
000001d0: 147e 643c f7f1 a53d 32f4 11bd a6ee ff3b
000001e0: 3cc2 143d 1326 84bd 914c 083d 45f7 b13d
000001f0: 6534 af3d 2bc5 423d c278 a93d e386 17bd
00000200: b449 1ebd 54d9 70bc fbd2 e83d 5db2 30bd
00000210: e887 9bbd 7d41 823d f123 bf3b fee4 9ebd
00000220: 1364 babd 6661 c93d c927 113d cbd1 e23d
00000230: 81f6 adbd 0039 ee3d 77b1 aabc a8b4 f1b9
00000240: eaff 2f3d d78e 86bd 2db6 d3bc 44af e6bc
00000250: 4bb2 8f3d db70 adbd fc3a 083d 1869 c5bd
00000260: 5c63 1bbd 242b 26bd d737 6bbd beaa 3fbd
00000270: 0153 163d 369d 97bd 60ad 35bd e242 93bd
00000280: 83e6 1d3c 336c 9f3c 7d63 76bd 0a05 ad3b
00000290: 8c4f d33d b4c6 abbb 006c 9dbd 5da5 e4bd
000002a0: 58cb cf3d 17a7 393d 7d93 c13d 5b1e b23d
000002b0: 375b adbc 8e3f 283c 1615 f83c c2db 4c3d
000002c0: fec3 18bd e041 f3bd 0605 fd3d b445 933d
000002d0: b450 a73a a594 b33d f2e0 19bd 84bf dfbd
000002e0: abc2 ea3b aa57 adbd 2968 91bd d2c0 cb3d
000002f0: 24b5 90bd 8c2e 8c3d e993 c43d 58fd c0bd
00000300: f433 f0bc 2456 00be 0c9c c5bd e7f6 d03c
00000310: a4dd 713d f49e 9d3d 16e5 d13c f767 f43d
00000320: 6314 ffbc 80ad c7bd 92ef 39bb 766d 80bd
00000330: 05e5 383d 5473 aebd ce7a 48bd a322 b4bc
00000340: 9814 f6bd 0ebb f53d 77f5 533d 097e c13d
00000350: 63d8 f03d a8bc 6dbb 00b8 b4bb 2cba db3d
00000360: ef38 c7bc 5a9d f4bc 0582 05bd 465f debd
00000370: cc70 32bd a1ea 51bd 78b4 3dbd 94df a1bc
00000380: b820 9bbd b6f1 903d e6a4 89bd 9d32 e13c
00000390: ea9c b13d 2837 c9bd 08db d73d 9d53 8c3d
000003a0: dbbe c7bd 4a4b f4bd c50d 963b aac1 cfbc
000003b0: 50e9 0cbc 86e8 183c 14c7 473c 946e 7f3d
000003c0: 4134 9fbd ef94 3e3d e547 993c d4d3 b5bd
000003d0: 0fb7 603b 0380 a6bd 59ec c0bd 202a 8cbc
000003e0: aacc fcbd fa6f d23d 32eb e73d e786 b5bd
000003f0: 36b9 b53d 69b0 293d fba8 a73d 9717 16bd

conv1.conv.local_nn.1.0.bias f4 [128]
-0.03934856 0.009692557 0.04195835 0.12871389 0.11346844 -0.07860817 -0.10327652 -0.053898122
-0.037418514 -0.06786915 -0.1123019 0.04754659 0.0036516127 -0.088227384 0.07955407 -0.054883003
0.017684331 0.091696054 0.069501914 -0.086267196 0.07021207 0.12295012 0.038228884 0.09085439
0.073336706 0.049290154 0.09821949 -0.09715767 0.085570425 0.10576529 0.053711012 0.09075485
0.08748397 -0.03616258 0.07899796 -0.11654041 0.09694527 0.02782075 0.103883386 0.016041081
0.031381752 0.0568166 -0.07674734 0.055265848 0.104973175 -0.061828014 0.07875589 0.09252825
0.11748669 0.114280604 -0.0632374 0.021759892 -0.0984383 0.12695286 -0.07932819 -0.027214784
0.0023005996 0.056138374 0.045831554 0.09021471 0.028267128 0.023993395 -0.0906926 -0.03733251
0.05376825 -0.08189291 -0.033524543 -0.0043013724 -0.09614345 0.11506596 -0.068247564 -0.02361604
0.084483765 -0.10447156 0.0020828687 -0.0058959876 0.01969469 -0.010760417 0.07663146 0.1176313
0.1206127 0.041440748 0.085995026 -0.09556769 0.010087328 0.06779757 0.07621786 0.04691609
-0.10318778 0.118446186 -0.0027674786 0.10495931 -0.006620793 -0.08680988 0.022436682 -0.022823445
-0.036161143 0.0800507 -0.00033381634 0.10264135 -0.11929051 -0.12365726 -0.013376523 -0.0025617522
0.04569484 0.0065513477 0.06816035 -0.032840144 0.05853217 0.05003101 0.0025715511 0.03275719
-0.10969671 -0.0019717647 0.10261868 0.06589384 -0.110732175 0.039524827 -0.055693697 0.086301215
0.07277535 0.070618145 0.06946318 0.014960012 -0.0058501987 -0.0937632 -0.107602425 0.10380623
00000000: f52b 21bd 88cd 1e3c 85dc 2b3d 93cd 033e
00000010: 2462 e83d 52fd a0bd a482 d3bd 47c4 5cbd
00000020: 2844 19bd fbfe 8abd 8afe e5bd 37c0 423d
00000030: e54f 6f3b 8fb0 b4bd 3fed a23d 00cd 60bd
00000040: bbde 903c 24cb bb3d 0557 8e3d dbac b0bd
00000050: 59cb 8f3d 46cd fb3d e495 1c3d de11 ba3d
00000060: 8e31 963d 79e4 493d 4d27 c93d 9afa c6bd
00000070: 8c3f af3d 799b d83d 1400 5c3d aedd b93d
00000080: cc2a b33d 371f 14bd afc9 a13d bdac eebd
00000090: 3e8b c63d 57e8 e33c d0c0 d43d 9668 833c
000000a0: 278a 003d 86b8 683d b62d 9dbd 715e 623d
000000b0: 2dfc d63d 5f3f 7dbd c54a a13d 737f bd3d
000000c0: dd9c f03d f30b ea3d 9c82 81bd cd41 b23c
000000d0: 059a c9bd eeff 013e d176 a2bd 8af1 debc
000000e0: a8c5 163b 5af1 653d deb9 3b3d 7dc2 b83d
000000f0: 7790 e73c cc8d c43c 0bbd b9bd f9e9 18bd
00000100: 193c 5c3d 78b7 a7bd 0851 09bd 87f2 8cbb
00000110: dbe6 c4bd b4a7 eb3d 61c5 8bbd 6d76 c1bc
00000120: d305 ad3d 2ff5 d5bd bd80 083b 2133 c1bb
00000130: c256 a13c 764c 30bc f4f0 9c3d aee8 f03d
00000140: cb03 f73d c6bd 293d 291e b03d feb8 c3bd
00000150: 5245 253c 74d9 8a3d 1c18 9c3d 162b 403d
00000160: 1d54 d3bd ea93 f23d 965e 35bb e8f4 d63d
00000170: 3df3 d8bb 61c9 b1bd 22cd b73c 3cf8 babc
00000180: b51d 14bd 9ff1 a33d 1204 afb9 a135 d23d
00000190: 954e f4bd 0440 fdbd 3429 5bbc 12e3 27bb
000001a0: 832a 3b3d b0ac d63b a797 8b3d 6383 06bd
000001b0: 6ebf 6f3d 51ed 4c3d 7887 283b 672c 063d
000001c0: aba8 e0bd b938 01bb be29 d23d 59f3 863d
000001d0: 8dc7 e2bd c9e4 213d 131f 64bd b1be b03d
000001e0: 3e0b 953d 3fa0 903d b642 8e3d d71a 753c
000001f0: 06b3 bfbb ec06 c0bd a95e dcbd 5c98 d43d

conv1.conv.local_nn.1.2.weight f4 [128]
0.9975294 0.99497867 0.9944814 0.99515295 1.0018162 1.0045347 1.0007323 0.9991171
1.0043888 0.9994394 0.9987057 1.0011381 0.9945557 0.99387753 1.0012212 0.9980295
0.99862206 1.0027431 1.001225 0.9986969 1.0045893 0.99472433 0.9958472 1.003674
0.9955522 1.003182 1.0020992 1.0070572 0.9953139 1.0025615 0.998843 0.99993896
1.0047113 0.99641705 1.0040927 1.0053581 1.0064157 1.0056396 1.0035869 1.0040563
1.0006386 1.0025952 1.0045171 0.99958897 1.0053368 0.9997662 1.0033336 0.99488866
0.99513716 1.002028 0.99538755 0.9948022 0.99504 0.9951154 1.0031977 1.0025351
1.0016447 0.99939036 1.0029494 1.0017715 1.0017389 1.0043383 1.0010659 1.006604
0.99743557 0.9974997 1.0057278 0.99828005 0.9987289 0.99641854 0.99579996 1.0040174
1.0046026 0.9967484 0.9963891 0.99689883 0.99869186 1.0028356 1.0041634 1.0061337
1.003289 0.9961767 1.0053961 0.9935882 1.0039598 0.9947616 1.0026098 1.0024006
1.0030221 0.9961964 1.000708 0.9977393 1.0044744 0.99434006 0.9988524 0.99412477
0.9982481 0.9999713 1.0014178 1.0053635 0.99790746 1.0016855 1.0017393 0.99604076
0.99493754 1.0010226 0.99802315 0.993954 1.0019838 0.996498 0.9961682 0.99663293
1.004648 1.0031812 0.99809563 1.0040005 1.0047544 1.0033811 0.9949401 0.99374956
1.0059725 1.0023787 0.9976244 0.9975366 1.0029173 0.9987976 1.0015055 1.0019714
00000000: 165e 7f3f ecb6 7e3f 5596 7e3f 58c2 7e3f
00000010: 833b 803f 9894 803f ff17 803f 23c6 7f3f
00000020: d08f 803f 43db 7f3f 2dab 7f3f 4b25 803f
00000030: 349b 7e3f c26e 7e3f 0428 803f dc7e 7f3f
00000040: b2a5 7f3f e359 803f 2428 803f 9aaa 7f3f
00000050: 6296 803f 41a6 7e3f d8ef 7e3f 6478 803f
00000060: 82dc 7e3f 4568 803f c944 803f 40e7 803f
00000070: e4cc 7e3f ef53 803f 2db4 7f3f 00fc 7f3f
00000080: 619a 803f 3015 7f3f 1c86 803f 93af 803f
00000090: 3bd2 803f ccb8 803f 8975 803f eb84 803f
000000a0: ed14 803f 0a55 803f 0494 803f 10e5 7f3f
000000b0: e0ae 803f adf0 7f3f 3c6d 803f 06b1 7e3f
000000c0: 4fc1 7e3f 7442 803f b8d1 7e3f 5bab 7e3f
000000d0: f1ba 7e3f e2bf 7e3f c868 803f 1253 803f
000000e0: e535 803f 0cd8 7f3f a560 803f 0c3a 803f
000000f0: fb38 803f 288e 803f ed22 803f 66d8 803f
00000100: f057 7f3f 245c 7f3f b0bb 803f 488f 7f3f
00000110: b2ac 7f3f 4915 7f3f bfec 7e3f a483 803f
00000120: d196 803f e72a 7f3f 5b13 7f3f c334 7f3f
00000130: 45aa 7f3f eb5c 803f 6d88 803f fdc8 803f
00000140: c66b 803f 7005 7f3f d2b0 803f cc5b 7e3f
00000150: c181 803f b2a8 7e3f 8555 803f aa4e 803f
00000160: 0763 803f ba06 7f3f 3317 803f d86b 7f3f
00000170: 9e92 803f 128d 7e3f cab4 7f3f f67e 7e3f
00000180: 308d 7f3f 1efe 7f3f 752e 803f c0af 803f
00000190: dd76 7f3f 3b37 803f fe38 803f 87fc 7e3f
000001a0: 3ab4 7e3f 8221 803f 727e 7f3f c573 7e3f
000001b0: 0141 803f 7e1a 7f3f e104 7f3f 5623 7f3f
000001c0: 4e98 803f 3e68 803f 3283 7f3f 1783 803f
000001d0: cb9b 803f cb6e 803f 65b4 7e3f 5f66 7e3f
000001e0: b5c3 803f f24d 803f 5064 7f3f 8f5e 7f3f
000001f0: 985f 803f 33b1 7f3f 5531 803f 9940 803f

conv1.conv.local_nn.1.2.bias f4 [128]
0.0064872163 0.0014328059 -0.004479519 0.0031652472 0.001850192 0.0016236253 -0.0008717311 -0.0053016567
0.004123862 -0.0008361753 0.0013751587 0.004957575 -0.004909578 -0.0054528276 0.0017297522 -0.004258111
-0.0046190294 0.00083306525 -0.0042131804 0.004641792 -0.003159292 0.00258836 0.004570756 0.00085332984
-0.004417493 -0.004442392 0.0033854297 0.0010848723 -0.006198949 0.003886254 -0.0046209437 -0.0022744827
0.0057701753 -0.0033097942 0.0011751512 0.004725394 0.004083773 0.0060755024 -0.00659761 -0.0012995766
-0.004202184 0.005634008 0.0051734373 -0.0028241177 0.0058141868 -0.0040171286 -0.0015022845 -0.0036322833
-0.004749269 -0.0028129746 -0.004749672 -0.0058464184 -0.0036875268 -0.004134535 -0.002344757 0.005092955
-0.0025779854 0.0028203093 -0.0006273826 -0.00027910594 -0.004934434 0.0030300834 -0.004547203 0.0053398167
-0.0043561417 0.003589948 0.004989978 -0.0058738748 -0.0021101695 -0.0038407568 0.0031627335 0.004772007
-0.000559543 0.0024838184 -0.0012785604 -0.004399669 0.003959949 0.0022968492 0.0024218105 -0.00061681296
0.0053820233 -0.0036858658 -0.00601633 -0.0054118736 -0.0018226545 -0.00616015 0.0014143359 0.0011817219
0.003270795 0.0017720421 -0.0046343873 -0.00030698045 0.005840427 -0.0058258353 -0.004795773 -0.0041515427
-0.0054884576 0.0041252687 -0.0019460224 -0.0027667012 0.0010923268 -0.0005352701 0.0039822333 0.0032998174
0.0034792535 -0.0027115196 -0.0057357303 -0.005277614 0.0031841719 -0.0037340072 -0.0037348457 -0.002998348
-0.004020814 0.0051024547 0.0043456014 -0.0012095064 -0.0038709783 0.004764525 -0.0049290275 0.0017034507
-0.003225726 0.0026709174 -0.006553503 -0.0038941407 0.004868367 -0.005120308 -0.006455191 -0.0031454759
00000000: b792 d43b fdcc bb3a eec8 92bb 0970 4f3b
00000010: 2482 f23a d3cf d43a e284 64ba 85b9 adbb
00000020: 7621 873b c632 5bba ab3e b43a 2773 a23b
00000030: 86e0 a0bb a2ad b2bb dab8 e23a a087 8bbb
00000040: 3a5b 97bb 1062 5a3a b80e 8abb 2c1a 983b
00000050: 200c 4fbb 7aa1 293b 48c6 953b ffb1 5f3a
00000060: 9ec0 90bb 7c91 91bb 16de 5d3b 4632 8e3a
00000070: 8e20 cbbb 86b0 7e3b 496b 97bb 7d0f 15bb
00000080: bd13 bd3b 22e9 58bb 8807 9a3a 7ad7 9a3b
00000090: 2cd1 853b 0215 c73b c430 d8bb 8e56 aaba
000000a0: 79b2 89bb 7c9d b83b f085 a93b d514 39bb
000000b0: ef84 be3b 1ea2 83bb 4ee8 c4ba 9a0b 6ebb
000000c0: c29f 9bbb e259 38bb 23a3 9bbb 5093 bfbb
000000d0: 6faa 71bb fe7a 87bb 7faa 19bb cee2 a63b
000000e0: 6bf3 28bb f0d4 383b ef76 24ba f754 92b9
000000f0: 08b1 a1bb 5d94 463b b400 95bb a1f9 ae3b
00000100: f7bd 8ebb 5545 6b3b f882 a33b a279 c0bb
00000110: c54a 0abb 35b5 7bbb dd45 4f3b 7f5e 9c3b
00000120: 4cae 12ba 8fc7 223b 5e95 a7ba 192b 90bb
00000130: 76c2 813b bc86 163b 3db7 1e3b 9eb1 21ba
00000140: af5b b03b 918e 71bb a224 c5bb 1656 b1bb
00000150: 23e6 eeba 15db c9bb 3d61 b93a 02e4 9a3a
00000160: d65a 563b de43 e83a 0fdc 97bb 38f2 a0b9
00000170: 0d61 bf3b a6e6 bebb dc25 9dbb aa09 88bb
00000180: 85d8 b3bb 432d 873b ad11 ffba 8b51 35bb
00000190: 682c 8f3a 5e51 0cba 657d 823b c041 583b
000001a0: 3004 643b c0b3 31bb cbf2 bbbb d6ef acbb
000001b0: 8aad 503b 3fb6 74bb 50c4 74bb ef7f 44bb
000001c0: 08c1 83bb 7e32 a73b 8c65 8e3b 4d88 9eba
000001d0: 3db0 7dbb bc1f 9c3b ae83 a1bb 5246 df3a
000001e0: b466 53bb 8f0a 2f3b c5be d6bb d734 7fbb
000001f0: d386 9f3b 42c8 a7bb 1186 d3bb 5424 4ebb

conv1.conv.local_nn.1.2.running_mean f4 [128]
0.011203553 0.084129475 0.07846323 0.09139346 0.14373979 0.088008806 0.0038088 0.005232251
0.051246826 0.070343435 0.0288985 0.05166278 0.016998354 0.0719951 0.05729888 0.028401423
0.02507166 0.07451963 0.060798936 0.03173805 0.05562289 0.07519419 0.072218664 0.19547538
0.05725412 0.033861395 0.1284499 0.012192574 0.15142772 0.06639923 0.10306757 0.08034116
0.15526013 0.027990956 0.059929334 0.001179901 0.086842254 0.030014921 0.088998206 0.04751169
0.09595008 0.058093194 0.083290234 0.07496408 0.09465737 0.03276026 0.08092389 0.073259205
0.112827174 0.13050683 0.121683575 0.07436648 0.10697389 0.07291044 0.0835882 0.058931064
0.10318887 0.058556505 0.07245333 0.07585841 0.029111408 0.05448555 0.010619866 0.05316673
0.09593195 0.107959606 0.016339155 0.050169926 0.041285645 0.07496136 0.04255564 0.10133867
0.060562156 0.055301294 0.026196014 0.06645537 0.043605477 0.1528836 0.051920895 0.10500017
0.073845245 0.08053403 0.119034186 0.008493205 0.028566329 0.08303555 0.06640798 0.117851354
0.071043305 0.099964686 0.030915082 0.072076626 0.11270726 0.07843705 0.10614201 0.057004847
0.015850667 0.14177302 0.024105895 0.06483639 0.077117264 0.019395785 0.0109107755 0.016808163
0.07100197 0.10646797 0.04335164 0.052143943 0.22536072 0.14237602 0.01987832 0.04803971
0.0071875267 0.118141234 0.08512962 0.14188346 0.00019915498 0.0881351 0.068498835 0.0730884
0.050495937 0.12441276 0.05148829 0.14895219 0.017281914 0.11170904 0.016172584 0.16421282
00000000: 1b8f 373c 134c ac3d 54b1 a03d 7f2c bb3d
00000010: 8630 133e f63d b43d 0f9d 793b 4d73 ab3b
00000020: 31e8 513d 3810 903d 8cbc ec3c 5a9c 533d
00000030: 2240 8b3c 2b72 933d 3bb2 6a3d 1aaa e83c
00000040: 1563 cd3c bf9d 983d 4e08 793d c2ff 013d
00000050: d4d4 633d 69ff 993d 61e7 933d b32a 483e
00000060: 4c83 6a3d 3fb2 0a3d 5f88 033e 5dc3 473c
00000070: de0f 1b3e 52fc 873d 1715 d33d e889 a43d
00000080: 83fc 1e3e 4a4d e53c 7678 753d e8a6 9a3a
00000090: 5ada b13d dae1 f53c b144 b63d 9e9b 423d
000000a0: 7a81 c43d 21f3 6d3d 1294 aa3d c486 993d
000000b0: b9db c13d 9f2f 063d 6dbb a53d ec08 963d
000000c0: ef11 e73d 95a3 053e 3d35 f93d 744d 983d
000000d0: 2015 db3d 1252 953d 4a30 ab3d b361 713d
000000e0: b054 d33d f2d8 6f3d 6962 943d a75b 9b3d
000000f0: 0c7b ee3c 3d2c 5f3d f2fe 2d3c 5bc5 593d
00000100: f877 c43d ed19 dd3d b1d9 853c fb7e 4d3d
00000110: 231b 293d 5785 993d d34e 2e3d a68a cf3d
00000120: 0610 783d 9c83 623d 0699 d63c c119 883d
00000130: a89b 323d 858d 1c3e 01ab 543d 540a d73d
00000140: 2d3c 973d 07ef a43d 32c8 f33d 1527 0b3c
00000150: ef03 ea3c 8b0e aa3d e800 883d 0d5c f13d
00000160: 277f 913d 49ba cc3d a041 fd3c e99c 933d
00000170: 10d3 e63d 9ba3 a03d fb60 d93d ea7d 693d
00000180: 42d9 813c f22c 113e ba79 c53c f1c8 843d
00000190: a8ef 9d3d e9e3 9e3c 1cc3 323c 46b1 893c
000001a0: 7b69 913d e10b da3d 7d91 313d e394 553d
000001b0: f6c4 663e 05cb 113e dcd7 a23c 49c5 443d
000001c0: 5885 eb3b 08f4 f13d 7058 ae3d e649 113e
000001d0: 42d4 5039 2d80 b43d 1e49 8c3d 5faf 953d
000001e0: d4d4 4e3d 1ecc fe3d 63e5 523d ec86 183e
000001f0: cd92 8d3c b6c7 e43d 5e7c 843c 6827 283e

conv1.conv.local_nn.1.2.running_var f4 [128]
0.4342246 0.52087045 0.5010311 0.4481088 0.45003963 0.4429297 0.43137234 0.4320996
0.4359682 0.51018953 0.44020227 0.453597 0.43988255 0.44202128 0.43911767 0.44397235
0.4374407 0.43758968 0.44004914 0.44909775 0.44692302 0.44047254 0.48802987 0.47274902
0.4384778 0.43874362 0.45371497 0.4378757 0.45713466 0.43682814 0.5432454 0.43666118
0.6977994 0.44516066 0.45862547 0.43120465 0.49218562 0.43978885 0.4961612 0.45983428
0.537041 0.45991224 0.44245636 0.48542416 0.4376622 0.44878846 0.48822564 0.4438115
0.44349647 0.4467607 0.45543683 0.49485177 0.45455205 0.4415893 0.5410778 0.4826805
0.5637604 0.43386215 0.44009843 0.46408626 0.4395442 0.4404228 0.43397468 0.44025144
0.5308319 0.6049067 0.43152845 0.4426745 0.46276438 0.43428802 0.4608404 0.56736803
0.43550494 0.4848418 0.44080588 0.43873438 0.45069912 0.463345 0.44334775 0.5242849
0.43937612 0.43824813 0.58835244 0.43088815 0.44111988 0.43826395 0.43925607 0.44645473
0.43983355 0.5060528 0.4440089 0.45075372 0.45250082 0.44214195 0.56350034 0.47674286
0.44091126 0.46130568 0.43283823 0.43782404 0.53076756 0.43442118 0.43156883 0.43303394
0.47945818 0.45099145 0.4346984 0.4448392 0.4928218 0.45376825 0.43122265 0.4479683
0.4350267 0.44988787 0.43813774 0.66401976 0.43112433 0.5145421 0.43829125 0.43754742
0.43577823 0.46205336 0.44382498 0.46526632 0.432078 0.62364435 0.44047028 0.45888865
00000000: b052 de3e c457 053f 9343 003f 846e e53e
00000010: 986b e63e aec7 e23e d6dc dc3e 293c dd3e
00000020: 3937 df3e c89b 023f 3162 e13e de3d e83e
00000030: 4938 e13e 9d50 e23e 08d4 e03e 5850 e33e
00000040: 3af8 df3e c10b e03e 1f4e e13e 24f0 e53e
00000050: 18d3 e43e 9e85 e13e 0ddf f93e 290c f23e
00000060: 2a80 e03e 01a3 e03e 544d e83e 3e31 e03e
00000070: 8e0d ea3e f0a7 df3e 2112 0b3f 0e92 df3e
00000080: fba2 323f 19ec e33e f5d0 ea3e dbc6 dc3e
00000090: c1ff fb3e 012c e13e d708 fe3e 666f eb3e
000000a0: 857b 093f 9e79 eb3e a489 e23e 8489 f83e
000000b0: 4315 e03e 9ac7 e53e b6f8 f93e 433b e33e
000000c0: f811 e33e d2bd e43e 042f e93e 365d fd3e
000000d0: 0cbb e83e fe17 e23e 1384 0a3f e621 f73e
000000e0: 9a52 103f 2e23 de3e 9554 e13e b79c ed3e
000000f0: f00b e13e 197f e13e ee31 de3e a368 e13e
00000100: 99e4 073f 2adb 1a3f 4cf1 dc3e 3ba6 e23e
00000110: 74ef ec3e 005b de3e 46f3 eb3e 083f 113f
00000120: 81fa de3e 2f3d f83e 4fb1 e13e cba1 e03e
00000130: 09c2 e63e 8e3b ed3e 7afe e23e 8937 063f
00000140: e8f5 e03e 0f62 e03e 449e 163f 5f9d dc3e
00000150: 77da e13e 2264 e03e 2ce6 e03e b795 e43e
00000160: dd31 e13e ad8c 013f 2255 e33e 31c9 e63e
00000170: 30ae e73e 6e60 e23e 8f41 103f a417 f43e
00000180: 1fbf e13e 4230 ec3e f99c dd3e 792a e03e
00000190: 62e0 073f 746c de3e 97f6 dc3e a0b6 dd3e
000001a0: 8b7b f53e 5ae8 e63e ca90 de3e f7c1 e33e
000001b0: 2453 fc3e 5054 e83e 37c9 dc3e 1a5c e53e
000001c0: d2bb de3e b457 e63e 9753 e03e 33fd 293f
000001d0: 54bc dc3e 08b9 033f b667 e03e 3706 e03e
000001e0: 531e df3e 4292 ec3e 073d e33e 6337 ee3e
000001f0: 5439 dd3e 28a7 1f3f 5285 e13e 74f3 ea3e

pool.net.0.0.weight f4 [128, 131]
0.0049874363 -0.071643315 -0.015515738 0.033263784 -0.07390917 0.07309293 -0.011307792 -0.0319849
-0.020490894 0.055694807 0.041908387 -0.0049878107 -0.011011924 -0.0013873428 -0.03016563 -0.028739035
0.025425795 -0.024822077 0.044749323 -0.04081291 -0.00025827496 -0.0482442 -0.008836049 -0.030477758
-0.005139382 -0.04968834 -0.052937508 0.018526977 -0.008393673 0.056309573 -0.042362705 0.025220895
0.04829622 -0.028007163 -0.041225955 0.01660691 0.088249825 0.039031185 -0.062403806 0.037449263
-0.025068803 0.080837026 0.028063327 0.092132345 -0.039296746 -0.032320242 -0.0008294258 0.04100573
0.078133345 -0.034321047 -0.038864795 -0.051165123 -0.014383157 0.0777601 0.0043432284 0.09270943
-0.02272545 0.077052176 -0.01597712 0.058414772 -0.06373694 -0.084691435 0.0032058994 -0.026570735
0.0025992854 0.08554308 -0.038916145 0.03836924 0.028493373 -0.08807939 -0.044320453 -0.052567877
0.0023873742 0.022817468 -0.07190968 0.019762056 -0.0028511572 -0.05715904 0.08959657 -0.020227693
-0.034266166 -0.087553956 0.054707207 0.011813616 0.027209792 0.01931838 -0.057658117 -0.05080072
0.041839678 -0.009345755 -0.013195889 0.0910027 0.061503623 0.022313254 -0.021670308 -0.027071439
-0.022539696 0.018367426 0.027313804 0.042196598 -0.033933174 -0.047360964 -0.00401172 -0.011088723
-0.0560596 0.0007406135 0.0686492 -0.07948787 -0.050710388 0.01612845 0.08273603 -0.021304237
-0.050714567 0.065463975 0.028236272 0.056232803 -0.016484985 0.06511369 0.03361053 -0.077255525
-0.06581401 -0.041851927 -0.07545254 -0.00060130045 -0.0062438 -0.009772061 -0.030735003 -0.046402633
-0.027042761 0.0740063 0.03489415 0.039458822 0.054363046 -0.0072334586 0.058892895 -0.02694173
0.0055406285 -0.07771559 0.01568506 0.06354855 0.062348112 -0.0007373224 0.014359168 0.0075046746
-0.077908 0.0034165815 0.032138824 0.010951575 0.010439286 0.07424319 -0.08242988 0.07076508
0.08424856 0.08975927 -0.0069757537 0.04751019 0.03340691 0.0025669725 0.0045546438 -0.07702397
-0.034663398 -0.035847332 -0.055876415 0.04288741 0.019455142 -0.00989052 -0.015784351 0.044850215
-0.07776519 -0.06837475 0.020984221 -0.045989193 0.03342227 -0.07140286 0.08757231 0.06575019
0.0050339894 -0.003742889 0.07542267 0.029189168 0.020887012 -0.0069729495 0.028711727 0.023268811
0.08268547 -0.022186274 0.024436167 0.040220153 0.07787266 0.059709143 -0.03543053 -0.0030761494
-0.008552942 -0.024238076 0.04233641 0.034934223 -0.037427038 0.0013687385 -0.033352677 0.08514592
0.006507911 -0.044089857 0.0810875 -0.004452917 -0.0075828424 0.017826457 -0.025702788 0.034103412
-0.023290575 0.05182611 0.06949916 -0.039870735 0.08295604 0.014728836 0.004074135 -0.020543972
0.05983703 0.029098313 -0.039743125 -0.024107832 -0.039358985 0.07265515 -0.037963975 0.07794093
-0.034833815 0.0044847103 0.038538568 -0.027763382 -0.07969728 -0.015260142 0.07269237 -0.038912993
0.034400858 -0.012949328 0.016123774 -0.06837927 -0.06969245 -0.03585697 -0.07674202 0.054482106
-0.01912182 -0.028007867 -0.07405916 0.073274344 -0.07892502 -0.044303574 0.027373549 0.06450063
0.08134715 0.006637104 0.0046528904 0.002495142 0.044814155 -0.04082841 0.064184785 0.046548806
00000000: a66d a33b bbb9 92bd b935 7ebc 9b3f 083d
00000010: b15d 97bd bfb1 953d 5144 39bc 9902 03bd
00000020: 85dc a7bc 3d20 643d 21a8 2b3d ca70 a3bb
00000030: 5b6b 34bc 80d7 b5ba e91d f7bc 206e ebbc
00000040: c249 d03c ab57 cbbc 114b 373d 702b 27bd
00000050: 1469 87b9 b69b 45bd 13c5 10bc 7eac f9bc
00000060: 4368 a8bb 0086 4bbd 00d5 58bd e3c5 973c
00000070: 9e85 09bc dea4 663d 8484 2dbd 0d9c ce3c
00000080: 42d2 453d 476f e5bc 8cdc 28bd 370b 883c
00000090: 53bc b43d 2adf 1f3d 229b 7fbd 6664 193d
000000a0: 175d cdbc e28d a53d 10e5 e53c e2af bc3d
000000b0: a0f5 20bd 3b62 04bd d36d 59ba a0f5 273d
000000c0: 6004 a03d 3a94 0cbd b130 1fbd 8592 51bd
000000d0: 55a7 6bbc b040 9f3d a451 8e3b 71de bd3d
000000e0: b92a babc 88cd 9d3d 73e2 82bc 5444 6f3d
000000f0: 8388 82bd b472 adbd 111a 523b dfaa d9bc
00000100: c658 2a3b 3631 af3d 8966 1fbd 1029 1d3d
00000110: ef6a e93c f862 b4bd 5d89 35bd 6a51 57bd
00000120: 7e75 1c3b b3eb ba3c 6245 93bd 09e4 a13c
00000130: 7bda 3abb 991f 6abd 687e b73d 8cb4 a5bc
00000140: ae5a 0cbd 7d4f b3bd aa14 603d e68d 413c
00000150: 12e7 de3c 9441 9e3c eb2a 6cbd 6a14 50bd
00000160: 1560 2b3d f01e 19bc 9233 58bc a05f ba3d
00000170: 39eb 7b3d 49ca b63c ee85 b1bc ecc4 ddbc
00000180: 2ba5 b8bc 4977 963c 33c1 df3c 57d6 2c3d
00000190: 83fd 0abd 92fd 41bd bf74 83bb 7aad 35bc
000001a0: c09e 65bd bb25 423a f497 8c3d 89ca a2bd
000001b0: b2b5 4fbd d01f 843c 8271 a93d 3986 aebc
000001c0: 14ba 4fbd fa11 863d c14f e73c 5e54 663d
000001d0: 850b 87bc 545a 853d 32ab 093d 2538 9ebd
000001e0: 7fc9 86bd ed6c 2bbd dc86 9abd 97a0 1dba
000001f0: ca98 ccbb ff1a 20bc f9c7 fbbc b010 3ebd
00000200: c888 ddbc 9d90 973d 2bed 0e3d 939f 213d
00000210: c9ab 5e3d a606 edbb ad39 713d e7b4 dcbc
00000220: 298e b53b 5a29 9fbd f47d 803c be25 823d
00000230: bc60 7f3d de48 41ba b742 6b3c c6e9 f53b
00000240: 3b8e 9fbd bae8 5f3b 00a4 033d 3c6e 333c
00000250: 8a09 2b3c d00c 983d ffd0 a8bd 48ed 903d
00000260: 828a ac3d b5d3 b73d dd94 e4bb 0c9a 423d
00000270: afd5 083d a73a 283b 1f3f 953b bebe 9dbd
00000280: 35fb 0dbd a7d4 12bd abde 64bd b5aa 2f3d
00000290: 6460 9f3c d90b 22bc 2f4e 81bc dcb4 373d
000002a0: 5b43 9fbd 1008 8cbd 1ae7 ab3c 2a5f 3cbd
000002b0: cae5 083d aa3b 92bd 1c59 b33d 09a8 863d
000002c0: 2af4 a43b 424b 75bb 3377 9a3d 1f1e ef3c
000002d0: 3d1b ab3c 577d e4bb db34 eb3c 3c9e be3c
000002e0: 0057 a93d fdbf b5bc 5b2e c83c e3bd 243d
000002f0: b37b 9f3d 9391 743d 9a1f 11bd 3999 49bb
00000300: a421 0cbc ee8e c6bc f268 2d3d 3017 0f3d
00000310: 184d 19bd 3e67 b33a d19c 08bd fc60 ae3d
00000320: 5040 d53b 9197 34bd 3411 a63d c6e9 91bb
00000330: 7e79 f8bb ca08 923c a78e d2bc 05b0 0b3d
00000340: e0cb bebc 9d47 543d 9355 8e3d 7f4f 23bd
00000350: dbe4 a93d 3751 713c 5280 853b d54b a8bc
00000360: ac17 753d 965f ee3c b0c9 22bd ca7d c5bc
00000370: e336 21bd 39cc 943d 1d80 1bbd 7f9f 9f3d
00000380: e7ad 0ebd 7af4 923b 9eda 1d3d 0870 e3bc
00000390: 5438 a3bd ad05 7abc bddf 943d 3b63 1fbd
000003a0: eae7 0c3d 6b29 54bc 0116 843c 6e0a 8cbd
000003b0: eaba 8ebd c2de 12bd ec2a 9dbd a128 5f3d
000003c0: 5da5 9cbc c170 e5bc 54ac 97bd dc10 963d
000003d0: 71a3 a1bd aa77 35bd 7e3e e03c e818 843d
000003e0: 5699 a63d 107c d93b 4677 983b 8985 233b
000003f0: 0c8f 373d b13b 27bd 5073 833d f6a9 3e3d

pool.net.0.0.bias f4 [128]
0.0034869546 -0.020356514 0.0068558473 0.055274803 -0.052180775 -0.007464505 -0.0023532137 0.08038522
-0.056206666 -0.035453048 0.07673338 -0.0047377725 -0.026060529 -0.055148527 -0.083813526 0.052854396
-0.085226975 0.067310475 -0.045287468 0.047189515 0.0016442287 -0.05977302 0.009473469 -0.031992197
0.072137214 -0.06680008 0.024909593 0.08080033 -0.037314605 -0.08752181 -0.016244408 0.0328619
0.085670464 -0.040390816 -0.03109755 -0.033049125 0.024084965 0.033187117 -0.0027623056 0.039786667
0.049171083 -0.07653672 0.03768868 0.004907501 0.043575156 0.042692423 -0.041906454 -0.035620578
0.068778455 -0.03207071 0.0075411648 -0.007780712 -0.04314485 -0.028665265 -0.046053592 0.03942328
-0.06326147 -0.03912772 -0.076708995 0.06294277 0.011359019 -0.05381139 0.05393745 0.053605437
0.053523865 -0.032108832 0.07375841 0.025458716 -0.011592445 0.07846715 0.06560377 0.06757104
-0.035487622 0.045291726 -0.056259856 -0.045868948 0.013658073 0.07716542 -0.0022400252 0.045416985
-0.042245124 -0.0144080315 0.0030082627 0.043763638 0.03934122 -0.01818895 -0.06528 0.019902654
0.010583271 0.07603091 -0.07799289 0.010466959 0.04610841 -0.031720445 -0.06483905 -0.021994503
-0.03808725 0.0009795073 -0.052287824 -0.056072883 -0.058740735 -0.043946337 0.0338099 -0.08678609
0.028546184 -0.04808852 -0.071001485 -0.0017657405 0.087115616 -0.004922126 -0.090805076 -0.01740155
-0.071443126 0.05468673 0.06817531 -0.062829144 0.043278527 -0.062202133 -0.07704104 0.087253675
-0.029931528 0.06700902 -0.07078818 -0.02840238 0.06280186 -0.07900837 -0.002928573 -0.049897313
00000000: 6485 643b b4c2 a6bc 04a7 e03b d567 623d
00000010: 82bb 55bd ce98 f4bb 6038 1abb 02a1 a43d
00000020: f638 66bd 3737 11bd 6426 9d3d 513f 9bbb
00000030: e47c d5bc 6ce3 61bd 6da6 abbd da7d 583d
00000040: 7b8b aebd 13da 893d 5a7f 39bd cb49 413d
00000050: 2983 d73a 8ed4 74bd 9c36 1b3c 400a 03bd
00000060: adbc 933d 7bce 88bd 340f cc3c a57a a53d
00000070: 33d7 18bd a23e b3bd fe12 85bc 339a 063d
00000080: ff73 af3d d770 25bd 4ac0 febc 855e 07bd
00000090: d54d c53c 37ef 073d cc07 35bb 58f7 223d
000000a0: 9e67 493d 49bf 9cbd 725f 1a3d 1acf a03b
000000b0: dd7b 323d 40de 2e3d 1aa6 2bbd e2e6 11bd
000000c0: b8db 8c3d 945c 03bd e01b f73b 58f5 febb
000000d0: a7b8 30bd 6bd3 eabc b1a2 3cbd 4e7a 213d
000000e0: 3b8f 81bd 6344 20bd 9b19 9dbd 24e8 803d
000000f0: 2e1b 3a3c 5569 5cbd 84ed 5c3d 6091 5b3d
00000100: d73b 5b3d 8d84 03bd a60e 973d cc8e d03c
00000110: 3dee 3dbc 63b3 a03d 455b 863d af62 8a3d
00000120: 785b 11bd d183 393d bc70 66bd 14e1 3bbd
00000130: 1cc6 5f3c e708 9e3d 63cd 12bb 2907 3a3d
00000140: 3909 2dbd aa0f 6cbc 4626 453b 8041 333d
00000150: 4224 213d fe00 95bc 85b1 85bd e40a a33c
00000160: 7565 2d3c 18b6 9b3d bcba 9fbd 9c7d 2b3c
00000170: 2cdc 3c3d 4ced 01bd 56ca 84bd d12d b4bc
00000180: 6001 1cbd d062 803a c22b 56bd aeac 65bd
00000190: 209a 70bd 1301 34bd 407c 0a3d e8bc b1bd
000001a0: b0d9 e93c 78f8 44bd 3a69 91bd 6b70 e7ba
000001b0: ac69 b23d c949 a1bb 03f8 b9bd b28d 8ebc
000001c0: c650 92bd 31ff 5f3d 7f9f 8b3d 91ac 80bd
000001d0: d344 313d aac7 7ebd b1c7 9dbd 0eb2 b23d
000001e0: f732 f5bc 063c 893d 65f9 90bd 1cac e8bc
000001f0: 439e 803d 24cf a1bd 4ded 3fbb 2061 4cbd

pool.net.0.2.weight f4 [128]
0.9937805 0.99628776 1.0019165 0.9987596 1.006006 1.003968 0.99940366 1.0026575
1.0059878 0.99643046 0.9960704 0.9974258 0.9994873 0.9975232 0.9966461 0.99485457
0.9966496 0.9947681 1.0038656 1.0037729 0.99784774 1.0019386 1.0009432 1.0041285
0.9956673 0.99527854 1.0058252 0.998701 1.0042118 0.9968046 0.9982412 1.0064527
0.99381256 0.99477005 0.99972683 0.9960362 1.0023811 1.0028355 0.99985766 0.9969332
0.9964697 1.0020771 1.0048783 1.0025806 1.0002687 1.004146 0.99526197 1.0037683
1.0035597 0.9984483 1.004851 1.003353 1.0061791 0.99760884 1.0015153 1.0038242
0.9997431 0.9981356 1.0002209 1.0012509 0.9978298 0.99525493 0.9973488 0.9979286
0.9998714 1.0008117 0.9935197 1.0034995 1.0044141 0.99581945 1.0031849 1.0000606
1.001259 0.99717546 0.99524987 0.9965399 1.004756 1.004592 0.99808073 1.0038598
1.0020329 0.99693215 1.0046235 0.99992305 0.9974389 0.9955989 1.0042373 0.995395
0.9976752 0.99837095 1.003273 0.9969266 1.0029765 1.0035223 1.0009335 1.0027333
0.9994863 1.0059068 1.0034825 0.99533874 0.99990463 0.99950254 1.0000051 0.9994701
1.003467 1.0052192 1.0070953 1.0053185 1.0067168 1.002267 1.0030775 0.9957514
1.0026796 1.0014142 0.9981781 1.0006874 0.99714154 1.002792 1.0016482 1.0022771
0.99608 1.0002263 1.0037171 1.0027977 0.9971229 1.0020114 1.0025337 0.99716085
00000000: 6668 7e3f b70c 7f3f cd3e 803f b6ae 7f3f
00000010: cec4 803f 0682 803f ebd8 7f3f 1557 803f
00000020: 35c4 803f 1116 7f3f 78fe 7e3f 4c57 7f3f
00000030: 66de 7f3f ae5d 7f3f 3324 7f3f caae 7e3f
00000040: 6e24 7f3f 1fa9 7e3f ab7e 803f a17b 803f
00000050: f372 7f3f 863f 803f e81e 803f 4887 803f
00000060: 0de4 7e3f 93ca 7e3f e1be 803f deaa 7f3f
00000070: 038a 803f 962e 7f3f bc8c 7f3f 71d3 803f
00000080: 806a 7e3f 40a9 7e3f 19ee 7f3f 3afc 7e3f
00000090: 064e 803f ea5c 803f acf6 7f3f 0437 7f3f
000000a0: a318 7f3f 1044 803f da9f 803f 9054 803f
000000b0: ce08 803f db87 803f 7dc9 7e3f 7b7b 803f
000000c0: a574 803f 4f9a 7f3f f59e 803f df6d 803f
000000d0: 7aca 803f 4b63 7f3f a731 803f 507d 803f
000000e0: 2aef 7f3f d185 7f3f 3d07 803f fd28 803f
000000f0: c671 7f3f 07c9 7e3f 4052 7f3f 4078 7f3f
00000100: 92f7 7f3f 991a 803f 4f57 7e3f ac72 803f
00000110: a490 803f 06ee 7e3f 5d68 803f fc01 803f
00000120: 4129 803f e446 7f3f b2c8 7e3f 3d1d 7f3f
00000130: d89b 803f 7896 803f 3882 7f3f 7a7e 803f
00000140: 9d42 803f f236 7f3f 8197 803f f5fa 7f3f
00000150: 2858 7f3f 92df 7e3f d98a 803f 35d2 7e3f
00000160: a467 7f3f 3d95 7f3f 406b 803f 9536 7f3f
00000170: 8961 803f 6b73 803f 971e 803f 9159 803f
00000180: 56de 7f3f 8ec1 803f 1d72 803f 85ce 7e3f
00000190: c0f9 7f3f 66df 7f3f 2b00 803f 46dd 7f3f
000001a0: 9b71 803f 06ab 803f 80e8 803f 47ae 803f
000001b0: 19dc 803f 494a 803f d864 803f 90e9 7e3f
000001c0: ce57 803f 572e 803f 9a88 7f3f 8616 803f
000001d0: ab44 7f3f 7d5b 803f 0236 803f 9e4a 803f
000001e0: 19ff 7e3f 6a07 803f cd79 803f ad5b 803f
000001f0: 7243 7f3f e941 803f 0653 803f ef45 7f3f
