hepgnn_4top_resampling/result/train20220802_4top_cla_alledge_w2_L1/weightFinal.pth (torch, 152509 bytes, 25 tensors)

conv1.conv.local_nn.0.0.weight f4 [64, 7]
00000000: c952 a23e 4b3a 473e d5c5 d83e 0fed 73bc
00000010: ef16 4abe 5c85 e0be 0d9e 4abe 339c 6f3c
00000020: 7e93 94bd a3bc adbe 262f eb3c d27d dc3e
00000030: c86c 4c3e ec42 87be dae5 5dbe 11a1 8ebc
00000040: 515f 2a3e f040 2d3e 5e10 10be 8b0d 063e
00000050: 609b 83bd b6cb 39bd edee 9cbe e89f 8a3e
00000060: 8f77 88be 96ea c03d fbb3 41be 5825 a3be
00000070: fb99 bfbc b670 f83d 0021 c8be 171a 333d
00000080: 2bed 40be 2485 58be 728a 4ebe aede 40bd
00000090: 3815 ae3e 6e09 babe 851b 37be 3e75 a43e
000000a0: 0ef7 a2bc 10d2 a0bd 6227 823d 0982 92be
000000b0: 87d1 643e 583f 46be 088b 11be 006f 203f
000000c0: 89d7 a4bb a10f 99be c788 683e e49a 80be
000000d0: 67ce c7bc ec25 8fba 318d 2abe 5d38 2d3e
000000e0: 52f0 61bd d77c 483e 76d1 343e 7701 9cbe
000000f0: ae90 863e c660 07bc 8676 903e 8e9a 853e
00000100: 799c 2fbd 7e79 36be 7abb 30be 6ec0 67be
00000110: 801f 443d 4020 973e 471b 173e 6fdf 6c3e
00000120: 93ad 053d a413 3b3e 266b 86bd a4cc 5f3e
00000130: 9624 bfbe b3e4 db3d 562d 26be 8dd4 d4bd
00000140: ac0e 6b3d 97d1 4b3e 9012 98be 2baf 08bf
00000150: 4aac 8dbd a3cd bfbe 125f 523d 5804 89be
00000160: 6cb2 adbe 6938 1dbe aa63 4fbe 21c5 103a
00000170: c615 083f d540 53be 919e 233d 5b99 a83e
00000180: b7ed 5c3c 0889 2b3e eec1 bb3c a30f 453e
00000190: 46d1 b5be 7268 10be 6779 0a3f 3a03 ecbc
000001a0: e954 d93e e99a 9abe 97dd ac3d 620a 35bc
000001b0: d1c2 b5be 787a ad3d e32d 24bd e8d3 bbbe
000001c0: 09d6 f0bd d86f 9f3e 7e4a 9b3d 0b58 6cbe
000001d0: 53bd 47be 1298 30be 7891 48be 0233 18bc
000001e0: e408 54be 79d0 623e e5ea b93e 3665 a83e
000001f0: cd64 7dbe 0723 8f3e ad01 a2be cad0 50be
00000200: f345 5cbe 91dc 343e 9806 b8be b464 37be
00000210: 8049 1a3e 3537 b13e d62c 9c3e 9805 5e3e
00000220: 63ef 7cbe a314 d33d dea0 b73d c6c7 a43d
00000230: fc82 0cbd 91a7 9a3e 6d62 803e 7eaf 3d3d
00000240: dacd dfbe cfbd d53e 4689 d33e 361b bb3c
00000250: deef e8be 2131 c4be 5bcd 813d 05a1 22bf
00000260: dfd8 0fbe 0916 093e 127c a63e c1d1 673d
00000270: f0e4 803e 5f2a a33d bc1f b7be 44c4 52be
00000280: e300 c0be 7241 8ebd e809 913c 29d3 f0bd
00000290: 5c57 bf3d bcd9 823e d675 a83c 9e15 09be
000002a0: 489f a8be 59ea 46be a06a ee3d 6d36 b4be
000002b0: 4b46 c0be d739 a83c 6894 1e3c 0f26 98be
000002c0: 49c5 b63d e94b 293e 4fa0 96be 60de 65bd
000002d0: 7f56 653e 209e ac3e d958 87be 3104 50be
000002e0: 1832 5bbe 9f05 45be 3ee6 7abe 327f 943e
000002f0: 2ae3 9cbc 122f 93be 4f21 89be 8c86 a4be
00000300: 02dc b5be a401 b33c d74e 253d 896f 5e3e
00000310: e8d5 a83e 0033 933e 2474 b63e 000d c8bd
00000320: 116a 84be 50ee 09be 057f 0abe 85fe e7bc
00000330: bf00 1f3a 789e 52be 1cb3 a7be 22f2 19be
00000340: 78e1 a63d 3503 383e 1c8d adbe d4cd adbe
00000350: db3a b1bc 3657 14be a9bf 1dbe 6926 bbbe
00000360: 63d9 2d3e f056 82bd d4a3 983e 378c 78be
00000370: 3fd6 afbe cfb5 a0bb e4c9 b73d c19a 613e
00000380: ae0e 37bd cda7 943e 8f2d 53be 15ed a3be
00000390: 4af0 3ebe 9ba2 1abe 3c15 063e b9c2 f53d
000003a0: d285 e53e e09d 66be c210 3fbe dad6 d03d
000003b0: 6985 7a3e e7d6 32be 9285 09be 7a70 863d
000003c0: d88d 76be 7cfe a53e 5146 a8be 52f6 aabe
000003d0: 3ca1 a7bc 4fb5 88be d2a6 28be da83 5f3e
000003e0: 8360 df3a 95d5 2fbd 44a4 b3be 01c8 fcbd
000003f0: 8941 01be b099 8e3e 5635 183e e0da 0dbd
0.31703785 0.19455831 0.42338434 -0.014888062 -0.19735311 -0.43851745 -0.19786854 0.014624643
-0.072546944 -0.3393298 0.028709006 0.43064743 0.19963372 -0.26418245 -0.21669713 -0.017410787
0.16637923 0.16919303 -0.14068744 0.13091104 -0.0642612 -0.04536029 -0.30651036 0.27075124
-0.26653716 0.09419744 -0.18916313 -0.3186443 -0.023388853 0.12130873 -0.39087677 0.043726053
-0.18840472 -0.21144539 -0.2017 -0.047087364 0.34000564 -0.3633532 -0.17881592 0.321207
-0.019893195 -0.07852566 0.06355168 -0.28614834 0.22345553 -0.19360101 -0.14213192 0.6266937
-0.0050305766 -0.29894736 0.22708426 -0.25118172 -0.024390412 -0.0010921336 -0.16655423 0.16916032
-0.055160828 0.19578873 0.17658028 -0.30469868 0.26282257 -0.008262819 0.28215426 0.26094478
-0.042873833 -0.17819783 -0.17259017 -0.22632 0.047881603 0.29516792 0.14756499 0.23132108
0.032636236 0.18269211 -0.06563406 0.21855408 -0.373326 0.1073698 -0.16228232 -0.10392103
0.05738704 0.19904171 -0.29701662 -0.53392285 -0.06917627 -0.37461576 0.051360197 -0.26761127
-0.33925188 -0.1535355 -0.20252863 0.00055225386 0.53158224 -0.206302 0.039946143 0.329295
0.01348441 0.16751492 0.022919621 0.19244246 -0.35511225 -0.14102343 0.54091495 -0.028810132
0.42447594 -0.30196312 0.084407024 -0.011049839 -0.35500196 0.08470625 -0.040082823 -0.3668511
-0.11759574 0.31140018 0.07582568 -0.2308046 -0.19505815 -0.1724551 -0.19586742 -0.009289505
-0.20706517 0.22149839 0.36312023 0.32889718 -0.24745484 0.2795641 -0.31641904 -0.20392147
-0.21511059 0.17662264 -0.3594253 -0.17909509 0.150671 0.34612432 0.30502957 0.21681821
-0.24700694 0.103066705 0.0896623 0.08045916 -0.034304604 0.30205968 0.25075093 0.04630994
-0.4371174 0.41746375 0.4131567 0.022840124 -0.45495504 -0.38318732 0.063379966 -0.63526946
-0.14047574 0.13387312 0.32516533 0.05659652 0.25174665 0.07967066 -0.357664 -0.20582682
-0.37500677 -0.069460765 0.017704919 -0.117590256 0.09342834 0.25556743 0.020564001 -0.13387153
-0.32934022 -0.19425334 0.11641431 -0.35197774 -0.3755363 0.020535393 0.0096789375 -0.29716536
0.08924348 0.16532864 -0.2941918 -0.056120276 0.22396277 0.3371439 -0.26434973 -0.20314099
-0.21405828 -0.19240426 -0.24501893 0.29003292 -0.019151289 -0.2874685 -0.26783225 -0.321339
-0.35519415 0.021851368 0.04035839 0.21722235 0.32975698 0.28749847 0.35635483 -0.097681046
-0.25862172 -0.13469815 -0.13525017 -0.028319607 0.000606548 -0.20568264 -0.32753837 -0.15033773
0.081484735 0.17969973 -0.3389672 -0.33946097 -0.02163451 -0.14486393 -0.15405144 -0.36552742
0.16977458 -0.06364238 0.2981249 -0.24272238 -0.34343144 -0.004904486 0.089740545 0.2203169
-0.044691734 0.29034272 -0.20622848 -0.32016817 -0.1864635 -0.15101092 0.13094038 0.12000031
0.4482866 -0.22521162 -0.18658736 0.1019723 0.24464954 -0.17464791 -0.1342986 0.06564422
-0.24077547 0.3242072 -0.32866147 -0.33391052 -0.020462625 -0.26700827 -0.16469887 0.21827641
0.0017042313 -0.042928297 -0.35086262 -0.12342835 -0.12622656 0.2785163 0.14864096 -0.034632564

conv1.conv.local_nn.0.0.bias f4 [64]
00000000: 226a b3bd 4e4e 9dbe a7f1 e93d cb53 b5be
00000010: 8020 59be be7c 85be 0e50 073f c482 f73d
00000020: 1f91 a43e 14b5 76bd 0d20 a03e 5027 95be
00000030: c544 7abe b304 a6be 28da 9c3e f63c afbe
00000040: ec2e 833e 8790 c7be 9985 243e 1347 28be
00000050: 8ed4 8d3d 774e bfbd 1586 373e bb3a b23e
00000060: 9ac3 bebe 89ea a5be d657 00bd f295 593c
00000070: 2cd4 b73e 0bec 1e3e d4d1 56bb 6a7c a6be
00000080: 51df aa3d 55b1 14be 3841 143e 8e87 09be
00000090: 5302 a6bc ead0 863e a48d 0a3f 980f 0dbf
000000a0: b297 6abe 04d8 14be 5858 d4bd 2e06 863e
000000b0: cf11 6b3e f3a6 01bd af4a a4bd 86dd ab3e
000000c0: 5123 adbd c80a 2dbe 8399 2f3e 2a17 583e
000000d0: ae00 a23e 4d88 b8bd 6a92 943d b7c4 dbbd
000000e0: 7ef8 8d3e 5690 563e 95a2 283e fb4b 14bd
000000f0: 7386 3a3e fbb3 ca3e aef1 51be fd03 17be
-0.087604776 -0.30723804 0.11423045 -0.3541549 -0.21203804 -0.26071733 0.5285653 0.120854884
0.3214197 -0.060231283 0.31274453 -0.29131556 -0.24440296 -0.3242546 0.3063519 -0.34226197
0.25621736 -0.38977453 0.16066588 -0.16433363 0.06925307 -0.09341138 0.17922242 0.34810433
-0.37258607 -0.324055 -0.031333767 0.013280379 0.35904062 0.15519731 -0.0032778876 -0.32516795
0.083433755 -0.14520772 0.14478004 -0.13430616 -0.02026478 0.26331264 0.54122376 -0.5510192
-0.2290943 -0.14535528 -0.10368413 0.2617659 0.22956012 -0.031653356 -0.08022057 0.33567446
-0.08454002 -0.16898644 0.17148404 0.21102586 0.31641144 -0.09010372 0.07254489 -0.1073088
0.27728647 0.20953497 0.1646827 -0.036205273 0.18215351 0.3959044 -0.2050235 -0.14747615

conv1.conv.local_nn.0.2.weight f4 [64]
00000000: 1299 653f dccb 733f 0000 803f 0000 803f
00000010: f6b6 763f 0000 803f 6368 7a3f 0000 803f
00000020: 1f7f 7a3f db47 693f df6b 733f d16d 663f
00000030: 0000 803f 5ada 9e3f 6654 8e3f 0000 803f
00000040: 0000 803f fea5 7a3f 0000 803f edec 603f
00000050: 82cd 863f 1438 773f dde3 593f d8fd 793f
00000060: 0000 803f 0000 803f 0000 803f 0000 803f
00000070: 4491 6a3f e117 623f 0000 803f 0000 803f
00000080: 0000 803f fc6d 653f 0000 803f 0000 803f
00000090: 0000 803f 0000 803f 829e a13f 3c99 693f
000000a0: 0000 803f 0000 803f 466e 723f 70d5 693f
000000b0: 5ca9 723f 0000 803f 0f7d 823f e97e 703f
000000c0: 5f6f 853f 0000 803f 0000 803f 68b9 623f
000000d0: 2285 673f e5da 6d3f 696e 843f 8803 703f
000000e0: 0000 803f 0000 803f 0000 803f 0000 803f
000000f0: 0000 803f c2e9 863f 94f8 673f 0000 803f
0.8968669 0.9523294 1.0 1.0 0.96372926 1.0 0.9781553 1.0
0.9785022 0.9112527 0.95086473 0.90011317 1.0 1.2410386 1.1119506 1.0
1.0 0.97909534 1.0 0.8786152 1.0531466 0.96569943 0.85113317 0.9765296
1.0 1.0 1.0 1.0 0.9162791 0.88317686 1.0 1.0
1.0 0.8962095 1.0 1.0 1.0 1.0 1.2626498 0.9124944
1.0 1.0 0.94699514 0.91341305 0.9478967 1.0 1.0194415 0.9394365
1.0424613 1.0 1.0 0.8856416 0.9043752 0.9291213 1.0346195 0.9375539
1.0 1.0 1.0 1.0 1.0 1.0540087 0.90613675 1.0

conv1.conv.local_nn.0.2.bias f4 [64]
00000000: 8985 193d 3a23 9f3c cc2c 38bd bd71 5e3d
00000010: f311 cb3d ae55 283d 1aa2 8c3d 8b03 a1bd
00000020: 0043 c9bd 24d3 a63d 3589 f93d 9416 f03c
00000030: 9c72 8fbd 5ec7 423d d8cf 03bd 253d d83d
00000040: 26e9 a9ba 22e0 e53c 0998 233d 857e 6c3d
00000050: d1ec de3d 2def 6e3d f283 873d 1ebd 763c
00000060: e6e0 c8bb 748e 7a3d 9ac9 87bd 75ff 0d3d
00000070: b451 1c3e bd84 b1bc 9efe 46bb f445 4d3c
00000080: fd5d 7f3d 078f 8d3d 5ffc 8a3d a4a9 4fbd
00000090: 0193 bd3b 0be7 cf3d e1ad aebc f9db c23c
000000a0: e293 00bd 2921 5c3d bde0 943d 4b59 c0bb
000000b0: add1 0c3e 1ef5 ba3d c403 de3d b357 ca3d
000000c0: cef7 193e a687 b1bd 1679 973d f058 e93c
000000d0: 024d 6ebd d238 c73d 42cf 8e3d 1cfe b53d
000000e0: 02d3 c9bd 286f ee3d 35e7 d03d 68ff bb3b
000000f0: 667c b3bd 0d0d 433d 210d b03d 59a7 89bd
0.037480865 0.019425977 -0.044964597 0.054307688 0.09915533 0.041097336 0.06866856 -0.07862004
-0.09827232 0.08145741 0.12184373 0.029307641 -0.07004282 0.047553413 -0.032180637 0.105585374
-0.001296316 0.028060976 0.039939914 0.057737846 0.10885013 0.058333565 0.066169634 0.0150597375
-0.0061303256 0.06117101 -0.06630249 0.03466745 0.15265542 -0.02166974 -0.0030364166 0.012528885
0.062345494 0.06912046 0.06786417 -0.05069889 0.0057853465 0.1015149 -0.021323146 0.023786532
-0.031391032 0.05374256 0.07269428 -0.0058700196 0.1375186 0.09128784 0.10840562 0.098800085
0.15035936 -0.08668451 0.07396142 0.028484792 -0.05817891 0.097276345 0.06973125 0.08886358
-0.098547 0.11642295 0.10200349 0.005737234 -0.087639615 0.047619868 0.08596254 -0.06721372

conv1.conv.local_nn.0.2.running_mean f4 [64]
00000000: f916 2c42 03ea 1b40 0000 0000 0000 0000
00000010: e2d1 7d3c 0000 0000 662d c440 0000 0000
00000020: 0400 0000 12bd 0242 59db ba41 ea6d 7841
00000030: 0000 0000 f44c 253f a8c8 c43f 0000 0000
00000040: 0000 0000 04e7 8840 0000 0000 4f7f 2a42
00000050: 290e 613d 508d 6340 c289 3642 0400 0000
00000060: 0000 0000 0000 0000 0000 0000 0000 0000
00000070: dbb6 2d42 0400 0000 0000 0000 0000 0000
00000080: 0000 0000 ff37 4e41 0000 0000 0000 0000
00000090: 0000 0000 0000 0000 9004 493f 2a07 2941
000000a0: 0000 0000 0000 0000 805f af40 ac33 4542
000000b0: 9d5d a141 0000 0000 527a 0840 283f a941
000000c0: 9f49 a53f 0000 0000 0000 0000 e757 8b41
000000d0: de92 fc40 030e 4d41 ed41 1640 f616 d041
000000e0: 0000 0000 0000 0000 0000 0000 0000 0000
000000f0: 0000 0000 a82d d63f ef01 a940 0000 0000
43.022434 2.436158 0.0 0.0 0.0154919345 0.0 6.130542 0.0
6e-45 32.68464 23.357103 15.5268345 0.0 0.64570546 1.5373735 0.0
0.0 4.2782 0.0 42.624325 0.054945145 3.5555 45.63453 6e-45
0.0 0.0 0.0 0.0 43.42857 6e-45 0.0 0.0
0.0 12.888671 0.0 0.0 0.0 0.0 0.78522587 10.564249
0.0 0.0 5.4804077 49.30046 20.17071 0.0 2.1324658 21.155838
1.2913092 0.0 0.0 17.417921 7.892928 12.815921 2.3477738 26.011211
0.0 0.0 0.0 0.0 0.0 1.6732683 5.281486 0.0

conv1.conv.local_nn.0.2.running_var f4 [64]
00000000: f7b6 d744 ba23 e040 0400 0000 0400 0000
00000010: c2d4 f93b 0400 0000 552a 1b42 0400 0000
00000020: 0400 0000 cd3a 8044 9aef ec43 28f4 6443
00000030: 0400 0000 da6a 3b3f 8fc1 7640 0400 0000
00000040: 0400 0000 ba29 b941 0400 0000 2f9c db44
00000050: ce31 923d b4d3 4941 08fe ec44 0400 0000
00000060: 0400 0000 0400 0000 0400 0000 0400 0000
00000070: 8baf d944 0400 0000 0400 0000 0400 0000
00000080: 0400 0000 238d 2d43 0400 0000 0400 0000
00000090: 0400 0000 0400 0000 9367 ab3f 7eff 1a43
000000a0: 0400 0000 0400 0000 302c e041 23b4 0945
000000b0: 2ce4 a943 0400 0000 5a13 b140 7296 c043
000000c0: 0c25 8340 0400 0000 0400 0000 9b02 9943
000000d0: d946 9e42 9313 1543 38d2 2841 61a7 2944
000000e0: 0400 0000 0400 0000 0400 0000 0400 0000
000000f0: 0400 0000 5cbe 2c40 c990 0742 0400 0000
1725.7177 7.004361 6e-45 6e-45 0.0076242397 6e-45 38.79134 6e-45
6e-45 1025.8375 473.8719 228.95374 6e-45 0.7320992 3.8555639 6e-45
6e-45 23.145374 6e-45 1756.8807 0.07138406 12.614185 1895.9385 6e-45
6e-45 6e-45 6e-45 6e-45 1741.4857 6e-45 6e-45 6e-45
6e-45 173.55132 6e-45 6e-45 6e-45 6e-45 1.3390983 154.99802
6e-45 6e-45 28.021576 2203.2585 339.7826 6e-45 5.5336123 385.17535
4.0982723 6e-45 6e-45 306.02036 79.138374 149.07646 10.551323 678.6153
6e-45 6e-45 6e-45 6e-45 6e-45 2.6991186 33.89139 6e-45

conv1.conv.local_nn.1.0.weight f4 [128, 64]
00000000: 108d 7a3d 8851 90bc a464 e13d 714d 813d
00000010: 0c65 2a3e e648 d9bd 9fa9 09be b53f 9c3d
00000020: 984f bebc e13c f4bd b23f 44bd ac7f 70bd
00000030: 6ed7 a1bd d287 363d c2ca b33c 0935 aebd
00000040: 1518 6ebd 0a32 cd3d d043 863d 11da 2a3d
00000050: b711 b53d cfb4 4fbc 300f 15bc b7e6 00bd
00000060: 33ab 0abd 5b9d d0bd 2395 cd3d b633 c8bc
00000070: a652 4b3c dddc afbd 782c 093b 5ee0 383d
00000080: a3dc 90bd 7686 d0bd c73f 9fbd 41c3 acbd
00000090: 7515 da3d 37cb c1bd 5265 23bd 516c 903d
000000a0: bce9 273d 2fae 37bc 016d 9d3c 3a82 ca3b
000000b0: 3ede 213c 6c29 1bbd 004a 603d 877f 823d
000000c0: a74a 2cbe ed11 bc3d 10f3 3d3d 0493 22bd
000000d0: 9a06 0f3d 69b7 5b3d 36d8 ec3c 5255 03bd
000000e0: c5c1 b53d cadf c7bc f29c 823d 6ea4 efbc
000000f0: c979 5fbc bb75 6e3d 82cb c73b da42 843d
00000100: 0f4a c4bc 367d 87bd 988d 623e 11fb 17be
00000110: a3d4 a93d 9dd1 73be 2443 e23d 908f 573e
00000120: 611c 9b3d 02a1 923b c7e1 883d 6c2b 213d
00000130: 5019 1c3e 1d90 823d 7806 16be e5b7 44be
00000140: ba55 d03d ca4a 783d 51e3 a5bc 94cc c63d
00000150: 8efa e8bc 76ee f9bd 7839 e33d c7b1 bdbd
00000160: 1f10 50bc e5f3 3ebe 8fbc cb3d d29b babd
00000170: aa06 8e3c 3641 d13d 8b7c 523d 9446 d3bc
00000180: 7c93 953b f525 dbbd 7ba9 bfbd ef48 473e
00000190: f7dd a0bd 3128 c8bd d786 113d 32c0 063d
000001a0: 6db9 ad3d bf8f b0bc 1ec3 dbbd 5e76 063e
000001b0: a8a9 fc3d cf81 9bbc 6e76 6b39 40fe 26bc
000001c0: cb86 473d b857 c03d 04d6 4cbe c923 fe3d
000001d0: aeca dd3c 8c92 f23d 4055 55bd 8712 333d
000001e0: 4747 103e b971 3bbe 4c95 a7bd 4359 4dbc
000001f0: da25 543e 99e0 153e 888b 053e 1ec2 933d
00000200: fc3b 04bd 6228 e5bc da04 103e 9ac7 3fbd
00000210: 1b0b 38bd d31e 253d 243e 883b 495d 61bd
00000220: d511 70bd d3ec ca3d 2196 2d3d cdc6 ea3d
00000230: 4c05 8ebd a94a a03d a07c 72bc f88f 39bc
00000240: 4b15 a4ba b449 0cbd 6bd3 04bd cf47 bbbc
00000250: 522a d23d e4fd ddbd d6da 203d f7ec babd
00000260: 1f9c 033d 8375 90bd 30e9 0dbd ccf0 90bd
00000270: 4505 283d c2de 82bd 6860 31bb 5c34 d7bd
00000280: 2bcc 52bd 6617 b83c ed9b ddbd 66f9 9f3c
00000290: be23 823d 90fc 54bd cbeb 48be 1bea f4bd
000002a0: f85a e93d 5b04 a13c 3af9 9a3d 1eaa be3d
000002b0: fcba 47bc 06e4 26bd 0025 db3c 9a93 8a3d
000002c0: fe2c 18be ddb8 9cbd e71f ed3d ae2b 9c3d
000002d0: 75c6 323b 1054 cb3d 0527 71bd ac9e dbbd
000002e0: 757f 293d 1aec dabd f09d d2bd 443b ab3d
000002f0: a471 4ebd ce31 153e 0d70 d43d f4c3 87bd
00000300: 836b ccbc 5b88 cabd 453d 87bd 05c4 ab3c
00000310: 14d3 853d c076 813d a44c de3c 08b2 0c3e
00000320: 7c20 16bd edbe b1bd b6ec 6f3b dcfa 88bd
00000330: 6f7a 453d 4a9b 77be 28a5 bdbc 7f62 1ebd
00000340: 14f6 eabd 98f0 f73d 9e72 0f3d 0027 d13d
00000350: 2611 c83d 9b9f b2bc 3e8c a3bb 3799 d43d
00000360: 9290 37bd ebac 7fbd 92e0 8cbc 3228 ecbd
00000370: bcf1 10bd d5bb 35bd 046a 41bd 183c b2bc
00000380: 8dac cbbd b13c a43d 3e98 aabd 81a8 083d
00000390: baff a63d f670 fbbd 9ce9 523e 412d 8f3d
000003a0: 2061 b9bd a13d 04be 2cb3 013c 5df3 a8bc
000003b0: 0776 1ebc 3f33 b9bc a045 283d 1547 963d
000003c0: 43e9 25be 9af3 9f3d 2cd6 2e3c 2dfb b5bd
000003d0: aa75 693b fe1e a4bd 8991 cfbd 0b61 5abc
000003e0: 1f66 b4bd 1afe a43d 322f b63d c6ec 9dbd
000003f0: bbde d63d dcd0 023d 5f31 983d f60a f8bb
0.061169684 -0.017617002 0.11005524 0.06313599 0.16640109 -0.106096074 -0.13443612 0.07629339
-0.023231313 -0.11925674 -0.047912307 -0.058715507 -0.07902418 0.044563122 0.021947268 -0.085062094
-0.058128435 0.1001931 0.06555903 0.04171187 0.088412695 -0.0126773855 -0.009097859 -0.031470027
-0.033854675 -0.10186263 0.10038211 -0.02443872 0.012409842 -0.08587048 0.0020931046 0.04513585
-0.07073333 -0.101818964 -0.077758364 -0.08435679 0.10648624 -0.09462588 -0.03989155 0.0705191
0.04099439 -0.011210962 0.019217016 0.006180075 0.009879647 -0.0378813 0.054758072 0.0637198
-0.16825353 0.091831066 0.04637438 -0.039690986 0.034918405 0.05364171 0.028911691 -0.03206379
0.08874849 -0.024398703 0.06377591 -0.02925321 -0.013639876 0.058217745 0.006097258 0.064580634
-0.023961095 -0.06615679 0.22124326 -0.14841868 0.0829251 -0.2381043 0.11047962 0.21050858
0.07573772 0.00447476 0.066836886 0.03934805 0.15244031 0.06375144 -0.14650905 -0.19210775
0.10172601 0.0606182 -0.020249994 0.09706989 -0.028439786 -0.12203686 0.11094946 -0.09262424
-0.012699156 -0.18647726 0.09948074 -0.091117516 0.017337162 0.10217516 0.051388305 -0.02579049
0.0045647006 -0.10700599 -0.09358498 0.19461416 -0.078548364 -0.09773291 0.035528984 0.032898135
0.08482633 -0.021552918 -0.10730575 0.13131091 0.12337047 -0.018982796 0.00022455465 -0.010192454
0.048712533 0.09391731 -0.20003515 0.12409169 0.027074184 0.11844358 -0.052083254 0.04371884
0.1408969 -0.183051 -0.08182773 -0.012533489 0.20717564 0.14636458 0.13041508 0.07214759
-0.032283768 -0.027973358 0.1406435 -0.046821214 -0.044932466 0.0403126 0.0041577984 -0.055020604
-0.058610756 0.09908452 0.042379502 0.114636995 -0.06934604 0.0782674 -0.014800221 -0.011325829
-0.0012518553 -0.034249976 -0.032428186 -0.02286139 0.10261978 -0.108394414 0.0392712 -0.09127229
0.03213131 -0.070536636 -0.034646213 -0.07077178 0.04102065 -0.06390144 -0.002706552 -0.10508034
-0.05146424 0.022472095 -0.10820756 0.019528102 0.063544735 -0.051998675 -0.19621198 -0.119587146
0.11394304 0.019655397 0.075670674 0.09309791 -0.012190577 -0.040744804 0.026751041 0.06766434
-0.14860913 -0.076524474 0.115783505 0.07625519 0.0027278934 0.09928143 -0.058875103 -0.10723624
0.041381318 -0.10689564 -0.102840304 0.083609134 -0.050401345 0.1456978 0.103729345 -0.06629172
-0.02495361 -0.09889289 -0.06603483 0.020967493 0.065344006 0.06321478 0.027136154 0.13739789
-0.036652073 -0.08678994 0.0036609597 -0.06688473 0.048212465 -0.24180332 -0.023150042 -0.038668152
-0.11472717 0.121064365 0.035021417 0.10212517 0.09768896 -0.021804621 -0.0049910834 0.10380786
-0.044815607 -0.062420767 -0.017196927 -0.11531104 -0.035386786 -0.044368584 -0.047220245 -0.02175717
-0.09945021 0.080193885 -0.08329819 0.033363823 0.08154245 -0.12277405 0.20596927 0.069910534
-0.09051728 -0.12914135 0.007916253 -0.020623857 -0.009671695 -0.022607444 0.041082025 0.073377766
-0.16202264 0.07810135 0.01067118 -0.088857986 0.0035623112 -0.08013724 -0.101351805 -0.013328801
-0.088085406 0.080562785 0.088957205 -0.077111766 0.10491701 0.031937465 0.07431292 -0.007569666

conv1.conv.local_nn.1.0.bias f4 [128]
00000000: 21ce 58bd 7bd1 9bbd 4523 ca3c 74aa ee3d
00000010: 95fc e73c d592 02be 92cb 36be cc7d bfbd
00000020: 2c4e cebd b71e edbd 4af4 5fbe f12d 9e3d
00000030: 9470 2ebd a803 dabc f1c2 793d e24f 8dbd
00000040: e5ac 043b 1d7f cf3d 6a5b f23c 6037 38bd
00000050: 0716 94bb c4f6 ad3d e2ba 663c e053 e4bc
00000060: 9bc1 8d3c 1eca a83c bb77 153e e968 2fbe
00000070: 2951 a23c 21e5 1bbc 116e a5bd 9bf7 b63c
00000080: d33e b83d db3a 03be 3cd1 693d 4de8 dbbd
00000090: b4bc 873d 6382 813b 685e 103e 23e4 26bd
000000a0: 2c3b 853d 443e 513b a723 03be 2be8 ac3c
000000b0: 79a2 153c 3cfe dcbd 4e87 433c 1525 d8bc
000000c0: b544 163e 7846 da3d 5cf4 85bd bc65 bcbd
000000d0: eaad 3ebe f23f e73c dc52 cebd 5eb4 20bd
000000e0: a1df d9bc 4750 a1bc 3be2 b83d cf7c be3c
000000f0: 2dd5 8bbd abaa 68bd bf75 30be 603f 7bbd
00000100: 8bb9 953c a9c7 efbd 3c14 5ebd 0a26 143b
00000110: f0ae febd b4bc 853d a172 12be bdcf 893c
00000120: a39e 383d 7df6 35be f598 82bc 07e6 2dbd
00000130: 9d01 21bd b40f 67bd d576 bc3d 0f41 d13d
00000140: c0dc 093e 238e 88bd 6793 813d adef fbbd
00000150: e141 8bbd ed03 0bbc cda0 af3b 9728 5b3d
00000160: b12f 17be d8cf 3ebd 2c46 c33c ec1c 963d
00000170: 2f87 5e3d 42c5 0fbe 2d7f 11be 6bdb 13be
00000180: be73 4bbd ba78 933d 6e07 13bd 1554 153b
00000190: 1c69 02be 6183 11be 550f 4fbd 1830 e2bb
000001a0: 2d0d 143d 0514 1ebd 7579 ee3c 139e c73c
000001b0: 2c55 263c 7904 643d 66e4 32bd 5be3 893d
000001c0: 12b3 27be 7589 81bd 3723 803d feaf 5b3a
000001d0: 9ee7 13be 0d14 4d3d ac68 f1bd 9efd 983d
000001e0: 6791 083c 547c 0b3e f88f 78bc 2a91 9a3c
000001f0: b93b ffbc a89f 3bbe 229b a1bd f7fd 063e
-0.052930955 -0.076083146 0.024675021 0.11653605 0.028318683 -0.12751324 -0.17851093 -0.09350166
-0.10073504 -0.11578124 -0.21870533 0.077236064 -0.04258783 -0.026613072 0.060976926 -0.06900002
0.0020244655 0.10131667 0.029584605 -0.044974685 -0.0045192274 0.084943324 0.014082642 -0.027872026
0.017304232 0.02060419 0.14596455 -0.17129864 0.01981409 -0.009515078 -0.08077634 0.022334864
0.08996358 -0.1281542 0.057084307 -0.10737667 0.06627789 0.003952311 0.14098513 -0.040744912
0.06505427 0.0031927982 -0.12806569 0.0211068 0.009132975 -0.10790679 0.011934115 -0.02638487
0.14674647 0.10657972 -0.065407485 -0.09199092 -0.1862103 0.028228734 -0.10074398 -0.03923451
-0.026595892 -0.0196916 0.09027525 0.023252873 -0.068277694 -0.056803387 -0.17232417 -0.061339736
0.01827695 -0.11708004 -0.054218516 0.002260568 -0.124357104 0.06530133 -0.1430154 0.01682269
0.045073163 -0.17769809 -0.015942076 -0.0424557 -0.03930818 -0.05641146 0.09202353 0.10217487
0.13463116 -0.066677354 0.06326943 -0.12301574 -0.06799675 -0.008484823 0.005359745 0.053505506
-0.14764287 -0.046584934 0.023837171 0.07329735 0.05432814 -0.14040092 -0.1420867 -0.1443917
-0.049670927 0.07200761 -0.035895757 0.0022785712 -0.12735409 -0.14210273 -0.05055173 -0.006902706
0.036145378 -0.03859331 0.02911065 0.024367368 0.0101521425 0.055668328 -0.04367485 0.06732818
-0.16376904 -0.06325046 0.06256717 0.0008380412 -0.14443824 0.05006795 -0.11787543 0.07470249
0.008335448 0.13621646 -0.015171044 0.018868048 -0.031156408 -0.18322623 -0.07890917 0.13182817

conv1.conv.local_nn.1.2.weight f4 [128]
00000000: af2f 783f 049a 683f 54d4 763f 0e5f 823f
00000010: 0625 8c3f b7aa 853f 0754 613f 9406 833f
00000020: 1768 803f 66dc 6d3f 238b 863f 983b 543f
00000030: 7ba1 7a3f 0717 6e3f cdd5 743f 0bce 5c3f
00000040: 90a6 643f 34a6 7a3f 78c5 833f 2e7f 723f
00000050: d7d2 813f a9ad 7c3f 407f 663f e76b 7b3f
00000060: 8d62 883f 1ef8 7c3f d133 753f e817 873f
00000070: 584a 843f 90e4 653f 591f 7c3f 24dd 893f
00000080: aacf 813f a46b 833f 2592 613f ccc5 773f
00000090: f6f7 643f f1f7 7f3f b286 6a3f f4d9 813f
000000a0: 47ac 603f b913 653f 9985 873f 548a 813f
000000b0: 313e 843f 0540 5a3f e4bb 763f de89 833f
000000c0: 0f97 693f d563 743f c366 683f 1ae1 743f
000000d0: cae7 873f 41f7 753f bcf6 823f 1126 663f
000000e0: 788d 623f 757f 813f fc55 743f 33ac 643f
000000f0: d559 8f3f dc72 803f 8189 873f 5109 833f
00000100: 0672 603f 72e3 683f f9f3 823f 6f4f 713f
00000110: c695 813f f097 813f 7afb 723f b452 6d3f
00000120: 5e64 823f f19e 773f a8f6 7d3f 2cb1 773f
00000130: 6eca 823f acba 803f 0488 773f ecfb 613f
00000140: 6270 7e3f c6e7 8c3f 4332 6a3f 7411 923f
00000150: 74cd 8e3f 88ce 8d3f 713c 823f ba5e 793f
00000160: a714 7a3f 5844 603f afca 803f a99b 553f
00000170: 8ef4 703f c079 813f 1d63 863f b1ea 803f
00000180: 176e 7e3f 9e1b 823f 59e2 7f3f 95c1 873f
00000190: a498 613f 4d20 773f e07c 973f 6f9f 623f
000001a0: 8724 723f 34a7 813f aff7 793f 6908 723f
000001b0: 9190 793f 74c5 6d3f 2a5c 7f3f 6353 7a3f
000001c0: 1a90 6d3f d4e8 7a3f 9dfb 7e3f 13cd 7b3f
000001d0: e85a 7c3f ea4d 623f 113e 883f ca05 703f
000001e0: ddda 7b3f 5df8 6a3f 59a8 7d3f 8ca2 733f
000001f0: f3b5 703f 88f8 643f bb10 6f3f b866 753f
0.9694776 0.9086001 0.96417737 1.0185258 1.0948799 1.0442723 0.8801884 1.0236382
1.0031766 0.92914426 1.0511211 0.8290343 0.9790265 0.93003887 0.95638734 0.86251897
0.89316654 0.97909856 1.0294638 0.9472531 1.0142468 0.98702484 0.9003792 0.9821152
1.0655075 0.98816097 0.9578219 1.0554171 1.0335188 0.89801884 0.9848533 1.0770612
1.0141499 1.0267224 0.88113624 0.9678619 0.8944086 0.99987704 0.9161178 1.0144639
0.87762874 0.8948322 1.0587646 1.0120339 1.0331479 0.85253936 0.9638045 1.0276449
0.9124612 0.9546483 0.907818 0.9565598 1.0617611 0.96080405 1.0231547 0.89901835
0.88497114 1.0117022 0.954437 0.89325255 1.119929 1.0035052 1.0588838 1.0237218
0.87673986 0.90972054 1.0230705 0.9426183 1.0123832 1.0124493 0.9491497 0.9270432
1.018688 0.967269 0.9920449 0.9675472 1.0218027 1.0056968 0.9669192 0.8827503
0.9939023 1.1008232 0.91482943 1.1411576 1.1156449 1.1078653 1.0174695 0.97410166
0.9768776 0.87604284 1.0061854 0.83440644 0.9412316 1.011528 1.0498997 1.0071622
0.99386734 1.0164678 0.99954754 1.0605952 0.88123536 0.9653366 1.1834984 0.88524526
0.94586986 1.0129151 0.9764356 0.9454408 0.97486216 0.92879415 0.99750006 0.9778349
0.92798007 0.9801152 0.9960268 0.98359793 0.9857621 0.8840014 1.0643941 0.93758833
0.98380834 0.9178522 0.99085003 0.951699 0.9402763 0.8944173 0.93384904 0.9585986

conv1.conv.local_nn.1.2.bias f4 [128]
00000000: 1498 10bd ea4d 81bd 5ba3 9dbb faa4 8cbd
00000010: b65e aebd b72e 00be 00db 60bc 8305 fbbd
00000020: 41dd d4bd af4a 1d3c d7ea a2bc be66 e7bd
00000030: f765 47bd 15fb 68bd bb89 a0bd 132f a2bc
00000040: fb87 b3bd 14c9 73bd 48aa 7c3d 76f0 41bd
00000050: 1436 c6bd 71a2 e9bd 8a87 39bd 0b12 18be
00000060: 3678 dcbd a11f e1bd 6e76 3fbd 6f72 243d
00000070: 78f3 3ebd 0dfd 8b3d 6cce 32bd f1fb a8bd
00000080: f495 c23d 36ab 8e3c 4978 e6bd afa1 e8bd
00000090: f4be 1ebc bf99 b2bd 8468 633c 4df8 c8bd
000000a0: 6d80 043d 74ef a7bc faff 3dbd 3021 c4bd
000000b0: 6daf 67bd aa73 e2bd d41a 03bc 4738 533c
000000c0: de9f 02be e476 d3bd 2877 24be c822 3bb9
000000d0: 0b25 a3bd e1fb 8bbd 4280 993c ca11 e4bc
000000e0: b29e 7f3c af76 b2bd f71d afbc ee7c c2bc
000000f0: 8c10 b83c a149 773b 0eea 06bd 84af 94bc
00000100: 520c 81bc c7dd 8d3d a5e7 6abd 9b70 43bd
00000110: e4e6 923d ac50 e1bd 1288 573c 2cc7 a9bc
00000120: bdc2 9abc d2f7 efbd e285 edbd e125 debd
00000130: a850 a9bb ebdc 89bd 28ab 95bd 82e8 143d
00000140: dc46 80bd 8d92 1ebe b387 e8bc 3882 1abe
00000150: d869 cd3c fd1d 03bd baeb 24bd f3d5 92bd
00000160: 97f7 0dbe 54ed 923c 901c 363c 682b 9dbc
00000170: 20c5 26bd 6811 c7bd 464a 5b3d b0ea 0b3c
00000180: 88e5 bbbc 13ba e43c 16b4 64bd e97f 13bd
00000190: 529e 9e3d 9b16 25bd e09a 9dbd 511d b7bd
000001a0: 88e4 09bd 49a3 9abd bd96 4abd e70a a6bb
000001b0: 8c01 e7bd 8782 7cbd d525 75bc d338 6ebd
000001c0: 5201 37bc c8a8 e0bd 299e 5bbd 70e4 90bd
000001d0: f87a e43c 5d83 bbbd 3d6f 5dbb a771 e5bd
000001e0: bbcb 38be ba72 8ebd 62f0 2e3d 4f0f abbd
000001f0: 358f 19be 24f9 c73d e43a debd d775 62bd
-0.035301283 -0.06313689 -0.0048107333 -0.06867404 -0.085141584 -0.1251782 -0.013724089 -0.12256911
-0.10393763 0.0096003255 -0.019887371 -0.112988934 -0.048681226 -0.056880075 -0.0783877 -0.019797837
-0.087661706 -0.059517935 0.06168583 -0.047348462 -0.09678283 -0.11407936 -0.045295276 -0.14850633
-0.10765116 -0.10992361 -0.046743803 0.040148195 -0.04661891 0.06835375 -0.04365389 -0.08251179
0.095012575 0.017415624 -0.11253411 -0.11358964 -0.009689081 -0.08720731 0.013879899 -0.098129846
0.03234904 -0.020499922 -0.046386696 -0.095766425 -0.056563783 -0.110572174 -0.008002002 0.0128918355
-0.12756297 -0.10325411 -0.1606108 -0.00017846667 -0.0796605 -0.068351515 0.018737916 -0.027840514
0.015601801 -0.08714043 -0.021376593 -0.023741212 0.022468828 0.0037733095 -0.032938056 -0.018150099
-0.015752945 0.06927066 -0.05734982 -0.04771481 0.07172945 -0.11001715 0.013155 -0.020724855
-0.018891687 -0.1171719 -0.11597802 -0.108470686 -0.0051670857 -0.0673159 -0.07308036 0.03635455
-0.06263515 -0.15485592 -0.028385019 -0.15088737 0.025074884 -0.03201102 -0.04026387 -0.07169714
-0.1386398 0.017935432 0.011115208 -0.019185737 -0.040715337 -0.09720117 0.05353763 0.008539841
-0.022936597 0.027920758 -0.055835806 -0.036010657 0.07745041 -0.04030476 -0.07695556 -0.089411385
-0.03366521 -0.075506754 -0.04946016 -0.0050672176 -0.11279592 -0.061647918 -0.014962633 -0.05815966
-0.011169748 -0.109696925 -0.05361763 -0.07074821 0.027890667 -0.09155915 -0.0033788227 -0.11203318
-0.18046467 -0.06955476 0.042709716 -0.08352529 -0.14996035 0.09764317 -0.10851076 -0.055288162

conv1.conv.local_nn.1.2.running_mean f4 [128]
00000000: 2185 a03d 05c2 383e e783 3a3e 2faf 433e
00000010: 55ad 813d 201c 933d f621 c63d 21a2 253d
00000020: 3e93 193e 1b55 8e3e 7407 483d 67ca ef3e
00000030: a1f4 bb3d 5ae9 2a3f d183 a83e 10ad 883e
00000040: 9f9f 783e b4eb 783e 96d3 c33d 4f2b 863e
00000050: af56 bb3d 9140 243e 1e89 f73d dc99 ad3d
00000060: d71e 113e 6cd1 113e 92e0 b83e 1807 403d
00000070: 1b6b c13e 8d34 323e cbb9 e43d a9b3 dd3d
00000080: 9ec6 993e 7fec 3d3c 317b 9e3e f065 a73d
00000090: 1535 d43e 7efb 403e fea9 cb3e 9f6c 0d3e
000000a0: a5ef 563e 425e 073e f4b6 853d 4361 9f3d
000000b0: 6f65 b03d 3979 c83d e844 683e 57d0 a93d
000000c0: cc3f fe3e 5513 613e f05f 913e 7d29 213e
000000d0: 08c2 453d ea71 0f3e e32d 133e d49e 383e
000000e0: 6e0b 633e fd39 813d 3c6d de3e 4660 833e
000000f0: 80bd f93d 17e6 7c3d 91c6 b73c 59a9 583e
00000100: 1771 383f 819f 123e 53f7 b33d 7d73 4e3e
00000110: 75cd 193e 9c59 e93d 0b23 0c3e b06c b93e
00000120: 6117 d13d df4a 683d 005b 003e 1c01 563d
00000130: a9d0 a93d 856c a33e 8d3b 763e c12d d93e
00000140: 5eea 8f3e 4666 e03c 213c 9a3e bf29 233d
00000150: 12eb bc3d f6b3 9c3d 6966 d43d 43eb b43e
00000160: c60e 8e3d aafb 033e dbf8 a53e de34 813e
00000170: e91a 273f 4540 b23d 14cf 5c3e e6f4 b73c
00000180: fb83 093e 7849 013f 0af8 1a3e c137 a83d
00000190: c4f6 1f3e a21e f73d e6da 433d 41de 733e
000001a0: 9966 653e 1049 1a3e a988 f63d 520e 023f
000001b0: 2e13 893e a0f9 873e 86ac 8f3d 912c 7c3e
000001c0: 3d5b 623c 947f f33d 54fe 123e 57f1 113e
000001d0: 0400 0000 d749 a43e 861f d43d c62c 8d3e
000001e0: 8da6 0d3e 2897 003f 4ef0 4a3d 6463 2d3f
000001f0: a458 a83d 1133 2b3e 6072 2b3e a974 193f
0.07837892 0.18042763 0.18214379 0.19109796 0.063318886 0.07183099 0.09674446 0.04043782
0.14997575 0.27799305 0.048835233 0.46834108 0.09177519 0.66762316 0.32913068 0.26694536
0.2427964 0.24308664 0.09561841 0.26204917 0.09147393 0.16040255 0.120867 0.08476612
0.1417192 0.14240044 0.36108834 0.046881765 0.37777027 0.17402859 0.1116825 0.10825283
0.30034345 0.01159203 0.30953363 0.0817374 0.41446748 0.18845937 0.3977813 0.13810967
0.20989855 0.1321955 0.06529036 0.07782223 0.08613097 0.097887464 0.22682536 0.08291691
0.49658048 0.21980031 0.28393507 0.15738483 0.048280746 0.14008299 0.14372973 0.18029338
0.22172329 0.063098885 0.43442714 0.25659388 0.121943474 0.06174287 0.022433551 0.21158351
0.7204756 0.14318658 0.08787408 0.20161243 0.15019782 0.11394045 0.13685243 0.36215734
0.10209537 0.056712028 0.12534714 0.05224715 0.08291752 0.3191873 0.24046154 0.4241772
0.28108495 0.027392518 0.30124 0.039834734 0.092245236 0.07651512 0.10371096 0.3533574
0.069364116 0.12888971 0.32416424 0.25235647 0.65275437 0.08703665 0.21563369 0.022455644
0.13429253 0.5050273 0.15133682 0.08213759 0.15621477 0.120663896 0.04781618 0.23815252
0.22402419 0.15066934 0.120377846 0.508031 0.26772445 0.26557636 0.07015328 0.24626376
0.013815698 0.11889568 0.14354831 0.1425222 6e-45 0.32087585 0.10357575 0.27573222
0.13833065 0.50230646 0.04954558 0.67729783 0.08220032 0.16718699 0.1674285 0.59943634

conv1.conv.local_nn.1.2.running_var f4 [128]
00000000: 7f51 203d 0b8f ae3e 603f 643e 899d a33d
00000010: 1a31 9e3c f0ab 643c 9c77 0b3e a8c5 ef3b
00000020: 136b 233d 6168 363f 146a 763d 708e 823f
00000030: 2f5a 273d 5f15 bf3e 40a8 e03d 9330 023f
00000040: 75c4 8d3e 3fbf 2f3d 5d49 0f3d ec44 8b3e
00000050: f2ee 4e3d 1ad2 0a3d f14f d93d 92b6 953c
00000060: 5069 403e 1ba8 0b3d 3be0 bd3d f561 233d
00000070: 41b8 0f3e 7145 cd3e 98a3 103e 1d24 bd3c
00000080: d0ce 813e 1e93 d03b 925e 043f 3939 493c
00000090: e19f 9f3f 504a 5e3d 2218 2f3f 7f12 d33d
000000a0: 2d8d 2f3e 38b0 023e 0c72 3f3c 750d ca3c
000000b0: 9252 923c 28eb e03d 06d7 ba3e 4fa7 af3d
000000c0: 6a4b 363e 32af 4b3d ffd5 b83d 7c5e 793e
000000d0: 55ed 2c3c 6cf2 743e aebc 503e ae70 8c3e
000000e0: 128f d73e 54d7 083c 0154 023e 1405 d13e
000000f0: dc10 3f3e e297 f83c a5cf 023c 72a2 523d
00000100: 0ca1 5d40 f279 3c3e 6b6f 863d 7ca2 103d
00000110: db5e 403e 3b18 dc3c 8f91 573e 6f6b 253f
00000120: 72b2 2f3d 3f88 213c 4871 663d 1064 d33b
00000130: ac5c 203d 864c e23d 88e2 433e 9c4e 9a3f
00000140: f685 aa3e ee8d b13b 9d22 2c3f 3adb e43b
00000150: 0fd3 983d aeea 9a3c 4c3f 723d d982 d33d
00000160: f895 5a3c 04e3 6f3e 4c83 cb3d cc48 913e
00000170: 7305 893e ea27 953c bc0c 1c3f 8404 063c
00000180: 3678 633d 596f 763e 8cb4 113d 0f77 893c
00000190: 5666 3a3e 99aa 123d 8931 0e3c f0c8 b73e
000001a0: 93d7 a83e 37b6 253d 4272 f33d 7fdc 353e
000001b0: 56ea b63d 48b6 6d3d 738b 883c 1756 173e
000001c0: 1eea 143c ed5b cf3c d7f7 1d3d b2c9 313e
000001d0: 0400 0000 ff9b 013f f970 a23c c787 993d
000001e0: 3898 293d 8119 503e ad69 423c b6ef bf3e
000001f0: 0e4c 333c 28f9 be3e a982 603d 23ce 7b3e
0.03914022 0.34093508 0.222898 0.07989032 0.019310523 0.013957009 0.13619846 0.0073172636
0.039897036 0.7125302 0.060159758 1.0199718 0.04085749 0.37320992 0.10969591 0.5085537
0.27688947 0.042906996 0.034982074 0.2720102 0.050520845 0.033891775 0.10610951 0.018275533
0.18790174 0.034095865 0.09271284 0.03988834 0.14035131 0.40092042 0.14124906 0.02308851
0.25353098 0.006365194 0.517068 0.012281709 1.2470666 0.05427009 0.683962 0.10306262
0.17143698 0.12762535 0.011684906 0.02466462 0.017861638 0.109823525 0.36492175 0.085768335
0.17802206 0.049727626 0.090251915 0.24352449 0.010554631 0.23920602 0.20384476 0.27429718
0.4210134 0.0083521195 0.12727357 0.40824187 0.18658775 0.03034586 0.007984077 0.05142445
3.4629545 0.18405893 0.0656422 0.035311207 0.18786184 0.026867023 0.2105162 0.64617056
0.042894788 0.009859144 0.056260377 0.0064511374 0.03915088 0.11049752 0.19129384 1.205524
0.3330533 0.0054185307 0.67240316 0.0069841417 0.07462131 0.018910732 0.059142396 0.103276916
0.013341419 0.23426443 0.09937152 0.28375852 0.2676197 0.01820751 0.6095693 0.008179788
0.055534564 0.24065913 0.035572574 0.016780404 0.182031 0.035807226 0.008678802 0.3589549
0.3297697 0.040456977 0.11887027 0.17759894 0.08931415 0.058035165 0.016668057 0.14778934
0.009089021 0.025312388 0.038566437 0.17362097 6e-45 0.50628656 0.01982926 0.074966006
0.041404933 0.20322229 0.011866015 0.37487572 0.010943426 0.37299466 0.054812107 0.24590354

pool.net.0.0.weight f4 [128, 131]
00000000: 6800 3fbd 35a0 d6bc 27a5 983b 82ee 34be
00000010: f0d1 8fbd 5101 133e ea32 0fbd 2978 aabd
00000020: 1e34 1f3d e788 803d 6e7d 63bc a89d 56ba
00000030: e6ef 443c dd5a 12bd d49b d4bc 7ffc 5cbc
00000040: 8f7f 993d b438 5fbc 02b0 523c f93b c7bd
00000050: e08d 463d 3a40 b2bd 2b94 223c e4f5 5cbd
00000060: f242 dd3c 44de 62be 08a8 97bd 623d 523d
00000070: 16c8 1d3d 46cf c03d 3597 b2bc ae02 5fbd
00000080: c989 583d 1153 6abd 5e93 d1bc 1d8a 36bc
00000090: b7d0 073e 9742 613d 1002 54bd 9c6f fa3d
000000a0: 4960 ac3c 4713 d73d eac8 a63c 962a 083e
000000b0: b80b efbd 2951 063d c104 44bd 246f 8abc
000000c0: da94 ef3d 2862 dfbc 01be 62bd c4e9 4cbd
000000d0: f1be e1bd 9f50 4b3d ee15 733d 286b 003e
000000e0: c054 b0bc 075f 8e3d 017d f7bc 9fb1 c43d
000000f0: 6410 e7bd e59c d7bd c73f 95bd 25a1 72bd
00000100: 7a07 d53c 4e3c e93d 8826 0cbd 6d6e 663b
00000110: 3245 393c 7314 0cbe 9464 b73b c285 dbbd
00000120: 2640 4ebc 0239 9a3c 4c73 04be 4061 a3ba
00000130: 6411 5cbd 1345 cabc 456b 013e eb2b ae3c
00000140: f622 843c 3eab 1abd 5a1e 9a3d f208 473d
00000150: be1a 80bd 329b d93b 4639 aabc f7f6 08bd
00000160: f391 b53b 3eb3 2e3c 6ccb 8b3c b03b 043e
00000170: 36fb 9d3d b2c0 573d 2d32 973b 03de c5bd
00000180: 7894 54bc 7c5b 2f3d 526a 203c 378c a03d
00000190: 7304 25bd d946 113c a7dd 99bd 8962 573b
000001a0: 3a5f 21bd c057 923c 8a4a 843d d5e2 e7bc
000001b0: 32ae 2bbd 65db 1b3c 57b4 16bd f68b 2fbd
000001c0: 2f2c 73be ca95 a03d 7b48 063d 75a3 c63d
000001d0: 5ea9 80bc 7208 653d 6abd f63c a903 1dbe
000001e0: ef6e 9abd fe40 23bc 29b9 53bc 43fd 7cbb
000001f0: 9513 a6bd ac7d 003d 4579 e9ba 7c07 8bbd
00000200: 363b 853d c38c 133d a475 553e 0c79 fe3c
00000210: e92b 863d f1e3 9e3c e2dd ac3c 23a5 033e
00000220: f619 d3bd 3f5d 0fbd f57c a0bc 9195 bd3d
00000230: bc79 543d a61c 76bd 92c5 183d 310d 29bc
00000240: b9fa 9abd 3484 b1bc 582e 193d 4c95 d13c
00000250: 4299 943d bd02 3e3d 9956 91bd 3de1 d93d
00000260: 3375 ce3d 471f b63d 7b13 f5bd ac33 953d
00000270: 92fe 7f3d cd22 0dbd 6e48 483d 8f67 b6bd
00000280: 1794 4bbd b4c2 16bc aec9 79bd 17bd a93c
00000290: 764e e53c 8f82 073d b435 123b 05eb ce3c
000002a0: d1e8 14be b340 8dbd 51cf 093e 3c6a 2ebc
000002b0: 5b37 aa3d 6215 21be 80bc 083e cd61 023c
000002c0: da70 633b 56b2 ca3c 1155 893c ec8d 1a3c
000002d0: dd00 943d 1ace 833c 193d bd3c f886 663d
000002e0: 0609 df3d 6f6f d2bc e218 1f3c 320b 3a3d
000002f0: 6edc b63d 0aaa af3d c13b b13c c0b4 b1b9
00000300: ba3f f1bb 173a 34bd 9e96 103d 1000 043d
00000310: 052f dbbc 570f f83d e9a6 7bbd 7ee2 5a3d
00000320: 37f1 823c 3fff 23bd af0b eb3d 5a50 a03d
00000330: f3ad c93d 7be8 383d 4f3c 27bd 6d90 e33c
00000340: dd5a 1fbe 3305 bf3c 5d39 6d3d e39a 61bc
00000350: 12a2 aa3d 8fe3 dd3c 2750 b5bd 6d1b b53c
00000360: 3a06 94bd 2f5f bc3b a41c 41bc cdbf 46bd
00000370: 4680 87bc 6a48 583d 728f c7bc fb8f b33d
00000380: aa70 fdbd 6db5 aabb 8039 803d 273f 07be
00000390: 4009 7f3b b708 0dbd 0082 803e e0f3 2fbd
000003a0: 9170 803d cf83 073e 250b 173d 4744 5bbd
000003b0: 1d34 9fbd 27f5 133b bc47 8cbd c961 79bd
000003c0: 2f96 acbd cca5 59ba 7069 93bd 523c e83c
000003d0: 7bb4 87bd 0dec b63d 54db 993d 1da0 843d
000003e0: 7e2c e03d c6d2 943d 6935 303c 4eac f9bc
000003f0: 0f95 a43d 290f 2abc b42a cc3d 0cff 003c
-0.046631247 -0.02619944 0.0046583596 -0.17669109 -0.07022464 0.14355971 -0.034960665 -0.083237
0.038868062 0.06276112 -0.013884885 -0.0008186945 0.012020087 -0.035731185 -0.02595321 -0.013487934
0.07495033 -0.013624359 0.012859346 -0.09728236 0.048475146 -0.087036565 0.009923021 -0.053945437
0.027009461 -0.221551 -0.07405096 0.05132807 0.038520895 0.09414534 -0.021800617 -0.054445915
0.052865777 -0.057208125 -0.025582965 -0.011141327 0.13263212 0.054995146 -0.05175978 0.12228319
0.021042006 0.10501724 0.020359475 0.13297495 -0.11672157 0.032792244 -0.047856096 -0.0168987
0.11698313 -0.027268484 -0.055356983 -0.050027624 -0.11022747 0.049637433 0.059347086 0.12540877
-0.021524787 0.06951719 -0.030210974 0.09604191 -0.11282423 -0.10527972 -0.07287555 -0.05923571
0.026004542 0.11388455 -0.034216434 0.0035161034 0.011308001 -0.13679676 0.0055967066 -0.10718872
-0.012588536 0.018826012 -0.12934607 -0.0012464896 -0.053727522 -0.02469114 0.12638576 0.021261176
0.016129952 -0.037760966 0.0752532 0.048592515 -0.06255101 0.006640815 -0.020779263 -0.03343865
0.00554108 0.010662852 0.017064773 0.12913394 0.0771393 0.052674003 0.0046141357 -0.09661486
-0.012974851 0.042811856 0.009790974 0.07839244 -0.040287446 0.008866989 -0.0751298 0.0032865128
-0.039397456 0.017864108 0.0645953 -0.028306404 -0.041914172 0.009512757 -0.03679308 -0.042858087
-0.23747323 0.0784107 0.032783967 0.09699146 -0.01570576 0.055916257 0.030119617 -0.15333427
-0.0754069 -0.009964226 -0.012922564 -0.0038603104 -0.08109204 0.03136985 -0.001781263 -0.06788537
0.06505434 0.036022913 0.20845658 0.031063579 0.06551344 0.0193958 0.021101896 0.12855963
-0.10307686 -0.035001036 -0.019590834 0.09257043 0.051873907 -0.060085915 0.037297793 -0.0103180865
-0.07567353 -0.021669485 0.037397712 0.025583886 0.07255794 0.04638933 -0.07096595 0.10638664
0.10080948 0.088926844 -0.11966606 0.07285246 0.062498637 -0.034457017 0.0488972 -0.08906471
-0.049701776 -0.009201694 -0.060983352 0.020720048 0.027991515 0.033083495 0.0022309842 0.02525855
-0.14541937 -0.06897106 0.13457991 -0.010645445 0.083113395 -0.15730813 0.13353157 0.007957888
0.0034704716 0.02474324 0.016764196 0.009433251 0.07226727 0.016089488 0.023100423 0.05628106
0.10890393 -0.025687901 0.009710522 0.045420833 0.089287624 0.08577354 0.021634938 -0.0003389474
-0.007362333 -0.04400071 0.03529989 0.032226622 -0.02675582 0.12112301 -0.061438475 0.053438656
0.01598416 -0.040038344 0.11476838 0.07827826 0.09847631 0.045143586 -0.040829 0.027778829
-0.15562005 0.023317909 0.057916034 -0.013769838 0.08331694 0.027086047 -0.088531785 0.022107804
-0.0722775 0.0057486515 -0.011786614 -0.04852276 -0.016540658 0.052803434 -0.024360392 0.087676965
-0.123750046 -0.005209616 0.06260967 -0.13207684 0.0038915426 -0.03443214 0.25099182 -0.042957187
0.0627147 0.13233875 0.036875863 -0.05353191 -0.07773612 0.0022576542 -0.0684962 -0.06088427
-0.08427083 -0.0008302599 -0.07197845 0.028349075 -0.06626221 0.08931742 0.07512537 0.06475852
0.10945986 0.07266764 0.0107549215 -0.03047767 0.08036243 -0.010379591 0.099690825 0.007873308

pool.net.0.0.bias f4 [128]
00000000: 803e 8d3c 09b8 7d3c dafc 4fbc fa76 4f3e
00000010: a0d7 9fbd 9c55 823d b4a0 5e3c 48c0 d03b
00000020: fd0a bdbd 6ef6 18ba 84ec bb3d ca70 8d3c
00000030: c862 da3c 667b 05be d0e7 a4bd e63e e5bb
00000040: f51e b9bd 528f d93d 6ac1 bbbd 2aca 883d
00000050: 6c68 2fbd 28bc 4cbd a6f0 e4bc 387f 99bd
00000060: 665b f63c f1ad cb3c 74e3 47bd 639b 343e
00000070: 8ccc 9dbd 3c63 b4bd 908d 4fbd 5a57 513a
00000080: 28f4 c03d 223a 71bd ef6e 5cbd b415 2f3b
00000090: bd34 cebc 0624 f63d cbec 9cbc f43c 0b3c
000000a0: dde5 9b3d 2703 b2bc cbb4 9e3d 0483 a1bd
000000b0: d54f 9ebc ffb0 db3d 90a9 ddbd d8ad 7abc
000000c0: 6994 753c ca00 8fbd 9a1e 263d 459e f43c
000000d0: a1c3 81bd b9a8 1ebd eeb0 0dbd 4c39 343d
000000e0: 0263 9bbd 9fe5 0cbb f96d 6ebd 007e 7e3d
000000f0: 3671 153d afeb e8bd 21ff b13b 519a 7f3d
00000100: 9672 a2bc 00a5 febc 8077 2b3e a505 96bd
00000110: 8924 293e ffc7 6e3d c677 e13d 3529 7d3e
00000120: f4ae 67bd 0892 b9ba bc62 f6bd 0eb9 79bd
00000130: 0103 6ebd a794 513d 03ef fdba 1a56 4d3d
00000140: ec9d 27bd 72b8 47bd 41b6 d13c 983a d43d
00000150: 880b 0f3e 17de 0cbd e0d9 d7bd 9cd5 b4bb
00000160: 78ab 91bb ce3f 053e 67d7 34be 771a cf3c
00000170: fca1 4b3d 5221 e6bd 30e9 43bd 48e7 8abd
00000180: 06c7 123d 6185 7b3d da57 20bd 9a7c 67bd
00000190: 94a7 fbbd 6ad4 3bbd d125 a93d efc6 cabd
000001a0: 8e26 073e 2f51 e1bc e44d 35bd 942d 9c3d
000001b0: 8b4a 113d 4447 dc3b 2209 82bd f89c bbbd
000001c0: d54f a3bd d79e 6d3d b159 943d 9b69 74bd
000001d0: 0977 773d e5bf c4bd ac8c b0bd d0af 183e
000001e0: 0850 86bd 1b35 bb3d 6dbd 20be 4a70 88bd
000001f0: 2918 ee3d 5ad1 35bc 3651 293c 08e2 b9bc
0.017241716 0.015485772 -0.012694562 0.2026023 -0.07804799 0.06363985 0.013588119 0.006370578
-0.092306115 -0.0005835061 0.09175971 0.017265696 0.02665843 -0.13035354 -0.08052027 -0.0069960235
-0.09039108 0.10623039 -0.0916775 0.06679185 -0.042824194 -0.049984127 -0.027946781 -0.07494968
0.030072879 0.024863215 -0.0488009 0.176374 -0.0770503 -0.0880799 -0.050672114 0.00079857337
0.09421569 -0.05889333 -0.053816732 0.0026715817 -0.025171632 0.1201859 -0.01915588 0.008498419
0.07612202 -0.021730019 0.07749327 -0.07886317 -0.019325176 0.10727119 -0.10823357 -0.015300237
0.014988997 -0.069825724 0.040556528 0.029860625 -0.063361414 -0.038735125 -0.03459256 0.043999955
-0.075872436 -0.002149917 -0.058210347 0.06213188 0.03648492 -0.11373078 0.005432025 0.062403027
-0.01983003 -0.031084538 0.16744804 -0.07325295 0.16517843 0.0582962 0.11009173 0.2472275
-0.056563333 -0.0014157901 -0.12030551 -0.060967498 -0.058108333 0.051167157 -0.0019373599 0.05013094
-0.04092209 -0.048759885 0.0255996 0.10362738 0.13969243 -0.03439149 -0.10539603 -0.0055186283
-0.0044454895 0.13012621 -0.17660294 0.025281174 0.049715027 -0.11236824 -0.047829807 -0.06782395
0.035834335 0.061406497 -0.03914628 -0.056515314 -0.12287822 -0.04585687 0.08259166 -0.09901225
0.13198301 -0.027504532 -0.044263735 0.07625881 0.03547148 0.0067223627 -0.06349398 -0.09160799
-0.07974211 0.05801281 0.0724367 -0.059671026 0.060416255 -0.096069135 -0.08620581 0.14910817
-0.065582335 0.091409884 -0.1569726 -0.066620424 0.11625702 -0.011097277 0.010334304 -0.022690788

pool.net.0.2.weight f4 [128]
00000000: 6df1 883f d295 773f 1683 6a3f bc68 6f3f
00000010: 3277 843f 5a44 6b3f e500 813f 4260 8b3f
00000020: ffbd 843f f2a6 8b3f aa93 733f 1011 9a3f
00000030: 95f6 7a3f eb38 823f 8a90 6a3f ee39 9c3f
00000040: 2aef 823f 99d2 833f 8808 703f b196 5d3f
00000050: ca05 843f d2e5 813f 8030 893f 4861 953f
00000060: 9136 7a3f 4b5c 673f da02 863f 609f 6e3f
00000070: 0564 803f 4934 7e3f 6bb2 8b3f e89f 813f
00000080: 5c4f 6b3f a126 8f3f c118 853f c3aa 5b3f
00000090: 20bb 953f f678 873f 1f09 823f 58fe 7d3f
000000a0: 052f 6f3f ae37 693f 6f1c 5f3f 042d 763f
000000b0: bf22 833f 2241 8a3f 2688 833f 2ed8 8f3f
000000c0: 4299 893f 874d 923f 9241 693f 488e 5e3f
000000d0: a1b1 943f ce55 6e3f 3884 813f 11b0 853f
000000e0: 0712 5a3f f7d2 563f abcd 8c3f 5e8f 743f
000000f0: debb 883f 2081 823f 46cc 6b3f 8496 6d3f
00000100: 6e88 743f 96d3 893f 48c4 663f b3d3 683f
00000110: 27a4 7b3f de7d 633f 6f15 733f 1db9 6b3f
00000120: 1aee 873f 5045 8c3f a15d 3a3f 595e 7e3f
00000130: df83 803f 4176 843f a015 743f e02b 663f
00000140: aefc 7d3f fea8 793f 0de5 703f 2922 753f
00000150: 182f 603f e633 6c3f e5c2 6a3f 35d7 8f3f
00000160: 4305 723f b3ba 763f 1b50 7a3f cbe8 7e3f
00000170: 4862 843f 85db 643f c105 723f 1b7c 813f
00000180: a89f 623f fbbb 6e3f c801 813f cf17 643f
00000190: 5ea6 6e3f f82a 603f 276c 8b3f 6e11 813f
000001a0: 5238 833f 535c 8a3f 52f5 863f 121b 8a3f
000001b0: 2578 783f 0fdd 6c3f be9f 813f 0b20 8a3f
000001c0: 7455 763f 3631 8a3f 8e98 813f 2927 6b3f
000001d0: a505 6e3f 82b0 8a3f 4353 743f 283b 7d3f
000001e0: c152 5c3f d9a1 693f dcff 753f 1a00 8f3f
000001f0: 20da 773f d40d 723f 87fe 803f ee3a 7d3f
1.0698677 0.9671298 0.9160627 0.93519187 1.0348876 0.9190117 1.0078398 1.088875
1.0370482 1.0910323 0.9514719 1.2036457 0.98032504 1.017362 0.916268 1.2205179
1.0229237 1.0298644 0.9376302 0.8655806 1.0314267 1.014826 1.0717926 1.1670313
0.9773951 0.903752 1.046962 0.93211937 1.0030524 0.9929853 1.0913824 1.0126925
0.9191797 1.1183664 1.0398179 0.85807437 1.1697731 1.0583789 1.0159034 0.9921622
0.9343112 0.91100585 0.8715276 0.9616244 1.0244979 1.0801127 1.0275924 1.1237848
1.0749896 1.142991 0.9111568 0.86935854 1.1616708 0.9309968 1.0118475 1.0444356
0.8518376 0.83915657 1.1000265 0.9553126 1.0682333 1.0195656 0.9210857 0.92807794
0.95520675 1.0767696 0.9014325 0.9094803 0.9829735 0.88863933 0.9495458 0.92079335
1.0619538 1.0958652 0.72799116 0.99362713 1.0040244 1.0348588 0.953455 0.899107
0.99213684 0.97523487 0.94099504 0.9575525 0.8757186 0.9226669 0.91703635 1.1237551
0.9453928 0.9637863 0.9777848 0.99573964 1.0342493 0.8939746 0.9454003 1.0115999
0.88524866 0.93255585 1.0078669 0.8909883 0.93222606 0.87565565 1.089238 1.0083444
1.0251563 1.0809425 1.0543616 1.0789511 0.97058326 0.9252481 1.0126874 1.0791029
0.9622414 1.0796268 1.0124681 0.9185663 0.9297736 1.0835116 0.9543955 0.9891839
0.8606377 0.91262585 0.96093535 1.1171906 0.9681721 0.9455235 1.0077676 0.98918045
