hepgnn_4top_resampling/result/train20220804_4top_cla_alledge_w2_L1/weight.pth (torch, 152509 bytes, 25 tensors)

conv1.conv.local_nn.0.0.weight f4 [64, 7]
0	0x3ebfbda9	0.37449387
1	0x3e93e580	0.28886032
2	0x3eb6e7d5	0.3572375
3	0xbc6ff283	-0.014645222
4	0xbe868c62	-0.2627898
5	0xbe986368	-0.2976334
6	0xbdf53e9b	-0.11974832
7	0x3d0425c0	0.032262564
8	0xbde12f73	-0.10995378
9	0xbe8c1116	-0.27356786
10	0xbcd8f05a	-0.026481796
11	0x3e794f7b	0.24346726
12	0x3e905a60	0.2819395
13	0xbe4d66ad	-0.20058699
14	0xbe5de5da	-0.21669713
15	0xbc8ea111	-0.017410787
16	0x3e2a5f51	0.16637923
17	0x3e2d40f0	0.16919303
18	0xbe10105e	-0.14068744
19	0x3e060d8b	0.13091104
20	0xbd839b60	-0.0642612
21	0xbd39cbb6	-0.04536029
22	0xbe9ceeed	-0.30651036
23	0x3e8a9fe8	0.27075124
24	0xbe88778f	-0.26653716
25	0x3dc0ea96	0.09419744
26	0xbe41b3fb	-0.18916313
27	0xbea32558	-0.3186443
28	0xbca6466d	-0.020297254
29	0x3df4e402	0.119575515
30	0xbeb1f764	-0.34759057
31	0x3cde630a	0.027146835
32	0xbe1dfc4e	-0.15428278
33	0xbe05c9b1	-0.1306522
34	0xbe43ca6c	-0.19120187
35	0xbd40deae	-0.047087364
36	0x3eae1538	0.34000564
37	0xbeba096e	-0.3633532
38	0xbe371b85	-0.17881592
39	0x3ea4753e	0.321207
40	0xbca2f70e	-0.019893195
41	0xbda0d210	-0.07852566
42	0x3dccc216	0.099979565
43	0xbe4b5857	-0.19857918
44	0x3e3dc679	0.18532743
45	0xbe7641ea	-0.24048582
46	0xbdf68e4f	-0.12038862
47	0x3eb54668	0.35405278
48	0xbc3e2dad	-0.01160757
49	0xbe990fa1	-0.29894736
50	0x3e6888c7	0.22708426
51	0xbe809ae4	-0.25118172
52	0xbcc7ce67	-0.024390412
53	0xba8f25ec	-0.0010921336
54	0xbe2a8d31	-0.16655423
55	0x3e2d385d	0.16916032
56	0xbd61e192	-0.05514676
57	0x3e487e46	0.1957942
58	0x3e34d48f	0.1765921
59	0xbe9c0101	-0.30469516
60	0x3e8692d5	0.262839
61	0xbc072235	-0.008247902
62	0x3e907828	0.28216672
63	0x3e81f3f1	0.25381425
64	0xbdbe87ca	-0.093032435
65	0xbe10720e	-0.14106008
66	0xbe08d29d	-0.13361593
67	0xbe258ec5	-0.16167744
68	0x3e632acf	0.22184299
69	0x3eab1197	0.33411857
70	0x3e20b6a1	0.15694667
71	0x3eb3915a	0.35071832
72	0x3d62cd97	0.055371847
73	0x3db3df18	0.08782786
74	0xbe56a320	-0.20960665
75	0x3e9e1bea	0.30880672
76	0xbe8d8daa	-0.27647144
77	0x3e6e4e97	0.23272167
78	0xbd677a73	-0.05651326
79	0xbe235cc3	-0.15953355
80	0x3bd744bf	0.0065694745
81	0x3e769aaa	0.24082437
82	0xbea32dc7	-0.31870863
83	0xbeb37f70	-0.35058165
84	0xbd8dac4a	-0.06917627
85	0xbebfcda3	-0.37461576
86	0x3d525f12	0.051360197
87	0xbe890458	-0.26761127
88	0xbeadb26c	-0.33925188
89	0xbe1d3869	-0.1535355
90	0xbe4f63aa	-0.20252863
91	0xbb308eb3	-0.0026940524
92	0x3e9ff4ba	0.312414
93	0xbe0afdab	-0.13573329
94	0x3d5e95b2	0.05434198
95	0x3e347845	0.17624004
96	0x3d3c5910	0.045983374
97	0x3d9e26d1	0.077222474
98	0x3d195a9d	0.03743993
99	0x3e562f31	0.2091644
100	0xbea06ae2	-0.31331545
101	0xbe2d4735	-0.16921695
102	0x3ed0ec3c	0.40805233
103	0xbca73a31	-0.02041349
104	0x3e97173a	0.29509908
105	0xbe9a9ae9	-0.30196312
106	0x3dacdd97	0.084407024
107	0xbc350a62	-0.011049839
108	0xbeb5c2d1	-0.35500196
109	0x3dad7a78	0.08470625
110	0xbd242de3	-0.040082823
111	0xbebbd3e8	-0.3668511
112	0xbdf0d609	-0.11759574
113	0x3e9f6fd8	0.31140018
114	0x3d9b4a7e	0.07582568
115	0xbe6c580b	-0.2308046
116	0xbe47bd53	-0.19505815
117	0xbe309812	-0.1724551
118	0xbe489178	-0.19586742
119	0x3d502419	0.050815675
120	0xbe2b663c	-0.16738218
121	0x3e64ce28	0.22344267
122	0x3e7d415e	0.24731967
123	0x3e8cb318	0.27480388
124	0xbd6e3c28	-0.05816284
125	0x3eb2c1db	0.34913525
126	0xbea201ad	-0.31641904
127	0xbe50d0ca	-0.20392147
128	0xbe5c45f3	-0.21511059
129	0x3e34dc91	0.17662264
130	0xbeb80698	-0.3594253
131	0xbe3764b4	-0.17909509
132	0x3e1a4980	0.150671
133	0x3ec4bf52	0.38427216
134	0x3e70a9aa	0.23502222
135	0x3e14a967	0.14517747
136	0xbe71fc33	-0.23631363
137	0x3e058765	0.1303993
138	0xbde600f4	-0.112306505
139	0x3b35d2d9	0.0027744083
140	0xbd008e5b	-0.03138576
141	0x3eb65322	0.356103
142	0x3e7686db	0.24074881
143	0x3d45df46	0.048308633
144	0xbeb8f944	-0.36127675
145	0x3e9dfdb6	0.3085763
146	0x3ea754dc	0.3268193
147	0x3dde0fc7	0.10842853
148	0xbec4473c	-0.38335598
149	0xbea999ca	-0.33125144
150	0x3e1c9bb0	0.15293765
151	0xbece28df	-0.40265557
152	0x3e0214d9	0.12703265
153	0x3d6ca4ee	0.057774477
154	0x3eb55e26	0.35423392
155	0x3e070cbb	0.1318845
156	0x3e811372	0.25210148
157	0x3dd86daf	0.105677955
158	0xbe20f1fa	-0.15717307
159	0xbe2f31df	-0.17108868
160	0xbeb622ff	-0.35573575
161	0xbd8beb3b	-0.06831976
162	0x3c80bb8c	0.01571443
163	0xbdf0d4d5	-0.117593445
164	0x3dc20cd4	0.09475103
165	0x3e83727e	0.25673288
166	0x3caf73e3	0.021417564
167	0xbe0b643e	-0.13612458
168	0xbea89f48	-0.32934022
169	0xbe46ea59	-0.19425334
170	0x3dee6aa0	0.11641431
171	0xbeb4366d	-0.35197774
172	0xbec0464b	-0.3755363
173	0x3ca839d7	0.020535393
174	0x3c1e9468	0.0096789375
175	0xbe98260f	-0.29716536
176	0x3db6c549	0.08924348
177	0x3e294be9	0.16532864
178	0xbe96a04f	-0.2941918
179	0xbd65de60	-0.056120276
180	0x3e65567f	0.22396277
181	0x3eac9e20	0.3371439
182	0xbe8758d9	-0.26434973
183	0xbe500431	-0.20314099
184	0xbe5b3218	-0.21405828
185	0xbe45059f	-0.19240426
186	0xbe7ae63e	-0.24501893
187	0x3e947f32	0.29003292
188	0xbc9ce32a	-0.019151289
189	0xbe932f12	-0.2874685
190	0xbe89214f	-0.26783225
191	0xbea4868c	-0.321339
192	0xbeb5dc02	-0.35519415
193	0x3cb301a4	0.021851368
194	0x3d254ed7	0.04035839
195	0x3e5e6f89	0.21722235
196	0x3e9dfeb2	0.3085838
197	0x3ea4f5a4	0.3221866
198	0x3e9a9fb6	0.30199975
199	0xbdf17b73	-0.11791124
200	0xbeaa4617	-0.332566
201	0xbdb36f98	-0.08761519
202	0xbd8b8f8d	-0.068144895
203	0xbc86ed8b	-0.016470691
204	0x3c1302b8	0.008972816
205	0xbe60315e	-0.21893832
206	0xbea26417	-0.31716987
207	0xbe243b02	-0.16038135
208	0x3d91c52e	0.07117687
209	0x3e43d1d3	0.1912301
210	0xbead8d1c	-0.3389672
211	0xbeadcdd4	-0.33946097
212	0xbcb13adb	-0.02163451
213	0xbe145736	-0.14486393
214	0xbe1dbfa9	-0.15405144
215	0xbebb2669	-0.36552742
216	0x3e2dd963	0.16977458
217	0xbd8256f0	-0.06364238
218	0x3e98a3d4	0.2981249
219	0xbe788c37	-0.24272238
220	0xbeafd63f	-0.34343144
221	0xbba0b5cf	-0.004904486
222	0x3db7c9e4	0.089740545
223	0x3e619ac1	0.2203169
224	0xbd370eae	-0.044691734
225	0x3e94a7cd	0.29034272
226	0xbe532d8f	-0.20622848
227	0xbea3ed15	-0.32016817
228	0xbe3ef04a	-0.1864635
229	0xbe1aa29b	-0.15101092
230	0x3e06153c	0.13094038
231	0x3e8ddb82	0.27706534
232	0x3eba1bd6	0.36349362
233	0xbe3e848a	-0.18605247
234	0xbde8083e	-0.11329697
235	0xbbd4b53e	-0.0064913323
236	0x3e0d407d	0.13794132
237	0xbe088909	-0.13333525
238	0xbe098592	-0.1342986
239	0x3d86707a	0.06564422
240	0xbe768dd8	-0.24077547
241	0x3ea5fe7c	0.3242072
242	0xbea84651	-0.32866147
243	0xbeaaf652	-0.33391052
244	0xbca7a13c	-0.020462625
245	0xbe88b54f	-0.26700827
246	0xbe28a6d2	-0.16469887
247	0x3e5f83da	0.21827641
248	0x3adf6083	0.0017042313
249	0xbd2fd595	-0.042928297
250	0xbeb3a444	-0.35086262
251	0xbdfcc801	-0.12342835
252	0xbe014189	-0.12622656
253	0x3e8e99b0	0.2785163
254	0x3e183556	0.14864096
255	0xbd0ddae0	-0.034632564

conv1.conv.local_nn.0.0.bias f4 [64]
0	0xbdb1df27	-0.08685141
1	0xbe602797	-0.21890102
2	0x3de9f1a7	0.11423045
3	0xbeb553cb	-0.3541549
4	0xbe2255ce	-0.15853044
5	0xbe857cbe	-0.26071733
6	0x3e30728e	0.17231199
7	0x3df782c4	0.120854884
8	0x3ea492ed	0.32143345
9	0xbd6dd03b	-0.058059912
10	0x3ea03c46	0.31295985
11	0xbe84dc16	-0.25949162
12	0xbe7a44c5	-0.24440296
13	0xbe789673	-0.24276142
14	0x3d9eb8a2	0.0775006
15	0xbeaf3cf6	-0.34226197
16	0x3e832eec	0.25621736
17	0xbe8e3295	-0.27772966
18	0x3e248599	0.16066588
19	0xbe29b8f6	-0.16574463
20	0x3c631617	0.013860247
21	0xbdd235e3	-0.10264184
22	0x3e37d787	0.17953311
23	0x3eb2c794	0.3491789
24	0xbebec39a	-0.37258607
25	0xbea5ea89	-0.324055
26	0xbd0057d6	-0.031333767
27	0x3c5995f2	0.013280379
28	0x3eb8939d	0.3605012
29	0x3e2f76a1	0.17135097
30	0xbb56d1d4	-0.0032778876
31	0xbea67c6a	-0.32516795
32	0x3daadf51	0.083433755
33	0xbe151ea7	-0.14562474
34	0x3e144138	0.14478004
35	0xbe09878e	-0.13430616
36	0xbca60253	-0.02026478
37	0x3e86d0ea	0.26331264
38	0x3edfa4c2	0.43680388
39	0xbeaa1e98	-0.33226466
40	0xbe6a97b2	-0.2290943
41	0xbe14d804	-0.14535528
42	0xbc2c57c5	-0.010518973
43	0x3e861b45	0.2619268
44	0x3e6b89dc	0.23001808
45	0xbd01a6f3	-0.031653356
46	0xbe88e24c	-0.2673515
47	0x3eac42b8	0.33644652
48	0xbe11d354	-0.14240772
49	0xbe2d0ac8	-0.16898644
50	0x3e2f9983	0.17148404
51	0x3e55472d	0.20827933
52	0x3de9c4be	0.11414479
53	0xbdb8b042	-0.090179935
54	0xbd982e60	-0.0743072
55	0xbde1b57d	-0.11020944
56	0x3e8df87e	0.27728647
57	0x3e569056	0.20953497
58	0x3e28a295	0.1646827
59	0xbd144bfb	-0.036205273
60	0x3e3a8673	0.18215351
61	0x3e162326	0.14661846
62	0xbe082458	-0.13295114
63	0xbe1703fd	-0.14747615

conv1.conv.local_nn.0.2.weight f4 [64]
0	0x3f809916	1.0046718
1	0x3f8057d5	1.0026804
2	0x3f800000	1.0
3	0x3f800000	1.0
4	0x3f77a898	0.9674163
5	0x3f800000	1.0
6	0x3f7fa59b	0.9986207
7	0x3f800000	1.0
8	0x3f7a7f6a	0.9785067
9	0x3f7bacfc	0.9831083
10	0x3f8077e5	1.0036589
11	0x3f7e2bf6	0.9928583
12	0x3f800000	1.0
13	0x3f833fae	1.0253808
14	0x3f82664b	1.0187467
15	0x3f800000	1.0
16	0x3f800000	1.0
17	0x3f7f7819	0.9979263
18	0x3f800000	1.0
19	0x3f7dfefc	0.992172
20	0x3f78d7f1	0.972045
21	0x3f8039bb	1.0017618
22	0x3f7dd84e	0.9915818
23	0x3f7a3a62	0.97745335
24	0x3f800000	1.0
25	0x3f800000	1.0
26	0x3f800000	1.0
27	0x3f800000	1.0
28	0x3f7f07a2	0.9962102
29	0x3f761b79	0.9613567
30	0x3f800000	1.0
31	0x3f800000	1.0
32	0x3f800000	1.0
33	0x3f7e9c34	0.994571
34	0x3f800000	1.0
35	0x3f800000	1.0
36	0x3f800000	1.0
37	0x3f800000	1.0
38	0x3f88476f	1.06468
39	0x3f7ea4b7	0.99470085
40	0x3f800000	1.0
41	0x3f800000	1.0
42	0x3f8115df	1.00848
43	0x3f802810	1.0012226
44	0x3f7eb671	0.99497133
45	0x3f800000	1.0
46	0x3f807f04	1.0038762
47	0x3f808b8e	1.0042589
48	0x3f7ee18a	0.99562895
49	0x3f800000	1.0
50	0x3f800000	1.0
51	0x3f7d3557	0.98909515
52	0x3f7d59fb	0.98965424
53	0x3f7dfcd1	0.9921389
54	0x3f7f900f	0.9982919
55	0x3f7f0dc8	0.99630404
56	0x3f800000	1.0
57	0x3f800000	1.0
58	0x3f800000	1.0
59	0x3f800000	1.0
60	0x3f800000	1.0
61	0x3f801c8f	1.0008715
62	0x3f7de2c9	0.9917417
63	0x3f800000	1.0

conv1.conv.local_nn.0.2.bias f4 [64]
0	0x3aafb785	0.0013406134
1	0xbc821e42	-0.015883569
2	0xbcd70b40	-0.026250482
3	0x3be45c36	0.006969
4	0x3ca8038d	0.020509506
5	0x3c843a01	0.01614094
6	0xbaeaa296	-0.0017901238
7	0xbcba94fe	-0.022776123
8	0xbd721635	-0.05910321
9	0xbbb1d059	-0.0054264483
10	0x3cbc8067	0.023010446
11	0xbc71d4ae	-0.014760179
12	0xbc5da017	-0.013526938
13	0x3be7e487	0.007076803
14	0xbc54c48a	-0.012986312
15	0x3ce7c820	0.02829367
16	0xb9c3df0f	-0.0003735949
17	0x3c00c063	0.007858369
18	0x3c3622af	0.011116668
19	0xbc099232	-0.008396672
20	0xb98b0d14	-0.0002652189
21	0xbb94be1e	-0.0045392653
22	0x3c07db70	0.008292064
23	0x3bc8434f	0.0061115394
24	0xbb155b4f	-0.002279002
25	0x3cc7a510	0.0243707
26	0xbd0fd11e	-0.03511154
27	0x3be8e12a	0.00710692
28	0x3d485912	0.04891307
29	0xbc30a045	-0.010780399
30	0xbb62adb5	-0.00345884
31	0x3c0eadc8	0.008708425
32	0x3cf9b6ba	0.030482639
33	0xbc1718d8	-0.009222232
34	0x3c1889ac	0.009310167
35	0xbcbade94	-0.022811212
36	0x3c2b693a	0.0104621
37	0x3d406f92	0.0469814
38	0xbca85b99	-0.02055149
39	0xbbbbafb6	-0.0057277335
40	0xbc47e797	-0.012201211
41	0x3c36b67e	0.011151908
42	0xbc4a9ce9	-0.012366512
43	0xbce15ef4	-0.027511097
44	0x3cf34dfc	0.029700272
45	0x3cb239c3	0.021756059
46	0x3c6f6d5a	0.014613474
47	0x3d2943db	0.041324478
48	0x3d8342b9	0.06409211
49	0xbc978cd5	-0.018499771
50	0x3be36010	0.006938942
51	0xbc8f1dd7	-0.017470283
52	0xbd182c0a	-0.037151374
53	0xbc065b5d	-0.008200494
54	0xbc1fa6d3	-0.009744364
55	0x3d01af77	0.031661477
56	0xbd642740	-0.055701494
57	0x3d12561f	0.035726663
58	0x3cb26ffa	0.02178191
59	0x3aee07f5	0.001816033
60	0xbcfa1fc5	-0.030532727
61	0x3c5b5b7b	0.01338851
62	0x3c768b7b	0.015047903
63	0xbd016fe5	-0.03160085

conv1.conv.local_nn.0.2.running_mean f4 [64]
0	0x424a4258	50.56479
1	0x4060984a	3.509295
2	0x00000000	0.0
3	0x00000000	0.0
4	0x3c24763a	0.010037953
5	0x00000000	0.0
6	0x411e17f4	9.880848
7	0x00000000	0.0
8	0x30843097	9.618074e-10
9	0x42012ade	32.291862
10	0x41b8959a	23.073048
11	0x420075d6	32.115074
12	0x00000000	0.0
13	0x3ec50497	0.38480064
14	0x4015a44c	2.338153
15	0x00000000	0.0
16	0x00000000	0.0
17	0x412b2fbe	10.699156
18	0x00000000	0.0
19	0x4240a6d8	48.162933
20	0x3d357b2f	0.04430693
21	0x418ba9d4	17.457924
22	0x42494426	50.31655
23	0x344673ad	1.848227e-07
24	0x00000000	0.0
25	0x00000000	0.0
26	0x00000000	0.0
27	0x00000000	0.0
28	0x4221c5a0	40.442993
29	0x36bbeafe	5.600391e-06
30	0x00000000	0.0
31	0x00000000	0.0
32	0x00000000	0.0
33	0x420eaeda	35.670753
34	0x00000000	0.0
35	0x00000000	0.0
36	0x00000000	0.0
37	0x00000000	0.0
38	0x3f4ae200	0.792511
39	0x4195b91b	18.715384
40	0x00000000	0.0
41	0x00000000	0.0
42	0x41c9d589	25.229265
43	0x42363c7d	45.55907
44	0x42205bd4	40.089676
45	0x00000000	0.0
46	0x40b6739f	5.701614
47	0x4204ff81	33.249516
48	0x407227ac	3.7836714
49	0x00000000	0.0
50	0x00000000	0.0
51	0x418ea5ec	17.831017
52	0x41932297	18.39189
53	0x42040e81	33.014164
54	0x40212b92	2.5182843
55	0x4203ddbd	32.96654
56	0x00000000	0.0
57	0x00000000	0.0
58	0x00000000	0.0
59	0x00000000	0.0
60	0x00000000	0.0
61	0x407a44f4	3.9104586
62	0x4109c1f3	8.609851
63	0x00000000	0.0

conv1.conv.local_nn.0.2.running_var f4 [64]
0	0x45151351	2385.2073
1	0x415d70c0	13.840027
2	0x253c9124	1.6355576e-16
3	0x253c9124	1.6355576e-16
4	0x3b880bc4	0.004151793
5	0x253c9124	1.6355576e-16
6	0x42d2f56f	105.47936
7	0x253c9124	1.6355576e-16
8	0x2f0c6f66	1.2772503e-10
9	0x44791b25	996.42413
10	0x43eba8f8	471.32007
11	0x4473320e	972.7821
12	0x253c9124	1.6355576e-16
13	0x3eba84d2	0.3642946
14	0x411378be	9.216978
15	0x253c9124	1.6355576e-16
16	0x253c9124	1.6355576e-16
17	0x42ce6e0d	103.21494
18	0x253c9124	1.6355576e-16
19	0x450b966e	2233.4019
20	0x3d52ee27	0.05149665
21	0x43896b57	274.8386
22	0x4510273c	2306.4521
23	0x323a079d	1.0828356e-08
24	0x253c9124	1.6355576e-16
25	0x253c9124	1.6355576e-16
26	0x253c9124	1.6355576e-16
27	0x253c9124	1.6355576e-16
28	0x44bdb473	1517.639
29	0x35bd8c42	1.4122418e-06
30	0x253c9124	1.6355576e-16
31	0x253c9124	1.6355576e-16
32	0x253c9124	1.6355576e-16
33	0x4497bfbb	1213.9916
34	0x253c9124	1.6355576e-16
35	0x253c9124	1.6355576e-16
36	0x253c9124	1.6355576e-16
37	0x253c9124	1.6355576e-16
38	0x3fc3e3c0	1.5303879
39	0x43c05de5	384.73355
40	0x253c9124	1.6355576e-16
41	0x253c9124	1.6355576e-16
42	0x44104158	577.021
43	0x44ed0e80	1896.4531
44	0x44aff0cc	1407.5249
45	0x253c9124	1.6355576e-16
46	0x41f8f827	31.121168
47	0x4473fb9f	975.9316
48	0x41a582fa	20.688953
49	0x253c9124	1.6355576e-16
50	0x253c9124	1.6355576e-16
51	0x439de3ec	315.78064
52	0x43ab806c	343.0033
53	0x447a06f3	1000.1086
54	0x4128ec48	10.557686
55	0x44860b13	1072.3461
56	0x253c9124	1.6355576e-16
57	0x253c9124	1.6355576e-16
58	0x253c9124	1.6355576e-16
59	0x253c9124	1.6355576e-16
60	0x253c9124	1.6355576e-16
61	0x414ac475	12.672963
62	0x429d2b03	78.58401
63	0x253c9124	1.6355576e-16

conv1.conv.local_nn.1.0.weight f4 [128, 64]
0	0x3d63db2f	0.05562895
1	0x3b114570	0.0022166632
2	0x3dfff74d	0.12498341
3	0x3d5ff2a9	0.054674778
4	0x3da939c6	0.082629725
5	0xbe039c19	-0.12852515
6	0xbdf703fc	-0.12061307
7	0x3dbbc278	0.09167951
8	0xbc49c84c	-0.012315821
9	0xbdfe8794	-0.12428203
10	0xbd588d48	-0.05286911
11	0xbd6f478c	-0.05841784
12	0xbd8b1884	-0.06791785
13	0x3cff4dc7	0.031165017
14	0x3c9304fa	0.017946709
15	0xbdcd3e65	-0.100216664
16	0xbdd4e661	-0.10395504
17	0x3db16c4b	0.08663233
18	0x3d3085ab	0.043096226
19	0x3d1a1334	0.03761597
20	0x3d41abfd	0.04728316
21	0xbc7d3eb0	-0.01545684
22	0xbc642442	-0.01392466
23	0xbd24beb3	-0.040220927
24	0xbdc26477	-0.094918184
25	0xbdef5fa0	-0.11688161
26	0x3def5b35	0.11687318
27	0xbd484506	-0.04889395
28	0x3bccf104	0.0062543172
29	0xbd9ad1ea	-0.07559569
30	0x3d04c6dd	0.032416213
31	0x3cd18d0c	0.025579952
32	0xbda9c8e9	-0.08290274
33	0xbdda849c	-0.106698245
34	0xbdcf087b	-0.101090394
35	0xbd9e410c	-0.077272505
36	0x3de4919a	0.11160584
37	0xbddc7547	-0.107645564
38	0xbcf36771	-0.02971241
39	0x3d9a8d2f	0.0754646
40	0x3d8c0560	0.06836963
41	0xbcd955fe	-0.026530262
42	0x3a9f8f0a	0.0012173366
43	0x3a8dd293	0.0010820202
44	0x3b07b9cc	0.0020710109
45	0xbd58f594	-0.052968577
46	0x3c91cd5d	0.01779812
47	0x3d55fd9a	0.052243806
48	0xbd8dbd06	-0.06920819
49	0x3dd7cd76	0.105372354
50	0x3cb9d522	0.022684637
51	0xbd17319f	-0.036912557
52	0x3d3e6ea9	0.046492252
53	0x3d411c58	0.04714617
54	0x3d22d3a2	0.03975261
55	0xbd09d8b6	-0.033653937
56	0x3dcdefd4	0.10055509
57	0xbd18884a	-0.03723935
58	0x3d56048f	0.05225044
59	0xbda108c7	-0.07863002
60	0xbb4f78b7	-0.0031657645
61	0x3d6f330f	0.058398303
62	0x3c5c0c7c	0.013430711
63	0x3d9df48c	0.07712659
64	0xbd54316b	-0.05180494
65	0xbcbb4315	-0.022859136
66	0x3e1d34cc	0.15352172
67	0xbd96f591	-0.07371057
68	0x3d30d8a5	0.04317536
69	0xbe2007ad	-0.15627928
70	0x3d9a7a22	0.07542826
71	0x3e05cded	0.13066836
72	0x3c9017ec	0.017589532
73	0xbc562310	-0.013069883
74	0x3d7e1aa9	0.062037144
75	0x3ce941eb	0.028473815
76	0x3da0b525	0.078470506
77	0x3ccdc978	0.025120482
78	0xbdcf7f6f	-0.10131728
79	0xbdf0499d	-0.117327906
80	0x3dc8afa3	0.09799125
81	0x3c9f030b	0.01941063
82	0x3d6df1d1	0.058091942
83	0x3d97f4bc	0.07419726
84	0xbd409f85	-0.04702713
85	0xbda45c61	-0.080254324
86	0x3dbdedf5	0.09273902
87	0xbd01c40a	-0.031681098
88	0x3d70a068	0.058746725
89	0xbde8b245	-0.11362127
90	0x3cc4874b	0.023990294
91	0xbc98c270	-0.018647403
92	0x3b416370	0.0029508732
93	0x3dc256e8	0.09489232
94	0x3c8a4aa4	0.016881295
95	0x3cf1c648	0.029513493
96	0x3da31bed	0.07964311
97	0xbde90de1	-0.113796
98	0xbbc33245	-0.0059569203
99	0x3df4ce08	0.1195336
100	0xbc8b7a1a	-0.017025996
101	0xbcd0c213	-0.025483167
102	0x3db11834	0.086471945
103	0x3d21a5e4	0.039464846
104	0x3b866414	0.0041012857
105	0x3d8bf708	0.06834227
106	0xbd63c759	-0.055610035
107	0x3dcf2c2c	0.10115847
108	0x3e01b54d	0.12666817
109	0x3d80d0a6	0.062897965
110	0x3d642a9a	0.05570469
111	0xbd3c1502	-0.045918472
112	0x3d91cb70	0.07118881
113	0x3c745069	0.014911749
114	0xbde6a9cc	-0.11262855
115	0x3da65c6e	0.08123098
116	0x3c569be0	0.013098687
117	0x3dbe7541	0.09299708
118	0xbd16fff7	-0.0368652
119	0x3c7ce362	0.015435072
120	0x3d8eeec2	0.06979133
121	0xbdd8ef41	-0.10592509
122	0xbaa8262c	-0.0012828759
123	0x3d3a4765	0.045478243
124	0x3e05a7d1	0.13052298
125	0x3d9da5ac	0.07697615
126	0x3db32120	0.087465525
127	0xbb05cf75	-0.0020417843
128	0xbd242bb5	-0.040080745
129	0xbc6335cb	-0.013867806
130	0x3e14f2a0	0.14545679
131	0xbd63aa6b	-0.055582445
132	0xbd84d80b	-0.064865194
133	0x3d2b6aa8	0.041849762
134	0x3b45c198	0.0030175205
135	0xbd52fa11	-0.051508013
136	0xbd5f9dee	-0.054593973
137	0x3dc6086a	0.096695736
138	0x3d0dc1cf	0.03460866
139	0x3de0de44	0.10979894
140	0xbd800caa	-0.062524155
141	0x3df5a3d5	0.11994139
142	0xbcdf5f46	-0.02726711
143	0xbc8951cb	-0.016762635
144	0x3cb4aa41	0.02205384
145	0xbd814899	-0.06312675
146	0xbd26eeeb	-0.040755194
147	0xbcf2e8ca	-0.029652018
148	0x3d990b02	0.07472803
149	0xbdaf9061	-0.0857246
150	0x3d035803	0.032066356
151	0xbdf3b28f	-0.11899292
152	0xbc7980c7	-0.015228457
153	0xbd9b6253	-0.07587113
154	0xbd0ae561	-0.03391016
155	0xbd98d45e	-0.07462381
156	0x3d0c6730	0.034278095
157	0xbd7517f6	-0.059837304
158	0xbd0f512d	-0.034989525
159	0xbde219f1	-0.11040104
160	0xbd5e74b7	-0.054310527
161	0x3c956270	0.018235415
162	0xbde96f3e	-0.11398171
163	0x3cc8b7be	0.024501678
164	0x3d3c0c7f	0.045910355
165	0xbd708aeb	-0.058726232
166	0xbdd976dc	-0.10618374
167	0xbdea8607	-0.11451345
168	0x3e000cb2	0.12504843
169	0x3ca90fe6	0.020637464
170	0x3dbec22f	0.09314381
171	0x3db124ea	0.08649619
172	0xbcb1948f	-0.021677284
173	0xbd4af28e	-0.049547724
174	0x3d08bfb8	0.033385962
175	0x3d4c2f8a	0.049850024
176	0xbd30addb	-0.04313455
177	0xbd8e8b9b	-0.069602214
178	0x3ddb4e8c	0.10708341
179	0x3d8f554c	0.06998691
180	0x379ec390	1.8926134e-05
181	0x3db2b77f	0.08726405
182	0xbd29cf43	-0.041457426
183	0xbde617a1	-0.112349756
184	0x3d3ddd7c	0.046353802
185	0xbde39b57	-0.11113613
186	0xbdddcda0	-0.108302355
187	0x3db56850	0.08857787
188	0xbd2a7579	-0.041615937
189	0x3d988b52	0.07448448
190	0x3dbfcae0	0.09364867
191	0xbd827ddc	-0.06371662
192	0xbcb3214e	-0.021866467
193	0xbe075952	-0.13217667
194	0xbd8f6fec	-0.07003769
195	0x3c61b662	0.013776394
196	0x3d3c25bf	0.045934435
197	0x3d6d3b75	0.05791803
198	0x3d2a971a	0.041648008
199	0x3e119f2b	0.14220874
200	0xbcbb3402	-0.022851948
201	0xbdb529ff	-0.08845901
202	0x3b57f848	0.0032954384
203	0xbd751ca2	-0.05984176
204	0x3d41eadc	0.04734312
205	0xbe023427	-0.12715207
206	0xbd559b8e	-0.0521503
207	0xbd0bec16	-0.034160696
208	0xbe072213	-0.13196592
209	0x3df09655	0.117474236
210	0x3d15939a	0.036517717
211	0x3dd28268	0.10278779
212	0x3df61bf7	0.120170526
213	0xbb2c3456	-0.0026276312
214	0xba86793f	-0.0010259523
215	0x3dd214e2	0.10257889
216	0xbcc240e5	-0.023712585
217	0xbd7b9440	-0.06142068
218	0xbc619978	-0.0137695
219	0xbdfdc23d	-0.12390564
220	0xbd0d068a	-0.034430064
221	0xbd141bac	-0.036159202
222	0xbd00909a	-0.031387903
223	0xbd1cb3b2	-0.03825731
224	0xbdd40074	-0.10351649
225	0x3d9e26c8	0.07722241
226	0xbdac2128	-0.084047616
227	0x3d356439	0.044285033
228	0x3d8f2b3e	0.0699067
229	0xbdfbc34d	-0.1229311
230	0x3e14eeb6	0.14544186
231	0x3d9d374c	0.07676563
232	0xbd9874d2	-0.07444157
233	0xbe0740b2	-0.13208273
234	0x3c098aa8	0.008394875
235	0xbc9dcf68	-0.019263938
236	0xbc1362c0	-0.008995712
237	0xbca745ba	-0.02041899
238	0x3c7f4189	0.01557959
239	0x3d880bf2	0.066429034
240	0xbd992576	-0.07477848
241	0x3d9c8742	0.07642986
242	0x3ca0e874	0.019642092
243	0xbda039db	-0.07823535
244	0x3c137a50	0.00900133
245	0xbd9d2e9e	-0.07674907
246	0xbda37169	-0.07980616
247	0xbbf902a7	-0.007599193
248	0xbdb56a6b	-0.08858188
249	0x3da031df	0.07822012
250	0x3db25ac1	0.08708716
251	0xbdda8ece	-0.10671769
252	0x3dded081	0.10879613
253	0x3d28dc1b	0.041225534
254	0x3db7f485	0.08982185
255	0xbbb3856e	-0.0054785525

conv1.conv.local_nn.1.0.bias f4 [128]
0	0xbd7cf392	-0.061755724
1	0xbc38e0a7	-0.01128403
2	0x3cb87cfe	0.022520538
3	0x3deffc53	0.11718049
4	0x3d866409	0.06562049
5	0xbdb34824	-0.08753994
6	0xbdcaf296	-0.09909551
7	0xbd95a0dc	-0.07306072
8	0xbd148603	-0.036260616
9	0xbddb351e	-0.10703491
10	0xbe08a3f0	-0.13343787
11	0x3d60d4b7	0.05489036
12	0x38971252	7.2036535e-05
13	0xbda7a264	-0.081852704
14	0x3da18619	0.07886905
15	0xbd47439c	-0.04864846
16	0xbbd8011d	-0.0065919296
17	0x3dca6677	0.09882825
18	0x3d01c129	0.031678353
19	0xbdae6fd3	-0.085174225
20	0x3d8dea53	0.069294594
21	0x3e087cc0	0.13328838
22	0x3d910995	0.07081906
23	0x3daf13b7	0.08548682
24	0x3d5a410f	0.0532847
25	0x3d2aa63e	0.041662447
26	0x3dc117a8	0.0942834
27	0xbe13470c	-0.14382571
28	0x3d5f2645	0.054479856
29	0x3dc34fba	0.09536691
30	0xbd052a3e	-0.03251099
31	0x3d4c3564	0.049855605
32	0x3dcc169c	0.0996525
33	0xbd8fc40a	-0.07019813
34	0x3dd22693	0.10261264
35	0xbdd7117c	-0.10501382
36	0x3dba04f1	0.09082974
37	0x3ca41d90	0.020033628
38	0x3dd5276a	0.10407908
39	0x3c26890e	0.010164512
40	0x3d486dc6	0.048932813
41	0x3d86385c	0.065537184
42	0xbd72a09d	-0.059235204
43	0x3d6d215a	0.057893135
44	0x3dcd6ff1	0.10031117
45	0xbd8b8b0f	-0.06813633
46	0x3d340ba0	0.0439564
47	0x3ce2ea91	0.02769974
48	0x3dd676b0	0.104718566
49	0x3da590ee	0.08084284
50	0xbd95e882	-0.07319738
51	0x3be0f126	0.0068646846
52	0xbe0a1c05	-0.13487251
53	0x3df6bc34	0.12047616
54	0xbd913a34	-0.070911795
55	0x3c712e03	0.014720443
56	0xbc17441d	-0.009232548
57	0x3d819b2b	0.06328424
58	0x3d26f3b5	0.04075976
59	0x3d835255	0.06412188
60	0xbbe3824e	-0.0069430238
61	0xbbd7d0fc	-0.006586192
62	0xbdc72b71	-0.09725083
63	0xbcf50525	-0.02990968
64	0x3d0f391f	0.034966584
65	0xbda4db5e	-0.080496535
66	0xbd3124aa	-0.043247856
67	0xbbb7bf00	-0.005607486
68	0xbdf9e302	-0.122015014
69	0x3de7ea0b	0.11323937
70	0xbdf01ea6	-0.11724596
71	0xba65aeec	-0.0008761722
72	0x3da8a2f7	0.08234208
73	0xbdcf442e	-0.10120426
74	0x3c321594	0.010869402
75	0x3a83a220	0.0010042824
76	0xbc4a4276	-0.012344947
77	0x3cd687dc	0.02618783
78	0x3db7e8bc	0.089799374
79	0x3de7e623	0.11323192
80	0x3e1132b9	0.14179505
81	0xbcac64f0	-0.021044225
82	0x3d8b687a	0.06807037
83	0xbdeaba2c	-0.11461291
84	0xbc9417cb	-0.018077752
85	0x3d5d131e	0.05397331
86	0x3d9087c9	0.07057149
87	0x3d942939	0.07234425
88	0xbdb9b6a1	-0.09068037
89	0x3db46074	0.088074595
90	0x3bbe9f56	0.005817334
91	0x3de3e75c	0.11128113
92	0x3c0e9b2a	0.008703986
93	0xbdc7f39c	-0.09763262
94	0xbd4f8c8c	-0.050671145
95	0xbd2a3b0d	-0.04156022
96	0xbd3b8e79	-0.04579017
97	0x3d9fc70e	0.078016385
98	0x3c194516	0.00935485
99	0x3dec47f0	0.115371585
100	0xbdd76f15	-0.10519234
101	0xbe06b7de	-0.13156077
102	0xbd0ca4d1	-0.03433687
103	0xbbb3b20b	-0.005483871
104	0x3d070df1	0.03297228
105	0x3c0fd851	0.008779601
106	0x3d7ce5ff	0.06174278
107	0xbcf7754e	-0.030207302
108	0x3d807714	0.06272712
109	0x3d398613	0.04529388
110	0xb99e2e68	-0.00030170684
111	0x3d067ce2	0.03283394
112	0xbe014541	-0.12624075
113	0x3ac5e25f	0.0015097371
114	0x3d947f85	0.07250885
115	0x3cf50dd6	0.029913824
116	0xbe136d45	-0.14397152
117	0x3d890d3c	0.066919774
118	0xbdab159c	-0.08353731
119	0x3d951786	0.07279877
120	0x3db4316e	0.087984905
121	0x3da9ca1f	0.08290505
122	0x3d8b4ebb	0.06802126
123	0x3cc1ee1b	0.023673108
124	0xbc34ed16	-0.011042854
125	0xbdddbf14	-0.10827461
126	0xbdb1083c	-0.08644149
127	0x3de26add	0.11055539

conv1.conv.local_nn.1.2.weight f4 [128]
0	0x3f7bae43	0.9831278
1	0x3f7e3203	0.9929506
2	0x3f7f193d	0.99647886
3	0x3f7ed10e	0.9953774
4	0x3f83e86e	1.0305307
5	0x3f811437	1.0084294
6	0x3f7f1c3a	0.99652445
7	0x3f80197b	1.0007776
8	0x3f7e8ea2	0.9943639
9	0x3f819639	1.0123969
10	0x3f7fade5	0.99874717
11	0x3f79ec0c	0.97625804
12	0x3f7fa829	0.9986597
13	0x3f7ec686	0.9952167
14	0x3f7d372c	0.9891231
15	0x3f7cde45	0.98776656
16	0x3f7d11fb	0.9885556
17	0x3f7f8f90	0.99828434
18	0x3f80df0b	1.0068067
19	0x3f7f7b79	0.9979778
20	0x3f817cf3	1.0116256
21	0x3f813b6e	1.0096262
22	0x3f7e1070	0.9924383
23	0x3f8044d5	1.0021006
24	0x3f7d332a	0.98906195
25	0x3f7e3c6c	0.99310946
26	0x3f80dbb3	1.0067047
27	0x3f81732a	1.011327
28	0x3f82e368	1.0225649
29	0x3f7e22ab	0.9927165
30	0x3f7e48f7	0.99330086
31	0x3f849ac2	1.0359728
32	0x3f7ff453	0.99982184
33	0x3f80a7f9	1.0051261
34	0x3f7ef0d4	0.99586225
35	0x3f7db624	0.9910605
36	0x3f7e6a50	0.9938097
37	0x3f7f1d74	0.99654317
38	0x3f7f9731	0.99840075
39	0x3f8009d8	1.0003004
40	0x3f7cbd34	0.987262
41	0x3f7e7a42	0.994053
42	0x3f808488	1.0040445
43	0x3f7c21f4	0.9848931
44	0x3f80a3c7	1.0049981
45	0x3f7855d0	0.9700594
46	0x3f815df9	1.0106803
47	0x3f7aa5a6	0.9790901
48	0x3f7f270c	0.99668956
49	0x3f808b0c	1.0042434
50	0x3f7c75a4	0.98617005
51	0x3f7b4f18	0.9816756
52	0x3f831b57	1.0242718
53	0x3f7d2485	0.9888385
54	0x3f800558	1.0001631
55	0x3f7ba13b	0.98292893
56	0x3f7e6cf8	0.99385023
57	0x3f813735	1.0094973
58	0x3f805435	1.0025698
59	0x3f7ad27b	0.9797742
60	0x3f8045b0	1.0021267
61	0x3f822338	1.0166998
62	0x3f83b7dd	1.0290486
63	0x3f800606	1.0001838
64	0x3f7e0cb0	0.9923811
65	0x3f7d8d33	0.9904358
66	0x3f84e192	1.0381339
67	0x3f7b40e3	0.98145884
68	0x3f7fc844	0.99914956
69	0x3f7d41e9	0.98928696
70	0x3f800018	1.0000029
71	0x3f7ed20e	0.9953927
72	0x3f7f0db1	0.99630266
73	0x3f73bd7e	0.9521102
74	0x3f7eff67	0.99608463
75	0x3f800f88	1.000474
76	0x3f843d72	1.0331252
77	0x3f79046b	0.97272366
78	0x3f7ef049	0.99585396
79	0x3f7ec8f3	0.99525374
80	0x3f80cdd3	1.0062813
81	0x3f83548d	1.0260178
82	0x3f7f80ae	0.99805725
83	0x3f81413b	1.0098032
84	0x3f7f8fd2	0.9982883
85	0x3f80a376	1.0049884
86	0x3f80c612	1.0060446
87	0x3f7cb799	0.9871765
88	0x3f7d46d7	0.9893622
89	0x3f7c3ad9	0.98527294
90	0x3f80a5c3	1.0050586
91	0x3f7d275c	0.9888818
92	0x3f7fced9	0.99925
93	0x3f816aca	1.0110714
94	0x3f80dece	1.0067995
95	0x3f8135ec	1.0094581
96	0x3f7e3a78	0.99307966
97	0x3f803357	1.0015668
98	0x3f7c59e6	0.98574674
99	0x3f803d14	1.001864
100	0x3f7bc4a5	0.9834693
101	0x3f801cd4	1.0008798
102	0x3f834445	1.0255209
103	0x3f79d9ce	0.9759797
104	0x3f7c6e52	0.98605835
105	0x3f7d8d95	0.9904416
106	0x3f7ff3c9	0.9998136
107	0x3f7f6173	0.9975807
108	0x3f7eb335	0.994922
109	0x3f7de985	0.9918445
110	0x3f7da0a8	0.99073267
111	0x3f7f5fe4	0.9975569
112	0x3f790ad6	0.9728216
113	0x3f7c7dd2	0.98629487
114	0x3f82345c	1.0172229
115	0x3f7ddbb8	0.9916339
116	0x3f7c8e58	0.986547
117	0x3f7d523c	0.98953605
118	0x3f818bb5	1.012076
119	0x3f7a2646	0.9771465
120	0x3f7cceef	0.98753256
121	0x3f7cd8f0	0.9876852
122	0x3f7e6989	0.99379784
123	0x3f7eecb9	0.9957996
124	0x3f7e15a1	0.99251753
125	0x3f80b8a5	1.0056349
126	0x3f794c50	0.9738207
127	0x3f7d7f5d	0.99022466

conv1.conv.local_nn.1.2.bias f4 [128]
0	0xbb2e5952	-0.0026603532
1	0xbb5de890	-0.0033860542
2	0xbb8a5fcd	-0.004222846
3	0xbb570c93	-0.0032813891
4	0xbaf7149e	-0.0018850749
5	0xbc6003c0	-0.013672769
6	0x39df3aeb	0.00042577772
7	0xbca28f4b	-0.019843718
8	0xbc8bd800	-0.01707077
9	0xbc68532f	-0.014179989
10	0xbc95a2d6	-0.018266123
11	0xbc41aaab	-0.011820476
12	0xbc3c9166	-0.011509275
13	0xbb6a3080	-0.0035734475
14	0x3a8d2314	0.00107679
15	0xbc37b95c	-0.011213627
16	0xbc148f3c	-0.009067353
17	0xbc728569	-0.014802315
18	0xbaa89f39	-0.0012864835
19	0xbb6c2348	-0.0036031771
20	0xbcacdb3e	-0.021100637
21	0xbc17c645	-0.00926358
22	0x3b080c3c	0.0020759245
23	0x3a8da891	0.0010807683
24	0xbcd8a1e0	-0.026444376
25	0xbc9e0000	-0.01928711
26	0x3c279046	0.010227269
27	0xbc499520	-0.012303621
28	0x3c125d82	0.008933427
29	0x3cb76593	0.022387302
30	0xbc93153c	-0.017954461
31	0xbc7ae498	-0.01531329
32	0x3c4aea34	0.01238494
33	0xbbcb1bbe	-0.0061983755
34	0xbcd6d363	-0.026223844
35	0xbc9719ec	-0.018444978
36	0x3c177300	0.009243727
37	0xbc630a5b	-0.013857449
38	0x3c7d1fb0	0.015449449
39	0xbcccb4d6	-0.024988573
40	0x3b3ca6d4	0.002878596
41	0xbc17b0bf	-0.009258448
42	0x3c8af25b	0.016961267
43	0xbd228de8	-0.039686114
44	0x3b021ed6	0.0019854805
45	0xbc44ef3f	-0.012019931
46	0x3aba85b6	0.0014230523
47	0xbc21ea95	-0.009882589
48	0xbc81bd72	-0.015837405
49	0xbcaf706d	-0.021415913
50	0xbca4415c	-0.020050697
51	0x38cdc0e4	9.8110904e-05
52	0xbc6e7293	-0.014553684
53	0xbcc7d582	-0.0243938
54	0xbc9e0c9c	-0.019293122
55	0xba1d67c4	-0.0006004537
56	0xbb878557	-0.0041357684
57	0x3bb23f81	0.005439699
58	0xbb00554f	-0.0019582098
59	0xbc6b4f00	-0.014362097
60	0xbb89c36b	-0.004204204
61	0x3c94bc1a	0.0181561
62	0xbc30f191	-0.010799781
63	0x3ae06ab0	0.0017121639
64	0x3ab2d264	0.0013643024
65	0x3c27bfe1	0.010238619
66	0xbb88ea8a	-0.00417835
67	0xbc60d58c	-0.013722789
68	0x3c9cf628	0.019160345
69	0xbcaf8ae3	-0.021428531
70	0xbb5eb2e5	-0.0033981141
71	0x3bf706af	0.0075386385
72	0x3b92d96f	0.0044814865
73	0xba6e05ca	-0.0009079842
74	0x3bc64115	0.006050239
75	0x3b35bce4	0.0027730996
76	0xbbc2dc3c	-0.005946664
77	0x39da7d99	0.00041673778
78	0x3b2e3c13	0.00265861
79	0x3c7c4b32	0.015398787
80	0x3b5ffd12	0.0034177941
81	0xbcc9cdc0	-0.024634242
82	0x3ad5bd37	0.0016307001
83	0xbb800d7e	-0.0039078584
84	0xbc3f1148	-0.011661835
85	0xbc36a85e	-0.01114854
86	0xbbc83efa	-0.006111023
87	0x3baad73b	0.0052136458
88	0xbc6b0157	-0.014343581
89	0x3c6146b6	0.013749769
90	0x3c8aefb0	0.016959995
91	0x3c162e0c	0.009166252
92	0x3c61213b	0.013740833
93	0xbbbff79e	-0.0058583757
94	0xbc6702bd	-0.014099774
95	0x3b4f0764	0.0031590099
96	0xbc411b51	-0.011786298
97	0x3ba747ce	0.0051049953
98	0xbca040c9	-0.019562142
99	0x3ca2a1ff	0.019852636
100	0x3d3b4192	0.04571683
101	0xbbb7ad03	-0.0056053414
102	0xbb82d39a	-0.00399251
103	0xbc28becd	-0.010299397
104	0xbbdd9932	-0.006762647
105	0xbc9d6652	-0.01921383
106	0xbc9aeb78	-0.018911108
107	0x3c3aebb5	0.011408736
108	0x3b6082cb	0.0034257646
109	0xbc82fede	-0.01599067
110	0xbc34f1d0	-0.011043981
111	0x3b5d5cb6	0.0033777184
112	0xbbae8c63	-0.005326794
113	0xbcc8dc78	-0.02451919
114	0xbbdc378c	-0.006720489
115	0xbbaae5a2	-0.0052153626
116	0x3b1d4c2e	0.0024001705
117	0xbcc1fcef	-0.023680178
118	0xbadf27d9	-0.0017025425
119	0xbd0201e1	-0.031740073
120	0xbc6baa6f	-0.014383896
121	0xbbe61109	-0.0070210737
122	0x3bad3e9f	0.005287006
123	0xbaedf1ff	-0.0018153785
124	0xbc148cf8	-0.009066813
125	0x3c6a4be1	0.0143003175
126	0xbb661c34	-0.0035112025
127	0xbcba5049	-0.022743361

conv1.conv.local_nn.1.2.running_mean f4 [128]
0	0x3ca71c6a	0.020399291
1	0x3e4d12dc	0.20026726
2	0x3e00a530	0.12563014
3	0x3e0ea2d4	0.13929302
4	0x3e020db0	0.12700534
5	0x3d9c50b0	0.076325774
6	0x3d9ae0e3	0.07562425
7	0x3c867ec2	0.016417865
8	0x3e915fbe	0.28393358
9	0x3df8b78b	0.12144383
10	0x3d110a4f	0.03541022
11	0x3e4f8252	0.20264557
12	0x3db56c9c	0.08858606
13	0x3ebda027	0.3703625
14	0x3e80a2da	0.25124246
15	0x3dfdf850	0.124008775
16	0x3dbca4b3	0.092111014
17	0x3e2b3fe0	0.16723585
18	0x3d84890e	0.064714536
19	0x3dd555d0	0.10416758
20	0x3e165345	0.14680202
21	0x3e4048e3	0.18777804
22	0x3df9d05c	0.121979445
23	0x3e7a9cf4	0.24473935
24	0x3dd95a08	0.10612875
25	0x3de8d7c2	0.113692775
26	0x3e7ea979	0.24869336
27	0x3ce25c58	0.027631924
28	0x3e746ebe	0.2387037
29	0x3e18883a	0.14895716
30	0x3db57ccf	0.08861696
31	0x3de87ffe	0.113525376
32	0x3e516eb4	0.20452386
33	0x3cd82c9a	0.026388455
34	0x3e49c978	0.1970576
35	0x3d5d25b5	0.05399104
36	0x3ea45447	0.3209555
37	0x3df47c35	0.11937753
38	0x3eb0430e	0.3442616
39	0x3d9d1f1e	0.07671951
40	0x3e5ac2f7	0.21363436
41	0x3dece143	0.11566403
42	0x3dfb8b0d	0.12282381
43	0x3e2158c6	0.1575652
44	0x3e83bebf	0.25731465
45	0x3dbabb39	0.09117741
46	0x3e33263f	0.17495058
47	0x3dac7ac2	0.08421852
48	0x3e4d126b	0.20026557
49	0x3e41cc88	0.18925679
50	0x3e10f7e5	0.14157064
51	0x3e334c63	0.17509608
52	0x3d5b23c5	0.05350091
53	0x3e0f841c	0.1401524
54	0x3db7248a	0.08942516
55	0x3e2245b9	0.1584691
56	0x3e926b26	0.28597373
57	0x3e4e0dd7	0.20122467
58	0x3e179ffb	0.14807121
59	0x3e6aebc5	0.22941501
60	0x3dfef104	0.12448314
61	0x3d7c171c	0.061545476
62	0x3ccd101c	0.025032096
63	0x3e546f40	0.20745564
64	0x3e6b0b03	0.2295342
65	0x3e867175	0.26258436
66	0x3d1d995d	0.038476337
67	0x3df2082f	0.11817967
68	0x3d8095b6	0.06278555
69	0x3e153e11	0.14574458
70	0x3d90bfaa	0.07067807
71	0x3e38296a	0.17984548
72	0x3e073fb6	0.13207898
73	0x3dedef5e	0.11617921
74	0x3db0edb6	0.0863909
75	0x3decebb6	0.11568396
76	0x3d8e36cb	0.06944045
77	0x3eebcda0	0.46055317
78	0x3ded4e3e	0.11587189
79	0x3e8695ce	0.26286167
80	0x3e2ea1af	0.17053865
81	0x3cdf18da	0.02723353
82	0x3e4b9b93	0.19883566
83	0x3c0f6ab0	0.008753464
84	0x3d73a016	0.05947884
85	0x3e0a96b2	0.13534048
86	0x3dddf35f	0.10837435
87	0x3e926b13	0.28597316
88	0x3e740097	0.2382835
89	0x3e560418	0.20899999
90	0x3e260636	0.16213307
91	0x3e477b62	0.1948066
92	0x3edc7630	0.4305892
93	0x3d7ddc2f	0.06197756
94	0x3e01e8fe	0.12686536
95	0x3dafae09	0.085781164
96	0x3d866414	0.06562057
97	0x3ec07005	0.37585464
98	0x3e3e6342	0.18592551
99	0x3e70266c	0.23452157
100	0x3deab5f3	0.11460485
101	0x3d3c7514	0.046010092
102	0x3c8dc11a	0.017303992
103	0x3de964e4	0.113961965
104	0x3dd954b7	0.10611861
105	0x3e5f7b12	0.21824291
106	0x3ddba025	0.107239045
107	0x3e801544	0.25016224
108	0x3ef49e6b	0.47777113
109	0x3e7f5bf4	0.24937421
110	0x3d6e4e84	0.058180347
111	0x3de216cc	0.110395044
112	0x3c4229ac	0.011850756
113	0x3e597c40	0.21238804
114	0x3df64ef6	0.12026779
115	0x3e2f04ba	0.17091647
116	0x3712dfd5	8.754393e-06
117	0x3e7e057c	0.2480678
118	0x3daa3e73	0.083126925
119	0x3ddfc597	0.10926359
120	0x3e1e4089	0.15454306
121	0x3eb74e17	0.35801765
122	0x3dca17e6	0.098678395
123	0x3eda9b7d	0.42696753
124	0x3dc07634	0.093975455
125	0x3eb3588d	0.35028496
126	0x3da40268	0.080082715
127	0x3ed026e9	0.40654686

conv1.conv.local_nn.1.2.running_var f4 [128]
0	0x3bd9e491	0.0066495617
1	0x3e9f965f	0.31169412
2	0x3df14170	0.11780059
3	0x3d195c6d	0.03744166
4	0x3c79c693	0.015245098
5	0x3c02e962	0.007990213
6	0x3d60ab47	0.054850843
7	0x3ac34a22	0.0014899413
8	0x3d8c3bdd	0.068473555
9	0x3e2324e6	0.15932044
10	0x3c913d68	0.017729476
11	0x3e5aa70d	0.21352787
12	0x3cb40727	0.021976067
13	0x3df42fb8	0.11923164
14	0x3d5ea752	0.054358788
15	0x3dd9e349	0.10639054
16	0x3d5d7c7e	0.054073803
17	0x3c8114af	0.015756933
18	0x3cccd273	0.025002694
19	0x3dbadcb4	0.09124127
20	0x3d6d7290	0.057970583
21	0x3c98913c	0.01862394
22	0x3d3b9ae8	0.045802027
23	0x3d2b09d1	0.04175741
24	0x3da0eebb	0.07858034
25	0x3c95ab2f	0.018270103
26	0x3d4d8ef3	0.050185155
27	0x3c8199f8	0.015820488
28	0x3d2929fd	0.04129981
29	0x3df98856	0.12184207
30	0x3d8e2b1e	0.06941818
31	0x3c486acb	0.012232493
32	0x3e597fe9	0.212402
33	0x3c734715	0.01484849
34	0x3e27380b	0.16329972
35	0x3b9b3cb4	0.004737461
36	0x3f2cfa6b	0.6756961
37	0x3cbe629e	0.023240384
38	0x3f42da97	0.7611479
39	0x3cfb6638	0.03068839
40	0x3e94291b	0.2893761
41	0x3d782e37	0.06059095
42	0x3c6a663f	0.014306604
43	0x3c94ceb6	0.018164974
44	0x3d215e34	0.03939648
45	0x3da6f2b9	0.081517644
46	0x3e446601	0.19179536
47	0x3d469e15	0.048490603
48	0x3cf9bee8	0.030486539
49	0x3cdbf395	0.026849547
50	0x3cbaee7e	0.0228188
51	0x3e55a29c	0.20862812
52	0x3c3862a6	0.011253988
53	0x3d59cae2	0.053172
54	0x3db295ac	0.08719954
55	0x3e0d06c1	0.13772108
56	0x3f1d3137	0.6140322
57	0x3cd7cd90	0.026343137
58	0x3cd4bdcc	0.025969408
59	0x3ea70517	0.3262107
60	0x3e002d84	0.12517363
61	0x3cba4c59	0.022741484
62	0x3bd61843	0.006533654
63	0x3d1f65df	0.03891551
64	0x3eb9b317	0.36269447
65	0x3f0fcfce	0.5617646
66	0x3c7c584c	0.015401911
67	0x3cc61b66	0.024182986
68	0x3d45f9b3	0.048333835
69	0x3c5b0c42	0.013369622
70	0x3d78ecfe	0.06077289
71	0x3e5c10c8	0.21490777
72	0x3c94299f	0.018086253
73	0x3c89a695	0.016803065
74	0x3cdff422	0.027338091
75	0x3c57f936	0.013181975
76	0x3c844b7f	0.01614928
77	0x3e187296	0.14887461
78	0x3d0d1fc5	0.034454126
79	0x3edb39ad	0.4281744
80	0x3d95000f	0.07275402
81	0x3b215f7d	0.0024623566
82	0x3e90cf93	0.28283367
83	0x3a0a3991	0.000527286
84	0x3cb54990	0.022129804
85	0x3c820883	0.0158732
86	0x3ca5d1e4	0.020241685
87	0x3d4906d6	0.049078785
88	0x3d5059ee	0.050867014
89	0x3e7feda9	0.24993004
90	0x3d1f6bdd	0.038921226
91	0x3debf644	0.11521581
92	0x3e0ba379	0.13636579
93	0x3bf2fb6b	0.0074152253
94	0x3e250fa0	0.16119242
95	0x3d884409	0.06653602
96	0x3cc296c1	0.023753526
97	0x3de2b80e	0.11070262
98	0x3ce50c90	0.027960092
99	0x3cf1f8c8	0.029537573
100	0x3dfa0a64	0.12209013
101	0x3c13bfcf	0.009017899
102	0x3aa6f035	0.0012736382
103	0x3da22ddd	0.07918904
104	0x3d78d04e	0.06074553
105	0x3d3b529e	0.045733087
106	0x3d524799	0.051337812
107	0x3d88dfb1	0.06683291
108	0x3e24ff84	0.16113096
109	0x3d347c6a	0.044063963
110	0x3bcad0c3	0.006189437
111	0x3d617910	0.055047095
112	0x3ba1eb4b	0.004941379
113	0x3d09ff3d	0.03369068
114	0x3c444121	0.011978419
115	0x3e79bca7	0.24388371
116	0x370de1d8	8.456838e-06
117	0x3ea5e076	0.32397813
118	0x3c1590fe	0.009128807
119	0x3c4cd358	0.01250156
120	0x3ca96e87	0.020682586
121	0x3de37861	0.11106945
122	0x3be96c66	0.007123518
123	0x3e12bd09	0.14329924
124	0x3c26a6d4	0.010171611
125	0x3f84ae1f	1.0365638
126	0x3d0b3322	0.03398431
127	0x3dcd98d2	0.10038914

pool.net.0.0.weight f4 [128, 131]
0	0xbc968fb9	-0.01837908
1	0xbd85e709	-0.06538207
2	0xbc81fd26	-0.01586778
3	0xbca1aef6	-0.019736748
4	0xbdb18021	-0.08667017
5	0x3d93dbe4	0.07219675
6	0xbcbcd70b	-0.02305176
7	0xbcdbead2	-0.02684537
8	0xbbb1719f	-0.005415156
9	0x3d4fc05c	0.050720558
10	0x3d6a0fde	0.05714404
11	0xb9866697	-0.00025634907
12	0xbc1c1f9c	-0.009529021
13	0x3c47efd5	0.0122031765
14	0xbc574973	-0.01314007
15	0xbcd58a20	-0.02606684
16	0x3cf303eb	0.029664954
17	0xbd361dde	-0.044462077
18	0x3d50e1b1	0.050996486
19	0xbd4e248d	-0.050327826
20	0x3c746ac3	0.014918032
21	0xbd662862	-0.056190856
22	0xbb5b58f1	-0.0033469761
23	0xbcd1f7cb	-0.025630852
24	0xbc08340f	-0.008313193
25	0xbdb00ed6	-0.0859658
26	0xbd687ccb	-0.056759637
27	0x3c8e1f2c	0.017348848
28	0xba88d4a3	-0.0010439347
29	0x3d8e6154	0.069521576
30	0xbd063062	-0.032760985
31	0xbce1213d	-0.02748167
32	0x3d48c26a	0.049013533
33	0xbcc435a2	-0.023951355
34	0xbd199039	-0.037491057
35	0xbbdc0a66	-0.006715107
36	0x3dcabeb7	0.09899657
37	0x3d283e78	0.0410752
38	0xbd6a8bd3	-0.057262253
39	0x3d602864	0.05472602
40	0xbc5df4a2	-0.013547095
41	0x3db0582a	0.08610566
42	0x3ce8136e	0.028329577
43	0x3dae5de7	0.08514004
44	0xbcbf378f	-0.023341922
45	0xbcaccd52	-0.021093998
46	0xbb441733	-0.0029921054
47	0x3d0ad0e8	0.033890635
48	0x3da7de3e	0.08196686
49	0xbc901c17	-0.01759152
50	0xbcdf26c7	-0.02724017
51	0xbd75b87e	-0.0599904
52	0xbb8ae3bf	-0.004238575
53	0x3d86cb1d	0.065817095
54	0x3c1442ee	0.00904916
55	0x3dd14633	0.102184676
56	0xbca188a8	-0.019718483
57	0x3d920bcd	0.07131157
58	0xbc756168	-0.014976837
59	0x3d882d8e	0.06649314
60	0xbdc79499	-0.0974514
61	0xbdab8fd9	-0.08377046
62	0xbc754c48	-0.0149718
63	0xbd05f89f	-0.032707807
64	0x3bc0c8d5	0.005883316
65	0x3db211cc	0.08694801
66	0xbd5511b5	-0.05201884
67	0x3d0a8584	0.033818737
68	0x3c43e766	0.011957025
69	0xbddf278e	-0.10896216
70	0xbd119e29	-0.035551224
71	0xbd822b48	-0.063559115
72	0xbca52c19	-0.020162629
73	0x3ca88ff2	0.020576451
74	0xbd8db547	-0.069193415
75	0x3d346aa1	0.044047
76	0xbc8f77d2	-0.01751319
77	0xbd464d0e	-0.04841333
78	0x3dc2e3d4	0.09516111
79	0xbc1daa0a	-0.00962306
80	0xbcb95a45	-0.022626052
81	0xbdb150b8	-0.08657974
82	0x3d885b34	0.066580206
83	0x3c032029	0.008003273
84	0x3c3b747e	0.011441348
85	0x3c6e574f	0.014547183
86	0xbd158d8a	-0.036511935
87	0xbd24c73b	-0.040229063
88	0x3d17ca18	0.037057966
89	0xbc0687af	-0.00821106
90	0x3b40e09b	0.002943075
91	0x3dd693d0	0.10477412
92	0x3da4f710	0.08054936
93	0x3b8f0797	0.0043649185
94	0xbc84fe55	-0.016234556
95	0xbcd469c3	-0.025929337
96	0xbb9ee257	-0.004848759
97	0x3d2e1ca5	0.042507786
98	0x3cf87727	0.030330254
99	0x3d37a1af	0.044831928
100	0xbd257d8e	-0.04040294
101	0xbc6e4e1e	-0.014544992
102	0xbd8b3479	-0.06797118
103	0xbc0e674e	-0.008691622
104	0xbd5edfac	-0.05441253
105	0x3cd1bb56	0.025602024
106	0x3d886a92	0.06660952
107	0xbd345303	-0.04402448
108	0xbd459251	-0.04823524
109	0x3c9579d0	0.018246561
110	0x3d14c63f	0.036321875
111	0xbc4aae46	-0.012370652
112	0xbd9701ea	-0.07373412
113	0x3daa8435	0.08325998
114	0x3c260525	0.0101330625
115	0x3d874fdd	0.066070296
116	0xbc8bbdc2	-0.017058257
117	0x3d866e8a	0.065640524
118	0x3d793a06	0.06084635
119	0xbe0c52bc	-0.13703436
120	0xbd98d599	-0.074626155
121	0xbc3d1e5e	-0.011542885
122	0xbd35d7d3	-0.04439528
123	0x3c8fb6fa	0.017543305
124	0xbd2cb35c	-0.042163238
125	0xbb9bf506	-0.0047594337
126	0xbb119ffa	-0.0022220598
127	0xbd54c8d6	-0.051949345
128	0xbb36b2f9	-0.0027877672
129	0x3d0bfb78	0.034175366
130	0x3df432e4	0.11923769
131	0x3d3eca32	0.046579547
132	0x3d7d1985	0.061791915
133	0x3caa58d2	0.020794306
134	0x3d4f3531	0.050587837
135	0x3c89a2e6	0.016801309
136	0xbd472822	-0.048622258
137	0xbd8936b0	-0.06699884
138	0x3ca6dc7e	0.02036881
139	0x3d772859	0.060341213
140	0x3d9f1e67	0.07769471
141	0xbcfe2cbe	-0.031027194
142	0x3ce49dd7	0.027907295
143	0xbba9cabb	-0.005181638
144	0xbdecc851	-0.11561645
145	0x3b8af9ae	0.00424119
146	0x3d226a89	0.03965238
147	0x3c9bde3b	0.019026866
148	0x3c28571c	0.010274675
149	0x3db3921b	0.08768102
150	0xbd9a279a	-0.07527085
151	0x3da60126	0.08105688
152	0x3db88f9b	0.090117656
153	0x3de69639	0.112591214
154	0xbd06da24	-0.03292288
155	0x3d4723ef	0.048618253
156	0x3cdbca7c	0.02682995
157	0xbb5a163b	-0.003327741
158	0xbc5e5c38	-0.013571791
159	0xbdb58b9c	-0.08864519
160	0xbd15cd60	-0.036572814
161	0xbd1f98bc	-0.03896402
162	0xbd2d9c36	-0.042385302
163	0x3d800b27	0.06252127
164	0x3c921aea	0.0178351
165	0x3898d7f0	7.288146e-05
166	0xbc820478	-0.015871271
167	0x3d35cb1b	0.04438315
168	0xbd6721ea	-0.056428827
169	0xbd717a4b	-0.05895452
170	0x3cae4d57	0.021277113
171	0xbd312cf3	-0.043255758
172	0x3d8506f8	0.0649547
173	0xbde839e8	-0.1133917
174	0x3dbc8c32	0.09206428
175	0x3d80cf10	0.06289494
176	0x3b8d3b86	0.0043100743
177	0x3b070b25	0.0020606008
178	0x3d89640b	0.06708535
179	0x3c3c7078	0.011501424
180	0x3cba619a	0.022751618
181	0xbbf51c6e	-0.0074801957
182	0x3d2c23c5	0.0420263
183	0xbb09a163	-0.0021000735
184	0x3dde677b	0.10859581
185	0xbcaffc82	-0.02148271
186	0x3c9ffb4d	0.01952901
187	0x3d45a61a	0.04825411
188	0x3d49c231	0.04925746
189	0x3d6aef18	0.057356924
190	0xbcfdf7db	-0.031001976
191	0x3c5fa163	0.013649317
192	0xbc53a7ba	-0.012918407
193	0xbc8f3cd5	-0.017485062
194	0x3d0f2c8b	0.03495459
195	0x3d2ec998	0.042672724
196	0xbcbae915	-0.02281622
197	0x3d06be3c	0.032896265
198	0xbd223ed4	-0.0396107
199	0x3dd9cf67	0.10635262
200	0x3b9144bc	0.0044332426
201	0xbd11a966	-0.03556194
202	0x3db3922f	0.08768117
203	0x3d10f202	0.035387047
204	0xba7b68a1	-0.0009590481
205	0x3c1ecfae	0.009693069
206	0xbcec9221	-0.028878273
207	0x3dc12d08	0.09432417
208	0xbcf8162c	-0.03028401
209	0x3d42851d	0.047490228
210	0x3d8f99b7	0.07011741
211	0xbd174de2	-0.03693951
212	0x3d8a6b14	0.06758705
213	0x3c33f37f	0.010983347
214	0x3c8c7f3b	0.017150512
215	0xbbe7d314	-0.007074723
216	0x3d5f399e	0.054498307
217	0x3ca55cb0	0.020185798
218	0xbdae2e4b	-0.085049234
219	0xbd1c55c8	-0.038167745
220	0xbccc547d	-0.02494263
221	0x3d7db8be	0.061943762
222	0xbc351a78	-0.011053674
223	0x3d8982bd	0.067143895
224	0xbd706778	-0.058692425
225	0x3c2ed10f	0.010669961
226	0x3d768f1e	0.06019508
227	0xbd0c560a	-0.03426174
228	0xbddb8afe	-0.1071987
229	0xbc916d59	-0.017752336
230	0x3da4ef77	0.08053487
231	0xbcc5d8f6	-0.024151307
232	0x3ca36c7b	0.019949188
233	0xb9a79644	-0.0003196468
234	0x3ca430d0	0.020042807
235	0xbd7fd939	-0.06246302
236	0xbd989d3c	-0.07451865
237	0xbd1ef0e5	-0.038803954
238	0xbd9e6ce6	-0.077356145
239	0x3c8c594a	0.01713242
240	0xbd7dfe22	-0.062009938
241	0xbcdcd4d3	-0.026956951
242	0xbd971a1f	-0.07378029
243	0x3d7adcee	0.06124585
244	0xbdc4e52c	-0.096140236
245	0xbb07113e	-0.0020609642
246	0x3cb25622	0.021769587
247	0x3d819a26	0.063282296
248	0x3dc1f189	0.09469897
249	0x3c56db14	0.013113756
250	0x3a23fa53	0.0006255258
251	0x3c3a7df2	0.011382567
252	0x3d0cafbf	0.034347292
253	0xbcf49390	-0.02985552
254	0x3d38694b	0.04502229
255	0x3d56775b	0.05235992

pool.net.0.0.bias f4 [128]
0	0xbb247be6	-0.0025098263
1	0xbc20b484	-0.009808663
2	0x3c7b7767	0.015348292
3	0x3dcd12eb	0.10013374
4	0xbd40eb1d	-0.04709922
5	0x3c90a1db	0.017655304
6	0x3c6d1895	0.014471193
7	0x3dd1e075	0.1024789
8	0xbd854106	-0.06506543
9	0xbcf4bb31	-0.029874416
10	0x3da0905e	0.07840036
11	0x3d29d79e	0.041465394
12	0xbcb542f5	-0.022126654
13	0xbd95527e	-0.07291125
14	0xbdb25962	-0.08708455
15	0x3cbd4dbf	0.023108361
16	0xbdc2632c	-0.09491572
17	0x3d567351	0.052356068
18	0xbd423b3f	-0.047419783
19	0x3d65cc05	0.05610277
20	0xbcbf7196	-0.023369592
21	0xbd63273b	-0.055457335
22	0x3c52763b	0.012845571
23	0xbd2c25ae	-0.04202812
24	0x3d27fa1f	0.04101002
25	0xbd81ea4c	-0.06343517
26	0x3b53e5c6	0.0032333
27	0x3daac60c	0.08338556
28	0xbd475ba0	-0.048671365
29	0xbd931547	-0.07181793
30	0xbd15c82c	-0.036567852
31	0x3d37df88	0.04489091
32	0x3daaace3	0.08333757
33	0xbd780e07	-0.060560253
34	0xbd22a36b	-0.03970663
35	0xbd0332e9	-0.032030974
36	0x3c1bf488	0.00951875
37	0x3d39427f	0.04522943
38	0xbabed1ea	-0.0014558409
39	0x3d5f0c14	0.054454878
40	0x3d57c28b	0.052675765
41	0xbd937ed3	-0.07201924
42	0x3d720d1d	0.059094537
43	0xbcaa0f20	-0.020759165
44	0x3d01c0cc	0.031678006
45	0x3d94d69b	0.07267495
46	0xbd633e1d	-0.055479158
47	0xbd1f5514	-0.038899496
48	0x3d5346bb	0.051581126
49	0xbd030dda	-0.03199563
50	0x3b35e3ad	0.0027754114
51	0x3bd1a798	0.0063981526
52	0xbd4e2928	-0.05033222
53	0xbcbb24cd	-0.022844696
54	0xbda54f1f	-0.08071732
55	0x3d0318bf	0.03200602
56	0xbda163a6	-0.078803346
57	0xbc808ee2	-0.015693132
58	0xbd741f32	-0.059600063
59	0x3d999339	0.074987836
60	0x3c8485d6	0.0161771
61	0xbd98b40a	-0.07456215
62	0x3d2627ca	0.04056529
63	0x3d1a92b3	0.03773756
64	0x3d89049f	0.066903345
65	0xbd3c3021	-0.045944337
66	0x3db11916	0.08647363
67	0x3ca1d589	0.019755142
68	0xbb6804a8	-0.0035403166
69	0x3d90b33c	0.07065436
70	0x3d9abd25	0.07555608
71	0x3dd3bc2e	0.10338627
72	0xbd030302	-0.03198529
73	0x3d3c8e31	0.04603404
74	0xbd8b1b93	-0.06792369
75	0xbd129326	-0.035784863
76	0x3c253d97	0.010085485
77	0x3da21738	0.07914585
78	0x3a922576	0.001115008
79	0x3d19276d	0.037391115
80	0xbd10cb1f	-0.03534996
81	0xbcbb33ae	-0.022851791
82	0xbb19218c	-0.0023365943
83	0x3d158feb	0.036514204
84	0x3d6bcb51	0.057566945
85	0xbce73b34	-0.028226472
86	0xbdc2ee1a	-0.095180705
87	0x3bb40b6b	0.005494525
88	0x3b1a7024	0.0023565376
89	0x3da46af6	0.08028214
90	0xbde0a292	-0.10968508
91	0x3cbf369f	0.023341475
92	0x3d48fe7a	0.049070813
93	0xbd336374	-0.043796018
94	0xbd7c1a37	-0.061548438
95	0xbcff6342	-0.03117526
96	0xbc69b7ff	-0.0142650595
97	0xbc8a3a35	-0.016873458
98	0xbd2271b4	-0.039659217
99	0xbd38d97d	-0.045129288
100	0xbd91205a	-0.07086249
101	0xbd1fc0c0	-0.03900218
102	0x3d18b60d	0.037282992
103	0xbdaf840d	-0.085701086
104	0x3d901879	0.07035918
105	0xbd88bceb	-0.06676658
106	0xbdbddd67	-0.09270745
107	0x3b02420c	0.0019875793
108	0x3dae898b	0.08522328
109	0x3989e661	0.00026302322
110	0xbdd0994a	-0.101854876
111	0xbd4448c3	-0.047920953
112	0xbd8ce5b7	-0.06879752
113	0x3d46e26e	0.048555784
114	0x3db24844	0.0870519
115	0xbd54f4d6	-0.051991306
116	0x3d2df884	0.04247333
117	0xbd81de56	-0.06341235
118	0xbd836434	-0.064155966
119	0x3dc7f02c	0.09762606
120	0xbce1bfd2	-0.027557287
121	0x3d811dc9	0.06304509
122	0xbd6fa02e	-0.05850237
123	0xbccc913b	-0.024971595
124	0x3d34c88d	0.044136573
125	0xbd47d304	-0.048785225
126	0xbb46598e	-0.003026578
127	0xbd38fbfa	-0.04516218
