hepgnn_4top_resampling/result/train20220804_4top_cla_alledge_w2_L1/weightFinal.pth (torch, 152509 bytes, 25 tensors)

conv1.conv.local_nn.0.0.weight f4 [64, 7]
0	0x3e42ef65	0.19036634
1	0x3e25908d	0.16168423
2	0x3f05a53c	0.5220525
3	0x3bdd6eb6	0.0067575825
4	0xbe684851	-0.22683837
5	0xbf142da2	-0.5788213
6	0xbe8cc5f3	-0.27494773
7	0x3b9b8c7e	0.0047469726
8	0xbc566d9a	-0.0130876545
9	0xbef4ef25	-0.47838703
10	0x3db23af3	0.0870265
11	0x3f423d40	0.7587471
12	0x3ea433fe	0.32070917
13	0xbeaa6b38	-0.33284926
14	0xbe5de5da	-0.21669713
15	0xbc8ea111	-0.017410787
16	0x3e2a5f51	0.16637923
17	0x3e2d40f0	0.16919303
18	0xbe10105e	-0.14068744
19	0x3e060d8b	0.13091104
20	0xbd839b60	-0.0642612
21	0xbd39cbb6	-0.04536029
22	0xbe9ceeed	-0.30651036
23	0x3e8a9fe8	0.27075124
24	0xbe88778f	-0.26653716
25	0x3dc0ea96	0.09419744
26	0xbe41b3fb	-0.18916313
27	0xbea32558	-0.3186443
28	0xbd04f074	-0.032455876
29	0x3e29bf44	0.16576868
30	0xbf0273d6	-0.50958
31	0x3d83f097	0.06442373
32	0xbe92e888	-0.28693032
33	0xbe952b76	-0.2913472
34	0xbe94cda3	-0.29063138
35	0xbd40deae	-0.047087364
36	0x3eae1538	0.34000564
37	0xbeba096e	-0.3633532
38	0xbe371b85	-0.17881592
39	0x3ea4753e	0.321207
40	0xbca2f70e	-0.019893195
41	0xbda0d210	-0.07852566
42	0x3d97297b	0.07380959
43	0xbe942781	-0.2893639
44	0x3e8d7bdf	0.2763357
45	0xbe34e5b0	-0.17665744
46	0xbe69a633	-0.22817306
47	0x3f506a4c	0.81412196
48	0x3c859f43	0.016311293
49	0xbe990fa1	-0.29894736
50	0x3e6888c7	0.22708426
51	0xbe809ae4	-0.25118172
52	0xbcc7ce67	-0.024390412
53	0xba8f25ec	-0.0010921336
54	0xbe2a8d31	-0.16655423
55	0x3e2d385d	0.16916032
56	0xbd61f052	-0.055160828
57	0x3e487cd7	0.19578873
58	0x3e34d176	0.17658028
59	0xbe9c0177	-0.30469868
60	0x3e8690ae	0.26282257
61	0xbc0760c6	-0.008262819
62	0x3e907686	0.28215426
63	0x3e8fd8c3	0.28095064
64	0x3c879a0c	0.016552947
65	0xbe671b4d	-0.22569008
66	0xbe4c389d	-0.19943471
67	0xbe821d48	-0.25412965
68	0x3daafa4f	0.08348524
69	0x3e979095	0.29602495
70	0x3dbccc72	0.09218682
71	0x3e419329	0.18903793
72	0xbd7b0960	-0.061288238
73	0x3e8eddb3	0.27903518
74	0x3c87eaca	0.016591448
75	0x3e724b8a	0.23661628
76	0xbef5e45d	-0.4802579
77	0x3cfaf516	0.030634444
78	0xbe2ff50b	-0.1718332
79	0x3d0bc631	0.034124557
80	0x3c25f206	0.010128504
81	0x3dc3f066	0.09567337
82	0xbee4f495	-0.4471785
83	0xbf41c4a4	-0.75690675
84	0xbd8dac4a	-0.06917627
85	0xbebfcda3	-0.37461576
86	0x3d525f12	0.051360197
87	0xbe890458	-0.26761127
88	0xbeadb26c	-0.33925188
89	0xbe1d3869	-0.1535355
90	0xbe4f63aa	-0.20252863
91	0x3b50eec2	0.0031880592
92	0x3f59e1f1	0.85110384
93	0xbeabfea8	-0.33592725
94	0x3d24c428	0.04022613
95	0x3f12a712	0.5728618
96	0x3bbc8c76	0.005754049
97	0x3eb32145	0.3498632
98	0x3cfc8ed7	0.03082983
99	0x3e635836	0.22201619
100	0xbedbcd15	-0.42929903
101	0xbe3ab36a	-0.18232504
102	0x3f3b409d	0.7314547
103	0x3bde32e9	0.0067809713
104	0x3f0879d6	0.53310907
105	0xbe9a9ae9	-0.30196312
106	0x3dacdd97	0.084407024
107	0xbc350a62	-0.011049839
108	0xbeb5c2d1	-0.35500196
109	0x3dad7a78	0.08470625
110	0xbd242de3	-0.040082823
111	0xbebbd3e8	-0.3668511
112	0xbdf0d609	-0.11759574
113	0x3e9f6fd8	0.31140018
114	0x3d9b4a7e	0.07582568
115	0xbe6c580b	-0.2308046
116	0xbe47bd53	-0.19505815
117	0xbe309812	-0.1724551
118	0xbe489178	-0.19586742
119	0xbd2113bc	-0.03932546
120	0xbe79cd79	-0.24394788
121	0x3e5be938	0.21475685
122	0x3f00de83	0.50339526
123	0x3e9a4e1f	0.30137727
124	0xbeb1a691	-0.34697393
125	0x3eafb8aa	0.34320575
126	0xbea201ad	-0.31641904
127	0xbe50d0ca	-0.20392147
128	0xbe5c45f3	-0.21511059
129	0x3e34dc91	0.17662264
130	0xbeb80698	-0.3594253
131	0xbe3764b4	-0.17909509
132	0x3e1a4980	0.150671
133	0x3eb2bd35	0.34909979
134	0x3ed9c4e8	0.4253304
135	0x3e645a8d	0.22300167
136	0xbe4f473a	-0.20242015
137	0x3dd6f165	0.10495261
138	0x3e888fda	0.2667225
139	0x3e178395	0.14796288
140	0xbd2e1130	-0.04249686
141	0x3eb484b9	0.3525751
142	0x3ea0fd18	0.31443095
143	0x3d9f99f8	0.07793039
144	0xbf13f4a0	-0.57795143
145	0x3f0536d2	0.52036774
146	0x3f0844e3	0.5323011
147	0x3ca497fa	0.020092
148	0xbef74388	-0.4829371
149	0xbee191ed	-0.44056645
150	0x3c3fa3ad	0.011696738
151	0xbf6cb282	-0.9245988
152	0xbe23c4ce	-0.15993044
153	0x3e75244b	0.23939626
154	0x3ea88eea	0.32921535
155	0x3a998de6	0.0011715263
156	0x3e7d7886	0.24753007
157	0x3d57fcac	0.0527312
158	0xbef38b28	-0.47567105
159	0xbe474f9e	-0.19463965
160	0xbed29393	-0.41128215
161	0xbd8e4172	-0.069460765
162	0x3c9109e8	0.017704919
163	0xbdf0d329	-0.117590256
164	0x3dbf575c	0.09342834
165	0x3e82d9bc	0.25556743
166	0x3ca875d6	0.020564001
167	0xbe09159e	-0.13387153
168	0xbea89f48	-0.32934022
169	0xbe46ea59	-0.19425334
170	0x3dee6aa0	0.11641431
171	0xbeb4366d	-0.35197774
172	0xbec0464b	-0.3755363
173	0x3ca839d7	0.020535393
174	0x3c1e9468	0.0096789375
175	0xbe98260f	-0.29716536
176	0x3db6c549	0.08924348
177	0x3e294be9	0.16532864
178	0xbe96a04f	-0.2941918
179	0xbd65de60	-0.056120276
180	0x3e65567f	0.22396277
181	0x3eac9e20	0.3371439
182	0xbe8758d9	-0.26434973
183	0xbe500431	-0.20314099
184	0xbe5b3218	-0.21405828
185	0xbe45059f	-0.19240426
186	0xbe7ae63e	-0.24501893
187	0x3e947f32	0.29003292
188	0xbc9ce32a	-0.019151289
189	0xbe932f12	-0.2874685
190	0xbe89214f	-0.26783225
191	0xbea4868c	-0.321339
192	0xbeb5dc02	-0.35519415
193	0x3cb301a4	0.021851368
194	0x3d254ed7	0.04035839
195	0x3e5e6f89	0.21722235
196	0x3ebf4a8e	0.37361568
197	0x3ea92e94	0.3304335
198	0x3ecefa95	0.40425554
199	0xbc5ce427	-0.01348213
200	0xbdf9617b	-0.12176796
201	0xbe0164df	-0.12636136
202	0xbe350bc4	-0.1768027
203	0xbce7fe85	-0.028319607
204	0x3a1f00bf	0.000606548
205	0xbe529e78	-0.20568264
206	0xbea7b31c	-0.32753837
207	0xbe19f222	-0.15033773
208	0x3da6e178	0.081484735
209	0x3e380335	0.17969973
210	0xbead8d1c	-0.3389672
211	0xbeadcdd4	-0.33946097
212	0xbcb13adb	-0.02163451
213	0xbe145736	-0.14486393
214	0xbe1dbfa9	-0.15405144
215	0xbebb2669	-0.36552742
216	0x3e2dd963	0.16977458
217	0xbd8256f0	-0.06364238
218	0x3e98a3d4	0.2981249
219	0xbe788c37	-0.24272238
220	0xbeafd63f	-0.34343144
221	0xbba0b5cf	-0.004904486
222	0x3db7c9e4	0.089740545
223	0x3e619ac1	0.2203169
224	0xbd370eae	-0.044691734
225	0x3e94a7cd	0.29034272
226	0xbe532d8f	-0.20622848
227	0xbea3ed15	-0.32016817
228	0xbe3ef04a	-0.1864635
229	0xbe1aa29b	-0.15101092
230	0x3e06153c	0.13094038
231	0x3dc4da5d	0.09611962
232	0x3f0e8050	0.5566454
233	0xbe57dd5f	-0.2108054
234	0xbe54a7f1	-0.2076719
235	0x3e40d3be	0.18830773
236	0x3ebc66fc	0.3679732
237	0xbe66ed21	-0.22551395
238	0xbe098592	-0.1342986
239	0x3d86707a	0.06564422
240	0xbe768dd8	-0.24077547
241	0x3ea5fe7c	0.3242072
242	0xbea84651	-0.32866147
243	0xbeaaf652	-0.33391052
244	0xbca7a13c	-0.020462625
245	0xbe88b54f	-0.26700827
246	0xbe28a6d2	-0.16469887
247	0x3e5f83da	0.21827641
248	0x3adf6083	0.0017042313
249	0xbd2fd595	-0.042928297
250	0xbeb3a444	-0.35086262
251	0xbdfcc801	-0.12342835
252	0xbe014189	-0.12622656
253	0x3e8e99b0	0.2785163
254	0x3e183556	0.14864096
255	0xbd0ddae0	-0.034632564

conv1.conv.local_nn.0.0.bias f4 [64]
0	0xbdb5b165	-0.08871726
1	0xbee3ef28	-0.445184
2	0x3de9f1a7	0.11423045
3	0xbeb553cb	-0.3541549
4	0xbe596eed	-0.21233721
5	0xbe857cbe	-0.26071733
6	0x3f3fe084	0.7495196
7	0x3df782c4	0.120854884
8	0x3ea4911f	0.3214197
9	0xbd7cc65b	-0.061712604
10	0x3e9ee929	0.31037262
11	0xbf315745	-0.6927379
12	0xbe7a44c5	-0.24440296
13	0xbf25cb1a	-0.64763033
14	0x3ef22ba5	0.47298923
15	0xbeaf3cf6	-0.34226197
16	0x3e832eec	0.25621736
17	0x3e204ed5	0.15655072
18	0x3e248599	0.16066588
19	0xbe274ea8	-0.16338599
20	0x3dd55e8f	0.10418426
21	0x3dd4ec72	0.10396661
22	0x3e38c515	0.18043931
23	0x3eb23abb	0.34810433
24	0xbebec39a	-0.37258607
25	0xbea5ea89	-0.324055
26	0xbd0057d6	-0.031333767
27	0x3c5995f2	0.013280379
28	0x3eb70a3e	0.35750002
29	0x3e1eec0b	0.15519731
30	0xbb56d1d4	-0.0032778876
31	0xbea67c6a	-0.32516795
32	0x3daadf51	0.083433755
33	0xbeb5cfee	-0.355102
34	0x3e144138	0.14478004
35	0xbe09878e	-0.13430616
36	0xbca60253	-0.02026478
37	0x3e86d0ea	0.26331264
38	0x3f2572da	0.64628375
39	0xbee1c5b1	-0.4409614
40	0xbe6a97b2	-0.2290943
41	0xbe14d804	-0.14535528
42	0x3dd2580f	0.10270702
43	0x3e85bf63	0.2612258
44	0x3e8ae2d9	0.27126196
45	0xbd01a6f3	-0.031653356
46	0x3e888076	0.26660508
47	0x3e5e6adc	0.21720451
48	0xbd3922c4	-0.04519917
49	0xbe2d0ac8	-0.16898644
50	0x3e2f9983	0.17148404
51	0x3e31fa06	0.17380533
52	0x3f2ad276	0.6672739
53	0xbe882dcb	-0.26597437
54	0x3ce21a82	0.02760053
55	0xbdd9d93e	-0.10637139
56	0x3e8df87e	0.27728647
57	0x3e569056	0.20953497
58	0x3e28a295	0.1646827
59	0xbd144bfb	-0.036205273
60	0x3e3a8673	0.18215351
61	0x3ec6fe3c	0.3886584
62	0xbe21418c	-0.1574766
63	0xbe1703fd	-0.14747615

conv1.conv.local_nn.0.2.weight f4 [64]
0	0x3f1c6c63	0.61102885
1	0x3f75690c	0.95863414
2	0x3f800000	1.0
3	0x3f800000	1.0
4	0x3f764c06	0.9620975
5	0x3f800000	1.0
6	0x3f51b035	0.81909496
7	0x3f800000	1.0
8	0x3f7a7f1f	0.9785022
9	0x3f36ed40	0.71455765
10	0x3f4b596f	0.7943334
11	0x3f2b34d4	0.66877484
12	0x3f800000	1.0
13	0x3fbc14eb	1.4693884
14	0x3fa0224c	1.2510467
15	0x3f800000	1.0
16	0x3f800000	1.0
17	0x3f877084	1.0581212
18	0x3f800000	1.0
19	0x3f1fca10	0.624177
20	0x3f8ea6b0	1.1144619
21	0x3f74e6fa	0.9566494
22	0x3ee91925	0.45526996
23	0x3f79fdd8	0.9765296
24	0x3f800000	1.0
25	0x3f800000	1.0
26	0x3f800000	1.0
27	0x3f800000	1.0
28	0x3f2f2c25	0.68426734
29	0x3f6217e1	0.88317686
30	0x3f800000	1.0
31	0x3f800000	1.0
32	0x3f800000	1.0
33	0x3f2366c4	0.6382868
34	0x3f800000	1.0
35	0x3f800000	1.0
36	0x3f800000	1.0
37	0x3f800000	1.0
38	0x3fc4e079	1.5381004
39	0x3f3447b9	0.7042194
40	0x3f800000	1.0
41	0x3f800000	1.0
42	0x3f66239e	0.898981
43	0x3f22ecb2	0.6364242
44	0x3f537e82	0.8261491
45	0x3f800000	1.0
46	0x3f8ab654	1.0836892
47	0x3f3516fa	0.70738184
48	0x3f9514ae	1.1646936
49	0x3f800000	1.0
50	0x3f800000	1.0
51	0x3f1c2931	0.61000353
52	0x3f35a292	0.7095119
53	0x3f41a8ec	0.7564838
54	0x3f88f41f	1.06995
55	0x3f36ec6c	0.714545
56	0x3f800000	1.0
57	0x3f800000	1.0
58	0x3f800000	1.0
59	0x3f800000	1.0
60	0x3f800000	1.0
61	0x3f9ca6ee	1.2238443
62	0x3f2f994d	0.68593293
63	0x3f800000	1.0

conv1.conv.local_nn.0.2.bias f4 [64]
0	0x3e0f523f	0.13996218
1	0x3dfc0028	0.12304717
2	0xbc82ff75	-0.015990952
3	0x3dcb125a	0.0991561
4	0x3dfb058e	0.12256919
5	0x3ce19f76	0.027541857
6	0x3e405b74	0.18784887
7	0xbdb3b503	-0.087747596
8	0xbd492dc0	-0.049115896
9	0x3e56121c	0.20905346
10	0x3e733517	0.23750721
11	0x3e1677d4	0.14694148
12	0xbd8ac8a7	-0.06776553
13	0x3e06ac66	0.13151702
14	0xbb2e2498	-0.0026572105
15	0x3e03d88e	0.12875578
16	0xbc96d300	-0.01841116
17	0x3dedfd28	0.11620551
18	0x3cddb3ae	0.027063217
19	0x3e1471e0	0.14496565
20	0x3e3b1335	0.18269046
21	0x3e13a312	0.14417675
22	0x3e3fb966	0.18723068
23	0x3c2528ab	0.010080497
24	0x3c35b256	0.011089882
25	0x3d643959	0.055718753
26	0xbd8b1ec2	-0.06792976
27	0x3cdd41bd	0.027008886
28	0x3e8777e4	0.26458657
29	0xbc24b87d	-0.010053751
30	0xbcc6df18	-0.024276301
31	0x3ba83ebb	0.005134431
32	0x3d5e6277	0.054293122
33	0x3e25797f	0.16159628
34	0x3ddc2677	0.10749524
35	0xbd8087b8	-0.06275886
36	0x3b9cfc8f	0.0047908495
37	0x3ddc9745	0.1077104
38	0x3cdb23f5	0.026750544
39	0x3de15cab	0.11004003
40	0xbc8bc946	-0.017063748
41	0x3d9eebf9	0.07759852
42	0x3e1a8295	0.15088876
43	0x3da754e4	0.081704885
44	0x3e864445	0.2622396
45	0x3e039a2f	0.12851785
46	0x3e5122ac	0.20423383
47	0x3e3c045e	0.18361041
48	0x3e9dac58	0.3079555
49	0xbde1e05e	-0.11029123
50	0x3dd3dc74	0.103447825
51	0x3e388f39	0.18023385
52	0xbb16594e	-0.0022941413
53	0x3e722421	0.23646595
54	0x3e482fa3	0.19549422
55	0x3e504dab	0.20342128
56	0xbddf7aad	-0.109120704
57	0x3e31028c	0.17286128
58	0x3e12439e	0.14283606
59	0x3c97a0e5	0.018509338
60	0xbe03c2d2	-0.12867287
61	0x3e190ea0	0.14946985
62	0x3e766d83	0.24065213
63	0xbd904704	-0.07044795

conv1.conv.local_nn.0.2.running_mean f4 [64]
0	0x41cf920b	25.94631
1	0x3fda5394	1.7056756
2	0x00000000	0.0
3	0x00000000	0.0
4	0x3cf7dd70	0.030256957
5	0x00000000	0.0
6	0x40fc3f93	7.8827605
7	0x00000000	0.0
8	0x00000004	6e-45
9	0x420b5787	34.835476
10	0x418b8a78	17.442612
11	0x4070b7ef	3.7612264
12	0x00000000	0.0
13	0x3f81130d	1.0083939
14	0x3ff18d65	1.8871275
15	0x00000000	0.0
16	0x00000000	0.0
17	0x40552e5b	3.3309543
18	0x00000000	0.0
19	0x42301b61	44.026737
20	0x3d9c53c9	0.07633168
21	0x4048b9b0	3.1363335
22	0x4237a484	45.91066
23	0x00000004	6e-45
24	0x00000000	0.0
25	0x00000000	0.0
26	0x00000000	0.0
27	0x00000000	0.0
28	0x424bc1fc	50.939438
29	0x00000004	6e-45
30	0x00000000	0.0
31	0x00000000	0.0
32	0x00000000	0.0
33	0x411385d1	9.22017
34	0x00000000	0.0
35	0x00000000	0.0
36	0x00000000	0.0
37	0x00000000	0.0
38	0x3f763438	0.9617343
39	0x40bf2da0	5.9743195
40	0x00000000	0.0
41	0x00000000	0.0
42	0x407a4e68	3.9110355
43	0x4263755a	56.8646
44	0x414ce09b	12.804835
45	0x00000000	0.0
46	0x3ff0b914	1.8806481
47	0x417f68c9	15.963082
48	0x3f8f99b6	1.1218784
49	0x00000000	0.0
50	0x00000000	0.0
51	0x414ca115	12.789327
52	0x40be653e	5.9498587
53	0x4081ff86	4.062442
54	0x40171ed0	2.3612556
55	0x41cb33a3	25.400213
56	0x00000000	0.0
57	0x00000000	0.0
58	0x00000000	0.0
59	0x00000000	0.0
60	0x00000000	0.0
61	0x40322808	2.7836933
62	0x40989760	4.7684784
63	0x00000000	0.0

conv1.conv.local_nn.0.2.running_var f4 [64]
0	0x441da9bd	630.65216
1	0x4080140a	4.002446
2	0x00000004	6e-45
3	0x00000004	6e-45
4	0x3cb8aa6b	0.0225422
5	0x00000004	6e-45
6	0x42694b4d	58.323536
7	0x00000004	6e-45
8	0x00000004	6e-45
9	0x44930307	1176.0946
10	0x437f0c3c	255.04779
11	0x4194f360	18.618835
12	0x00000004	6e-45
13	0x3fec5b9b	1.8465456
14	0x40bae2a1	5.8401647
15	0x00000004	6e-45
16	0x00000004	6e-45
17	0x419c1ad5	19.513102
18	0x00000004	6e-45
19	0x44e9f073	1871.514
20	0x3e0065aa	0.12538782
21	0x411ce4e8	9.805885
22	0x44f1e8a2	1935.2698
23	0x00000004	6e-45
24	0x00000004	6e-45
25	0x00000004	6e-45
26	0x00000004	6e-45
27	0x00000004	6e-45
28	0x451529e7	2386.619
29	0x00000004	6e-45
30	0x00000004	6e-45
31	0x00000004	6e-45
32	0x00000004	6e-45
33	0x42c93d16	100.61931
34	0x00000004	6e-45
35	0x00000004	6e-45
36	0x00000004	6e-45
37	0x00000004	6e-45
38	0x400b6880	2.1782532
39	0x4293e2bd	73.94285
40	0x00000004	6e-45
41	0x00000004	6e-45
42	0x4163749c	14.215969
43	0x4537a2d2	2938.1763
44	0x43085674	136.3377
45	0x00000004	6e-45
46	0x40938a8c	4.6106625
47	0x435a2328	218.13733
48	0x406d5683	3.7084053
49	0x00000004	6e-45
50	0x00000004	6e-45
51	0x43379967	183.59923
52	0x425997d6	54.398277
53	0x4188fecd	17.124414
54	0x414abeed	12.671613
55	0x4422670d	649.61017
56	0x00000004	6e-45
57	0x00000004	6e-45
58	0x00000004	6e-45
59	0x00000004	6e-45
60	0x00000004	6e-45
61	0x40d9d80d	6.8076234
62	0x41eef977	29.871809
63	0x00000004	6e-45

conv1.conv.local_nn.1.0.weight f4 [128, 64]
0	0x3d830713	0.06397834
1	0xbce3b4cd	-0.027796173
2	0x3e55f889	0.2089559
3	0xbd871e81	-0.06597615
4	0x3e972301	0.29518893
5	0xbe51de45	-0.20494945
6	0xbe378698	-0.17922437
7	0x3e43e272	0.19129351
8	0x3dac71a7	0.08420115
9	0xbdf59bc6	-0.11992602
10	0xbd53cb38	-0.051707476
11	0xbda6a9ec	-0.08137879
12	0x3d295d7a	0.04134891
13	0x3d179611	0.03700835
14	0x3cd8ab2d	0.02644881
15	0xbe53841e	-0.20655867
16	0x3c057bf2	0.008147227
17	0x3e1e30f8	0.15448368
18	0xbd46b007	-0.048507717
19	0x3d1beaf9	0.038065884
20	0x3dc725c0	0.09723997
21	0x3cffa650	0.031207234
22	0xbc53fda6	-0.0129388925
23	0xbd5dfbe1	-0.05419529
24	0xbda8f32d	-0.08249507
25	0xbe59480d	-0.21218891
26	0x3e5b6484	0.21425062
27	0xbe090b9c	-0.13383335
28	0x3b8ac765	0.0042351955
29	0xbd1322ee	-0.035921983
30	0xbcb15e4a	-0.021651406
31	0x3da4a65a	0.080395415
32	0xbe3ddb29	-0.18540634
33	0xbdead986	-0.114672706
34	0xbe4dcc5e	-0.20097491
35	0x3d1c8272	0.03821034
36	0xbd23a08c	-0.03994803
37	0xbe56c8c0	-0.20975018
38	0xbd630ae1	-0.055430297
39	0x3d199968	0.037499815
40	0x3e0a1ef7	0.13488375
41	0xbe0da260	-0.13831472
42	0x3dc9a17a	0.09845252
43	0x3c6a0c19	0.014285111
44	0x3cc05dbf	0.023482202
45	0xbe24ef24	-0.1610685
46	0x3e0a5b14	0.13511306
47	0x3d887aaa	0.06664021
48	0xbeb9274c	-0.36162794
49	0x3e57c84b	0.210725
50	0xbd9e4ccb	-0.07729491
51	0xbd6e5fe3	-0.058196913
52	0x3ce3ec88	0.027822748
53	0x3d86ab37	0.065756254
54	0x3c21f1f3	0.009884345
55	0xbd200f99	-0.039077375
56	0x3e536775	0.20644934
57	0xbe154f99	-0.14581145
58	0xbd7a49d4	-0.061105564
59	0xbc8e0c9d	-0.017339999
60	0x3ddd1eb4	0.10796872
61	0xbc9a717f	-0.018852947
62	0xbd2f6bc5	-0.042827386
63	0x3e399bce	0.18125841
64	0x3d1221ba	0.035676695
65	0xbe298b0b	-0.16556947
66	0x3e93e16c	0.2888292
67	0xbe6baff1	-0.23016335
68	0x3d8cc18b	0.06872853
69	0xbea52a16	-0.32258672
70	0x3e14409b	0.1447777
71	0x3e96c20f	0.2944493
72	0x3e1d35e3	0.15352587
73	0x3d14f7ad	0.036369015
74	0x3db729c5	0.08943514
75	0x3d3937f1	0.045219366
76	0x3e6da436	0.23207173
77	0x3db8d760	0.090254545
78	0xbe57d5d2	-0.2107766
79	0xbe8d1a50	-0.27559137
80	0x3cb1305f	0.02162951
81	0x3dc3817d	0.09546182
82	0xbdb30ffc	-0.08743283
83	0x3e0e55b5	0.13899882
84	0x3c96a57c	0.018389456
85	0xbdbec0ae	-0.093140945
86	0x3e12948b	0.14314477
87	0xbd2471e5	-0.04014768
88	0xbc0bfad6	-0.008543691
89	0xbe88f376	-0.26748246
90	0x3e38d174	0.1804865
91	0xbe2bd82b	-0.1678168
92	0x3d3f2cd0	0.046673596
93	0x3d7c3c59	0.06158099
94	0xbcaa9b66	-0.020826053
95	0xbd07f8ee	-0.033196382
96	0xbd9f2374	-0.07770434
97	0xbddac5d3	-0.10682263
98	0xbe3869c7	-0.18009101
99	0x3e8d12c6	0.27553385
100	0xbe394908	-0.18094265
101	0xbe3920ce	-0.1807892
102	0x3ced983e	0.029003259
103	0x3d2771c8	0.040879995
104	0x3e166ae8	0.14689219
105	0xbddeaf3b	-0.10873266
106	0xbd502d58	-0.050824493
107	0x3e483e3a	0.19554988
108	0x3e14eacd	0.14542694
109	0xbdd78694	-0.105237156
110	0xbd6dae61	-0.05802763
111	0x3d75b429	0.059986267
112	0x3d40374b	0.04692773
113	0x3e366fa2	0.17816022
114	0xbe91b85e	-0.28460974
115	0x3e2ca2c5	0.16858967
116	0x3d170aa6	0.03687539
117	0x3e3d6556	0.18495688
118	0xbd9ebfc8	-0.07751423
119	0x3db5bcc3	0.08873894
120	0x3e658114	0.2241252
121	0xbe89c1a7	-0.26905558
122	0xbe2b7f4a	-0.16747776
123	0xbdf5678a	-0.11982639
124	0x3e9440fa	0.28955823
125	0x3e79e362	0.24403146
126	0x3e2fe477	0.17176996
127	0x3e197b8a	0.14988533
128	0x3b76c416	0.0037653497
129	0xbda6427e	-0.08118151
130	0x3e1b24c7	0.15150748
131	0xbd9eac86	-0.0774775
132	0xbd915348	-0.07095963
133	0x3cc15c71	0.02360365
134	0x3d188961	0.03724039
135	0xbcb09933	-0.021557426
136	0xbcca8b3d	-0.024724597
137	0x3e0900b5	0.13379176
138	0x3d87b251	0.06625808
139	0x3dd440db	0.10363933
140	0xbd120536	-0.0356495
141	0x3e2e5f14	0.17028457
142	0xbd01c41d	-0.03168117
143	0xbd491fdd	-0.049102653
144	0xbc46aa4a	-0.012125561
145	0x398a5369	0.00026383557
146	0xbd6b0810	-0.057380736
147	0x3c98fc41	0.018674972
148	0x3e0a6cd1	0.13518073
149	0xbe32c348	-0.17457306
150	0x3d88eb39	0.0668549
151	0xbd83c00f	-0.06433117
152	0x3e332dab	0.1749789
153	0xbdc7681a	-0.09736653
154	0xbbea3e87	-0.007148567
155	0xbda2f81f	-0.079574816
156	0x3d9a5342	0.075354114
157	0xbdb4b739	-0.088240094
158	0xbd9725d0	-0.07380259
159	0xbd9157e6	-0.070968434
160	0xbd9f11d1	-0.0776707
161	0x3d7748c0	0.060372114
162	0xbe1056e9	-0.14095654
163	0x3d465a46	0.048425935
164	0x3de4eeca	0.11178358
165	0xbdaa6744	-0.083204776
166	0xbe669976	-0.22519478
167	0xbde9cf45	-0.11416487
168	0x3de33737	0.11094516
169	0xbc57db17	-0.013174794
170	0x3c6250b5	0.013813187
171	0x3e060dfd	0.13091274
172	0x3b121fcc	0.0022296784
173	0xbd994677	-0.07484143
174	0x3d3b42ee	0.045718126
175	0x3e1275a3	0.14302687
176	0xbea44f9e	-0.32091993
177	0xbd26716b	-0.040635508
178	0x3da6afc4	0.081389934
179	0x3dd940f5	0.10608093
180	0x3cacabce	0.021078017
181	0x3de27ed9	0.110593505
182	0xbc1f654c	-0.009728741
183	0xbd8ef85a	-0.06980963
184	0x3d9a0be4	0.07521799
185	0xbe115777	-0.14193521
186	0xbe0d2d8f	-0.1378691
187	0x3de8b139	0.113619275
188	0xbca560de	-0.020187791
189	0x3e7b0be9	0.24516262
190	0x3e07d4ed	0.13264818
191	0xbd049cb1	-0.032375995
192	0xbc91160f	-0.017710714
193	0xbd9d04b0	-0.0766691
194	0xbcc54588	-0.024081007
195	0xbc94f256	-0.018181961
196	0x3e1fcdd6	0.15605864
197	0x3d02640f	0.031833705
198	0x3cbdbea9	0.023162203
199	0x3e35d398	0.17756498
200	0x3a9defd8	0.0012049628
201	0xbda0c5ec	-0.078502506
202	0x3c5dc57f	0.013535856
203	0xbd96f5cd	-0.073711015
204	0x3db583ed	0.088630535
205	0xbec13d76	-0.37742203
206	0xbcd71143	-0.026253348
207	0xbd9da2aa	-0.07697041
208	0xbe24bf6d	-0.16088648
209	0x3e230c94	0.15922767
210	0xbc58b43a	-0.013226563
211	0x3de4b899	0.11168022
212	0x3dfc3135	0.12314073
213	0xbe0d48f4	-0.1379736
214	0x3a38e215	0.0007052732
215	0x3da6b5dc	0.08140156
216	0x391a6e05	0.0001472757
217	0xbdd3184b	-0.10307368
218	0x3c73afea	0.014873484
219	0xbe144cb8	-0.14482391
220	0xbcea2011	-0.028579744
221	0xbd678829	-0.056526337
222	0xbe0d87d0	-0.1382134
223	0xbd63a143	-0.055573713
224	0xbe13beee	-0.14428303
225	0x3dc471c7	0.09592014
226	0xbdf7dd5c	-0.12102768
227	0x3d8b8d6d	0.06814084
228	0x3bfed197	0.00777645
229	0xbe27315f	-0.16327427
230	0x3e98d875	0.29852644
231	0x3d6f9676	0.0584931
232	0xbd58f012	-0.052963324
233	0xbe240587	-0.16017734
234	0xbd822d18	-0.06356257
235	0xbc274416	-0.010209104
236	0xbb1bc747	-0.0023769902
237	0xbd7a7347	-0.061145093
238	0x3d4e89e7	0.050424483
239	0x3dc1ef13	0.09469428
240	0xbe6ba7f7	-0.23013292
241	0x3df658d8	0.12028664
242	0xbd07f0fb	-0.0331888
243	0xbdbb2fdc	-0.09139988
244	0xbb3bfce0	-0.002868466
245	0xbdbdcf9c	-0.09268114
246	0xbd9164f4	-0.070993334
247	0xbc48f96f	-0.012266501
248	0xbd3e84a6	-0.046513222
249	0x3d268ed4	0.040663555
250	0x3d45f77d	0.048331726
251	0x3dbdf4f3	0.09275236
252	0x3e1050e5	0.14093359
253	0x3d8bb45a	0.06821509
254	0x3d54e5a3	0.05197681
255	0x3d0a5c88	0.03377965

conv1.conv.local_nn.1.0.bias f4 [128]
0	0xbe2d0b49	-0.16898836
1	0xbe23ce8f	-0.15996765
2	0xbc826a87	-0.015919937
3	0x3da27685	0.07932762
4	0xbb9c9f2c	-0.004779717
5	0xbe191eb4	-0.14953119
6	0xbe745a12	-0.23862484
7	0xbe0a3ce6	-0.13499793
8	0xbdf1d259	-0.11807699
9	0xbe64c325	-0.22340067
10	0xbeba97a9	-0.36443833
11	0x3cd51185	0.02600933
12	0xbd792fa3	-0.060836446
13	0xbb98ad1d	-0.0046593086
14	0x3d85450c	0.0650731
15	0xbdf29032	-0.11843909
16	0xbdc0718e	-0.09396659
17	0x3d3d1b93	0.046168875
18	0x3b614b4f	0.0034377163
19	0xbdcded0a	-0.10054977
20	0xbd38226f	-0.044954713
21	0x3d70aeb0	0.058760345
22	0xbce67d08	-0.028135791
23	0xbdd437f9	-0.103622384
24	0xbd0ee6e3	-0.03488816
25	0xbd01434d	-0.031558324
26	0x3da03e24	0.078243524
27	0xbe9c7b43	-0.3056279
28	0x3d532f42	0.05155874
29	0xbdcf497e	-0.101214394
30	0xbe3f860c	-0.18703479
31	0x3c9616ca	0.018321414
32	0x3d194c6a	0.03742639
33	0xbe4db91d	-0.20090146
34	0xbc9df076	-0.0192797
35	0xbdb76d8b	-0.089564405
36	0xbcb88b38	-0.022527322
37	0xbce041fb	-0.027375212
38	0x3cf95825	0.030437538
39	0xbe1aeae1	-0.15128662
40	0x3d274c44	0.040844217
41	0xbde8170a	-0.11332519
42	0xbe409568	-0.18806994
43	0x3cc6b754	0.02425734
44	0xbcd82f8c	-0.02638986
45	0xbe68d980	-0.2273922
46	0xbdb1f971	-0.08690155
47	0xbe10e6f2	-0.14150599
48	0x3e0e0572	0.13869265
49	0x3b828a61	0.003983781
50	0xbce5f089	-0.028068798
51	0xbe2d5afd	-0.1692924
52	0xbe5312ee	-0.2061269
53	0xbcf3addc	-0.029745989
54	0xbe445973	-0.19174747
55	0xbda96d62	-0.08272816
56	0xbdb28445	-0.08716635
57	0xbd9c9cc5	-0.07647089
58	0x3b947e0b	0.004531627
59	0xbdd3af95	-0.10336224
60	0xbe3aceeb	-0.18242995
61	0xbd9633a0	-0.073340654
62	0xbe98bbc8	-0.29830766
63	0xbdec534c	-0.11539325
64	0xbdf135e5	-0.11777858
65	0xbe18ca03	-0.14920811
66	0xbdb42e0d	-0.08797846
67	0xbdc32c44	-0.095299274
68	0xbe3967d3	-0.18106012
69	0x3de4e4ac	0.11176428
70	0xbe3c4ace	-0.1838791
71	0x3be43f66	0.0069655655
72	0x3c48cc70	0.012255773
73	0xbe77ea01	-0.24210359
74	0xbb6c0609	-0.003601434
75	0xbd8b0c27	-0.06789427
76	0xbdbbf30f	-0.09177219
77	0xbdd7f35d	-0.10544465
78	0x3d938491	0.072030194
79	0x3cdd59a7	0.027020289
80	0x3dbad873	0.09123316
81	0xbddecd51	-0.10879005
82	0xbd44b64a	-0.048025407
83	0xbde19deb	-0.110164486
84	0xbe041f65	-0.12902601
85	0xbd1ed831	-0.038780395
86	0xbda352d3	-0.07974782
87	0x3d4c52a2	0.049883492
88	0xbe2219f0	-0.15830207
89	0xbe321be5	-0.17393453
90	0x3d6d748f	0.057972487
91	0xbda19ec0	-0.07891607
92	0xbdb195c8	-0.08671147
93	0xbe343296	-0.17597422
94	0xbe69ef9c	-0.2284531
95	0xbe586d2d	-0.21135397
96	0xbd89825d	-0.06714318
97	0x3d097ece	0.033568196
98	0xbcc1d482	-0.023660902
99	0xbc8d18c8	-0.01722373
100	0xbe87db9f	-0.26534745
101	0xbe08e114	-0.1336711
102	0xbd9423ac	-0.07233366
103	0xbd7b761a	-0.061391927
104	0xb95be0be	-0.0002096919
105	0xbdeecdc3	-0.1166034
106	0xbce9a51b	-0.028521111
107	0x3d5bb32e	0.053637676
108	0xbd3b7f9e	-0.045776002
109	0x3c5e298e	0.013559712
110	0xbdaca06a	-0.08429034
111	0x3ccce7d8	0.025012895
112	0xbe776299	-0.24158706
113	0xbd5c6709	-0.0538092
114	0x3d0fb16b	0.03508131
115	0xbd3c3083	-0.045944702
116	0xbe401f65	-0.18761976
117	0x3d1fd951	0.03902561
118	0xbda8344a	-0.08213098
119	0x3dd24e60	0.10268855
120	0xbd705f50	-0.058684647
121	0x3e46c038	0.19409263
122	0xbdfcfd00	-0.123529434
123	0x3d931e6a	0.071835354
124	0xbcf7220a	-0.030167598
125	0xbe7132de	-0.2355456
126	0xbdcf4c6b	-0.101219974
127	0x3e08fe29	0.13378204

conv1.conv.local_nn.1.2.weight f4 [128]
0	0x3f7a9a60	0.9789181
1	0x3f3e3fd7	0.7431616
2	0x3f473f6d	0.77831155
3	0x3f8a05b1	1.0782987
4	0x3f9537a7	1.1657609
5	0x3f8d3dba	1.1034462
6	0x3f3d295e	0.73891246
7	0x3f826444	1.0186849
8	0x3f74524a	0.95438063
9	0x3f4dd344	0.8040049
10	0x3f940d50	1.1566563
11	0x3f0e680c	0.5562751
12	0x3f7a3ad7	0.9774603
13	0x3f5a8f1c	0.8537462
14	0x3f57c0a8	0.84278345
15	0x3f305d96	0.688928
16	0x3f4d1556	0.8011068
17	0x3f867a74	1.050612
18	0x3f8c5f4d	1.0966583
19	0x3f687bef	0.9081411
20	0x3f87054f	1.0548495
21	0x3f8d9412	1.1060812
22	0x3f634677	0.88779396
23	0x3f90b654	1.1305642
24	0x3f923ff8	1.1425772
25	0x3f701fe4	0.9379866
26	0x3f759f1f	0.95945925
27	0x3f736b2b	0.950854
28	0x3f7b0da8	0.9806771
29	0x3f48b9ab	0.78408307
30	0x3f758c1b	0.9591691
31	0x3f8f47f5	1.1193835
32	0x3f880e95	1.062945
33	0x3f82c882	1.021744
34	0x3f29f22e	0.6638516
35	0x3f93f0d1	1.1557866
36	0x3f240aaf	0.640788
37	0x3f831847	1.0241784
38	0x3f34162c	0.7034633
39	0x3f728c09	0.94744927
40	0x3f3c9c6e	0.7367619
41	0x3f5f297f	0.87172693
42	0x3f87f448	1.0621424
43	0x3f807707	1.0036324
44	0x3f8bf3a8	1.0933733
45	0x3f500ad8	0.81266546
46	0x3f4f62d8	0.810102
47	0x3f87cbc4	1.0609059
48	0x3f54cf52	0.83128846
49	0x3f88760e	1.0661027
50	0x3f454b9e	0.7706851
51	0x3f5c6532	0.8609191
52	0x3f9174fb	1.1363825
53	0x3f6e62cb	0.93119496
54	0x3f765c3d	0.96234494
55	0x3f3a816a	0.7285372
56	0x3f26d6ed	0.651717
57	0x3f90b1b7	1.1304234
58	0x3f723762	0.9461576
59	0x3f3c833f	0.73637766
60	0x3f98dcb4	1.1942353
61	0x3f763636	0.9617647
62	0x3f933e48	1.1503382
63	0x3f71f666	0.945166
64	0x3f1c4a1d	0.6105059
65	0x3f55b5c8	0.834805
66	0x3f87f82f	1.0622615
67	0x3f667b28	0.9003167
68	0x3f704519	0.93855435
69	0x3f73d5f8	0.95248365
70	0x3f44b6db	0.76841515
71	0x3f5588a9	0.8341165
72	0x3f830646	1.023629
73	0x3f80af13	1.0053428
74	0x3f6e3239	0.93045384
75	0x3f81c245	1.0137411
76	0x3f904700	1.1271667
77	0x3f800ce3	1.0003933
78	0x3f6091f8	0.8772273
79	0x3f2142bf	0.6299247
80	0x3f68dbb3	0.90960234
81	0x3f97d63f	1.1862258
82	0x3f20f019	0.6286636
83	0x3f97d6eb	1.1862463
84	0x3f960222	1.1719401
85	0x3f9c94de	1.2232931
86	0x3f83eb5c	1.0306201
87	0x3f6a2865	0.9146789
88	0x3f7d83f7	0.9902949
89	0x3f31cf85	0.69457275
90	0x3f7ed982	0.9955064
91	0x3f2cc201	0.67483526
92	0x3f6c5c83	0.9232866
93	0x3f7ae434	0.9800446
94	0x3f811a4c	1.008615
95	0x3f8d3a4b	1.1033415
96	0x3f78caaf	0.9718427
97	0x3f881d53	1.0633949
98	0x3f8b1268	1.0864992
99	0x3f8a4733	1.0802978
100	0x3f34636a	0.70464194
101	0x3f600773	0.87511367
102	0x3fb267ad	1.3937889
103	0x3f33759e	0.70101345
104	0x3f441fc3	0.76610965
105	0x3f7fe629	0.9996057
106	0x3f6dd1d3	0.9289829
107	0x3f5730c5	0.8405879
108	0x3f773f9d	0.9658144
109	0x3f5d31de	0.86404216
110	0x3f88b331	1.0679685
111	0x3f653340	0.89531326
112	0x3f7428fc	0.9537504
113	0x3f817a13	1.0115379
114	0x3f708059	0.93945843
115	0x3f7085cc	0.9395416
116	0x3f7263f4	0.94683766
117	0x3f3465a5	0.704676
118	0x3f85081a	1.0393097
119	0x3f4f064c	0.80868983
120	0x3f7628b6	0.9615587
121	0x3f4fc08b	0.8115317
122	0x3f719744	0.9437144
123	0x3f59e11a	0.851091
124	0x3f7aeeda	0.9802071
125	0x3f406cd3	0.7516605
126	0x3f657def	0.89645284
127	0x3f663873	0.89929885

conv1.conv.local_nn.1.2.bias f4 [128]
0	0xbdbc55d9	-0.09196062
1	0xbe1b92fc	-0.15192789
2	0xbd9c8d0a	-0.076440886
3	0xbe775c60	-0.24156332
4	0xbe49d7fa	-0.19711295
5	0xbeb08ede	-0.34484
6	0xbcc46497	-0.023973746
7	0xbebf60e7	-0.37378618
8	0xbea3cdce	-0.31992954
9	0x3cc57b29	0.024106579
10	0xbd0b8e40	-0.034071207
11	0xbe4922f8	-0.19642246
12	0xbdbd2510	-0.09235585
13	0xbe1e8267	-0.15479432
14	0xbe8e758c	-0.27824056
15	0xbd4ac1c6	-0.049501203
16	0xbe2e2189	-0.1700498
17	0xbdbfdf23	-0.09368732
18	0x3dff4bf8	0.12465662
19	0xbca926d6	-0.020648401
20	0xbdf42a5d	-0.11922143
21	0xbe926d77	-0.2859914
22	0xbbec6a8c	-0.00721485
23	0xbeb1a0dd	-0.3469304
24	0xbe2f4cda	-0.1711916
25	0xbe9149b3	-0.2837654
26	0xbe1de942	-0.15421012
27	0x3cfa1b2a	0.030530531
28	0xbe60b37c	-0.21943468
29	0x3cdcee1b	0.026969006
30	0xbd83c25d	-0.06433556
31	0xbe2214be	-0.15828225
32	0x3e4a0e04	0.19731909
33	0x3da5108d	0.080597974
34	0xbe6c0042	-0.23046973
35	0xbe55d7ed	-0.2088315
36	0xbdcb8761	-0.09937931
37	0xbe609548	-0.21931946
38	0xbc25a559	-0.010110223
39	0xbdd8c9fc	-0.105854005
40	0x3d56e43a	0.052463748
41	0xbc673366	-0.014111375
42	0xbe9009b2	-0.28132397
43	0xbe47cb91	-0.19511248
44	0xbe905e1a	-0.28196794
45	0xbe2579c4	-0.16159731
46	0xbd8021fc	-0.06256482
47	0x3d4a0cca	0.049328603
48	0xbeaa068f	-0.3320813
49	0xbe25416e	-0.1613824
50	0xbef927e4	-0.48663247
51	0x3c87806e	0.016540732
52	0xbe469287	-0.19391833
53	0xbe1078ed	-0.1410863
54	0x3d469e75	0.04849096
55	0xbe0a232d	-0.13489981
56	0x3cd488e3	0.025944179
57	0xbe6c62dd	-0.23084588
58	0xbddee5f9	-0.108837076
59	0xbcd833b4	-0.026391841
60	0x3b90303b	0.004400281
61	0xbd0eb1e6	-0.034837626
62	0x3daa3d85	0.08312515
63	0xbe32b10f	-0.17450355
64	0xbd79cd9e	-0.060987107
65	0x3de22b07	0.11043363
66	0xbe002be6	-0.12516746
67	0xbe6e8922	-0.232945
68	0x3dcfe4dc	0.10151073
69	0xbeb82a3e	-0.35969728
70	0xbc233c8b	-0.009963165
71	0xbd547c49	-0.05187634
72	0xbd83b15d	-0.06430314
73	0xbea1ff00	-0.31639862
74	0xbea9ae71	-0.331409
75	0xbe749ef8	-0.23888767
76	0xbe0666a9	-0.13125099
77	0xbe49891c	-0.1968121
78	0xbe88be46	-0.26707667
79	0xbc95ed75	-0.018301705
80	0xbe1361a8	-0.14392722
81	0xbeafe4d0	-0.34354258
82	0xbd870e21	-0.06594492
83	0xbedcc5ef	-0.4311976
84	0x3cce5395	0.02518634
85	0xbe175263	-0.14777522
86	0xbe01c1ca	-0.12671581
87	0xbe9d51c4	-0.30726445
88	0xbe8e32d7	-0.27773163
89	0xbc184dde	-0.009295909
90	0xbdf424ee	-0.11921106
91	0xbc979466	-0.01850338
92	0xbe49455e	-0.19655368
93	0xbe9ae098	-0.30249476
94	0x3dd95d04	0.106134444
95	0xbc5aeed4	-0.013362605
96	0xbd588910	-0.052865088
97	0x3d682b66	0.056682013
98	0xbe757a9b	-0.23972552
99	0xbddcfa73	-0.10789957
100	0x3ddd92b9	0.10819001
101	0xbe6cad6a	-0.23113027
102	0xbe854537	-0.2602937
103	0xbe5fd58a	-0.21858802
104	0xbde893ec	-0.11356339
105	0xbea1e5f8	-0.31620765
106	0xbdeb96b8	-0.11503357
107	0xbe54922e	-0.20758888
108	0xbe77c49d	-0.24196096
109	0xbe3d3825	-0.18478449
110	0xbe13561e	-0.1438832
111	0xbdd820fe	-0.10553168
112	0xbd87efcf	-0.06637537
113	0xbe83a4e8	-0.2571175
114	0xbdef11d3	-0.116733216
115	0xbda5f423	-0.08103206
116	0x3c260af3	0.010134446
117	0xbe6ef670	-0.23336196
118	0xbdc3b59d	-0.09556124
119	0xbe89024c	-0.26759565
120	0xbed6a3bb	-0.4192179
121	0xbe542c79	-0.2072009
122	0xbd3ef575	-0.046620805
123	0xbe593e9d	-0.21215291
124	0xbea61029	-0.32434204
125	0x3dddaf70	0.10824478
126	0xbe84fec0	-0.2597561
127	0xbe2ffa53	-0.17185335

conv1.conv.local_nn.1.2.running_mean f4 [128]
0	0x3d9d45b8	0.076793134
1	0x3e7f26b7	0.24917112
2	0x3e964540	0.2934971
3	0x3e72f5a0	0.23726511
4	0x3da845f5	0.08216468
5	0x3d972820	0.073807
6	0x3ddfb289	0.10922725
7	0x3d5b5eda	0.053557254
8	0x3db917b8	0.09037727
9	0x3ecf4df9	0.40489176
10	0x3d762866	0.06009712
11	0x3f46d71f	0.77672
12	0x3e08aa80	0.1334629
13	0x3f18ae34	0.5964081
14	0x3eb0b81a	0.34515458
15	0x3f01cf25	0.507067
16	0x3e3abad1	0.18235327
17	0x3e593b90	0.21214128
18	0x3e4729a7	0.19449483
19	0x3ee97b22	0.45601755
20	0x3e0cd520	0.13753176
21	0x3e68d41d	0.22737165
22	0x3e9f845d	0.31155673
23	0x3dbb86cd	0.091565706
24	0x3e80bcc2	0.2514401
25	0x3db0a534	0.0862526
26	0x3e751703	0.2393456
27	0x3d1df887	0.038567092
28	0x3ecbc660	0.39799786
29	0x3e23c6f0	0.15993857
30	0x3de86fde	0.11349462
31	0x3e447814	0.19186431
32	0x3efbaf30	0.49157095
33	0x3cfb35d2	0.030665312
34	0x3edf865a	0.4365719
35	0x3e57fa01	0.21091463
36	0x3f17985e	0.5921687
37	0x3e1ee17e	0.15515706
38	0x3ed6a41a	0.41922075
39	0x3e50fbfa	0.20408621
40	0x3eb68ddb	0.35655102
41	0x3e3fc2c5	0.18726642
42	0x3d5a31ea	0.053270258
43	0x3dfe5d6c	0.124201626
44	0x3d7fd7f0	0.062461793
45	0x3e219d62	0.15782693
46	0x3ea04f7f	0.3131065
47	0x3e1e7345	0.1547366
48	0x3f0f2dc5	0.55929214
49	0x3e39b5dc	0.1813578
50	0x3ec68fef	0.38781688
51	0x3e6b498d	0.22977276
52	0x3d9866b2	0.074414626
53	0x3e9737d6	0.29534787
54	0x3e839a74	0.25703776
55	0x3e8761b4	0.2644173
56	0x3e5d7d6b	0.21629874
57	0x3d8dd287	0.069249205
58	0x3e4cce03	0.20000462
59	0x3e9bddb5	0.30442587
60	0x3e37db71	0.17954804
61	0x3e0d9cb8	0.13829315
62	0x3d10fe29	0.035398636
63	0x3e1943c3	0.14967255
64	0x3f2b7aff	0.6698455
65	0x3e2370fe	0.15961072
66	0x3e3b1cca	0.18272701
67	0x3dcc47a1	0.099746
68	0x3ebcf43b	0.36905083
69	0x3e722331	0.23646237
70	0x3e70a17c	0.23499101
71	0x3f293d32	0.66109
72	0x3e0523d9	0.13001956
73	0x3d3d3902	0.046196945
74	0x3e73a113	0.23791914
75	0x3d36d029	0.04463211
76	0x3e0c6b90	0.13712907
77	0x3e6df388	0.23237431
78	0x3ec08c49	0.3760703
79	0x3e97e0eb	0.29663786
80	0x3effb6e7	0.4994423
81	0x3d2677ac	0.04064147
82	0x3ec9cda6	0.3941471
83	0x3d9dae31	0.0769924
84	0x3e2d04a7	0.16896306
85	0x3dcba06e	0.09942709
86	0x3df994e9	0.121866055
87	0x3e8dc931	0.2769256
88	0x3dbdd9c7	0.09270053
89	0x3dfa9eae	0.12237297
90	0x3eece68b	0.4626964
91	0x3e30ed98	0.17278135
92	0x3eb50442	0.3535481
93	0x3daabc19	0.08336658
94	0x3eaf2838	0.34210372
95	0x3d5b0721	0.053473596
96	0x3e0cf7ce	0.13766405
97	0x3ec638c0	0.38715172
98	0x3e55a1ae	0.20862457
99	0x3d96e028	0.07366973
100	0x3dd4f142	0.10397579
101	0x3e5cb832	0.2155464
102	0x3db8f76c	0.09031567
103	0x3f047654	0.51743054
104	0x3eded7f5	0.43524137
105	0x3d990fc0	0.07473707
106	0x3e82d59a	0.2555359
107	0x3f164896	0.5870451
108	0x3df21066	0.11819534
109	0x3e45c4f0	0.19313407
110	0x3dadf572	0.084940806
111	0x3ebc09e1	0.36726287
112	0x3cae5a7f	0.021283386
113	0x3e1a5ab3	0.15073662
114	0x3e36e763	0.17861705
115	0x3e72c5fc	0.23708338
116	0x00000004	6e-45
117	0x3f206201	0.6264954
118	0x3e698d5d	0.22807832
119	0x3eb02409	0.34402493
120	0x3e041eff	0.12902449
121	0x3f1b7085	0.60718566
122	0x3dad1ac2	0.08452369
123	0x3f0d0954	0.5509236
124	0x3dff5ba8	0.12468654
125	0x3e2f1d80	0.17101097
126	0x3e534836	0.20633015
127	0x3f137317	0.5759749

conv1.conv.local_nn.1.2.running_var f4 [128]
0	0x3d9cfc31	0.07665289
1	0x3f1f7349	0.62285286
2	0x3f0004f5	0.50007564
3	0x3e3182fc	0.17335123
4	0x3d26d311	0.040728632
5	0x3ca9e69c	0.020739846
6	0x3e34d360	0.17658758
7	0x3c8f52b9	0.0174955
8	0x3ceb5d95	0.028731147
9	0x3fc48a70	1.5354748
10	0x3dd3171b	0.103071414
11	0x402b2a75	2.6744664
12	0x3dba4caf	0.090966575
13	0x3ee489b5	0.44636312
14	0x3e3dd893	0.18539648
15	0x3fd57769	1.6677066
16	0x3e324528	0.17409194
17	0x3da29d19	0.0794012
18	0x3e25f53f	0.16206835
19	0x3f5440db	0.8291146
20	0x3df0d489	0.11759288
21	0x3db9a7ce	0.09065209
22	0x3f2b2465	0.6685241
23	0x3cf7afda	0.03023522
24	0x3f20176e	0.6253575
25	0x3d40168c	0.046896502
26	0x3dbcca39	0.092182584
27	0x3ce1df68	0.027572349
28	0x3e5afa76	0.21384606
29	0x3edd1c91	0.43185857
30	0x3e2d284e	0.16909906
31	0x3d96b46a	0.0735863
32	0x3f429814	0.760133
33	0x3cf8ce24	0.030371733
34	0x3f8ff0a7	1.1245316
35	0x3da3ba9c	0.07994577
36	0x4010c585	2.2620556
37	0x3d8f3ec5	0.06994394
38	0x3f7a9b82	0.97893536
39	0x3e972368	0.295192
40	0x3ef50f1e	0.47863096
41	0x3ea96826	0.3308727
42	0x3c701ad4	0.014654834
43	0x3d9aaf21	0.075529344
44	0x3c9ac2d1	0.018891724
45	0x3e919c32	0.2843948
46	0x3f55f59f	0.83577913
47	0x3ead0154	0.33790076
48	0x3ec52fa0	0.38512897
49	0x3de2d7b0	0.110762954
50	0x3e51b8d9	0.2048067
51	0x3ed4a3a2	0.41531092
52	0x3d052fdb	0.03251634
53	0x3f7c93c3	0.98662966
54	0x3f3efcfe	0.74604785
55	0x3ef9e82e	0.48809952
56	0x3edff6e1	0.4374304
57	0x3c924e7d	0.017859692
58	0x3dae93d8	0.08524293
59	0x3f32e675	0.698829
60	0x3edc425d	0.4301938
61	0x3ddc3a27	0.10753279
62	0x3ccb7677	0.024836762
63	0x3d55d606	0.05220606
64	0x4046743a	3.100844
65	0x3e4ae209	0.19812788
66	0x3e6860fd	0.22693248
67	0x3d03bfdc	0.032165393
68	0x3f80bd7e	1.0057828
69	0x3dd3b7ec	0.10337815
70	0x3ee69bb9	0.45040682
71	0x3fc1550c	1.5104079
72	0x3dcb2c2f	0.09920537
73	0x3c4e0269	0.012573817
74	0x3e1178ac	0.14206189
75	0x3c0cae09	0.008586415
76	0x3dc1ad50	0.09456885
77	0x3dd6e3ef	0.10492694
78	0x3eec32ee	0.46132606
79	0x3f10dbd6	0.56585443
80	0x3fa02f6f	1.2514476
81	0x3c6d7fac	0.014495771
82	0x3fbcc6c0	1.4748154
83	0x3ccd65ae	0.025072899
84	0x3e7f3c0f	0.24925254
85	0x3d318025	0.0433351
86	0x3dede686	0.116162345
87	0x3dcd5e74	0.10027781
88	0x3cf4a7f3	0.02986524
89	0x3e891b59	0.26778677
90	0x3e6c9164	0.23102337
91	0x3ea181eb	0.31544432
92	0x3e3a5b74	0.18198949
93	0x3ce624d2	0.02809373
94	0x3fbb76fe	1.4645689
95	0x3ce38ecc	0.027778052
96	0x3e02622b	0.1273276
97	0x3e83ac23	0.25717267
98	0x3da07ba8	0.078360856
99	0x3cc2fc3d	0.023801917
100	0x3e0a3c3f	0.13499545
101	0x3de9b8cb	0.114121996
102	0x3d085209	0.03328136
103	0x3fcf368a	1.6188519
104	0x3f8785ec	1.0587745
105	0x3cd578fd	0.026058668
106	0x3f199c78	0.6000438
107	0x3ea45c9b	0.32101902
108	0x3d263bd1	0.04058439
109	0x3d8b3fd9	0.06799287
110	0x3d035878	0.032066792
111	0x3f0c0f7d	0.54711133
112	0x3ca6bf57	0.02035491
113	0x3d730a79	0.05933616
114	0x3db1e8d9	0.0868699
115	0x3ed57487	0.41690466
116	0x00000004	6e-45
117	0x3fe136f1	1.7594892
118	0x3db596a9	0.08866627
119	0x3e1252ec	0.14289445
120	0x3d799fd0	0.060943425
121	0x3eb8109f	0.3595018
122	0x3d128072	0.035767026
123	0x3ead4ae9	0.33846214
124	0x3d0b7d38	0.034054965
125	0x3eb08cd6	0.3448245
126	0x3dd79ecf	0.10528337
127	0x3ebf166a	0.37321788

pool.net.0.0.weight f4 [128, 131]
0	0xbde4af7b	-0.11166283
1	0xbcbc2c82	-0.022970442
2	0x3d5548d8	0.052071422
3	0xbe0df670	-0.1386354
4	0x3c918049	0.017761366
5	0x3e7701b8	0.2412175
6	0xbd18b170	-0.037278593
7	0xbdf3e149	-0.11908204
8	0x3daec424	0.085335046
9	0x3d63c70e	0.055609755
10	0x3c2b53ea	0.010457018
11	0xbb364a95	-0.002781545
12	0x3d5a9a5f	0.053369876
13	0xbd4ae6b8	-0.049536437
14	0xbc0b0f30	-0.008487508
15	0xbcef0d8c	-0.029181264
16	0x3e025111	0.12726237
17	0xbd34508e	-0.044022135
18	0x3d466420	0.04843533
19	0xbe18e980	-0.14932823
20	0x3d585118	0.052811712
21	0xbdf09ff4	-0.11749259
22	0x3c2f8933	0.010713863
23	0xbe4a4fa8	-0.19756949
24	0xbcaf3427	-0.021387173
25	0xbeccca32	-0.39998013
26	0xbdb8bc38	-0.09020275
27	0x3e15bed0	0.1462357
28	0x3dcbc3ac	0.09949431
29	0x3e586d9d	0.21135564
30	0x3bad0f2f	0.005281351
31	0xbd9eba00	-0.077503204
32	0x3c8e3399	0.017358588
33	0xbce2e9eb	-0.027699431
34	0x3c2165af	0.009850903
35	0xbdb72e14	-0.089443356
36	0x3e4f3187	0.20233737
37	0x3d90cb9d	0.07070086
38	0xbcc6c612	-0.02426437
39	0x3d9504ff	0.072763436
40	0x3d028787	0.03186753
41	0x3e38c61a	0.1804432
42	0x3d374c9d	0.0447508
43	0x3dee691a	0.1164114
44	0xbe62de79	-0.22155179
45	0x3e10c9f2	0.14139536
46	0xbd815178	-0.06314367
47	0xbd28a181	-0.041169647
48	0x3dd5fc1c	0.10448477
49	0xbd9b8bcc	-0.075950235
50	0xbdb88ed5	-0.09011618
51	0xbd801af5	-0.06255142
52	0xbecf4993	-0.4048582
53	0x3d3c0536	0.045903407
54	0x3df6995a	0.12040968
55	0x3e67505c	0.22589248
56	0xbbd1b784	-0.0064000506
57	0x3d9d2a06	0.07674031
58	0x3cac4ec3	0.02103365
59	0x3dbb75cf	0.091533296
60	0xbe002fa3	-0.12518172
61	0xbe67e94a	-0.22647586
62	0xbd859050	-0.06521666
63	0x3d0bfd40	0.034177065
64	0x3d918536	0.07105486
65	0x3e4df7d3	0.20114069
66	0xbd6e0cba	-0.058117606
67	0x3e0468e6	0.1293064
68	0xbd3ae0c6	-0.045624517
69	0xbe053ab3	-0.13010673
70	0x3d832dc4	0.064052135
71	0xbe239dee	-0.15978214
72	0x3bc95f78	0.006145414
73	0x3db64a16	0.089008495
74	0xbe481ecc	-0.19542998
75	0xbde36015	-0.111023106
76	0xbdaa427f	-0.083134644
77	0xbcd6f42e	-0.02623948
78	0x3e293753	0.16525011
79	0x3dd10ec6	0.10207896
80	0xbd1c520f	-0.038164195
81	0xbcedfe1e	-0.029051837
82	0x3db3e5f2	0.08784093
83	0xbdcf92e8	-0.10135442
84	0xbe4a0e3e	-0.19731995
85	0xbd844c58	-0.06459874
86	0xbdd1e4cd	-0.102487184
87	0x3db49d7f	0.088191025
88	0xbd3a2036	-0.045440875
89	0x3d944c14	0.07241073
90	0x3d38da92	0.04513032
91	0x3e24c27d	0.16089816
92	0xbca0dadc	-0.01963561
93	0x3e19c558	0.15016687
94	0x3b6a9d4e	0.0035799327
95	0xbe8f2b7a	-0.27962857
96	0xbc81dea1	-0.015853228
97	0x3c3f6af9	0.011683219
98	0x3d896de2	0.067104116
99	0x3d87b9bd	0.06627224
100	0x3c7c71eb	0.01540802
101	0x3d80304f	0.06259214
102	0xbd794c81	-0.060863975
103	0x3d0e6147	0.03476074
104	0xbc3bb85e	-0.011457531
105	0x3d97d343	0.07413342
106	0x3d356fcd	0.044296075
107	0xbcd9096e	-0.026493754
108	0xbde28b3f	-0.11061715
109	0xbddb946b	-0.10721668
110	0xbde5accf	-0.11214601
111	0xbdabe89f	-0.08393978
112	0xbf1bfcff	-0.60932916
113	0x3de9000d	0.11376963
114	0x3cb1ca8d	0.021703029
115	0x3d8726e3	0.06599214
116	0xbd956f19	-0.07296581
117	0x3d1de0ae	0.03854435
118	0x3d24c37e	0.0402255
119	0xbe8a3387	-0.26992437
120	0xbc88f250	-0.016717106
121	0x3d4fb4ae	0.05070942
122	0x3d84b17f	0.06479167
123	0x3d1ad78f	0.03780323
124	0xbd50c6ee	-0.050970964
125	0x3cf3065b	0.029666116
126	0xbc85c28e	-0.016328122
127	0xbdb19a16	-0.08671968
128	0x3d8a3c7c	0.06749818
129	0x3e60455b	0.21901457
130	0x3e9527cf	0.29131934
131	0xbcafe227	-0.021470143
132	0x3d1db27c	0.038500294
133	0xbc6042cc	-0.013687801
134	0xbd2f563c	-0.04280685
135	0x3e1a8236	0.15088734
136	0xbd89d5e7	-0.06730252
137	0xbd140fc6	-0.036147855
138	0xbbe04d2a	-0.006845136
139	0x3ddc8c3f	0.10768937
140	0x3d5a179f	0.053245183
141	0xbdfa8311	-0.1223203
142	0x3caec87a	0.021335829
143	0xbdbdbeb0	-0.092648864
144	0xbd6bb236	-0.057543002
145	0xbbab2c29	-0.00522377
146	0x3d040858	0.03223452
147	0xbd9dfb91	-0.07713998
148	0x3e706d7d	0.23479266
149	0x3dfe9c89	0.124322005
150	0xbd87429f	-0.06604504
151	0x3e37ee63	0.17962031
152	0xbd888022	-0.066650644
153	0x3d1aa539	0.037755225
154	0xbe6cdb7a	-0.23130599
155	0x3dd1df4b	0.10247668
156	0x3e0140f9	0.12622441
157	0xbd5b5cfc	-0.053555474
158	0x3d805295	0.06265751
159	0xbe8186a7	-0.25298044
160	0xbe1f87bc	-0.15579122
161	0xbcee1674	-0.02906344
162	0xbdee0445	-0.11621908
163	0xbcdafc35	-0.02673159
164	0x3d2f0f0a	0.04273895
165	0x3d2572f0	0.040392816
166	0xbce25da0	-0.027632535
167	0x3c663444	0.014050547
168	0xbe31c276	-0.17359337
169	0xbdedb9b1	-0.116076834
170	0x3e1ea30a	0.15491882
171	0xbc34c5b5	-0.011033465
172	0x3d94d189	0.07266528
173	0xbe8575b8	-0.26066375
174	0x3defc306	0.1170712
175	0x3cd47b3a	0.025937665
176	0xbc6b2120	-0.014351159
177	0x3d073a96	0.033014856
178	0xbcf3923f	-0.029732822
179	0x37f7411c	2.9475013e-05
180	0x3e3d04c7	0.18458854
181	0x3cb26188	0.021775022
182	0x3cab0dee	0.020880666
183	0x3dd6fe60	0.10497737
184	0x3dcc8391	0.09986032
185	0xbce71382	-0.028207544
186	0x3d064d75	0.032788713
187	0x3c4a3026	0.012340581
188	0xbe59f89c	-0.21286243
189	0x3e036257	0.12830482
190	0x3c55ed3f	0.013057052
191	0x3c02bbb6	0.007979324
192	0xbd1cd1d5	-0.03828605
193	0x3cea0661	0.028567495
194	0x3d72d30f	0.059283312
195	0x3d1efe8e	0.03881698
196	0xbd662b02	-0.05619336
197	0x3d950a56	0.07277362
198	0xbdd70683	-0.10499289
199	0x3d83835d	0.0642154
200	0xbdbdb07d	-0.09262178
201	0xbc4e1ca4	-0.012580071
202	0x3e102420	0.1407628
203	0x3d9c6486	0.07636361
204	0x3df09e51	0.117489465
205	0x3da1d32d	0.07901607
206	0x3c3c4372	0.01149069
207	0xbdac0406	-0.08399205
208	0xbeacb1c0	-0.33729362
209	0x3c11260d	0.00885917
210	0x3db95057	0.09048527
211	0xbd9d775f	-0.07688784
212	0x3e0c0c79	0.13676633
213	0x3b18bc38	0.0023305546
214	0xbe6d2ed1	-0.2316239
215	0x3d489a8c	0.048975512
216	0xbe305924	-0.17221504
217	0xbceb1c9b	-0.028700164
218	0x3e175ecc	0.14782256
219	0x3e275556	0.16341147
220	0x3cfe5dc9	0.03105058
221	0x3b9cebaf	0.004788838
222	0xbd21cd1b	-0.039502244
223	0x3de54520	0.11194825
224	0xbd1dedff	-0.03855705
225	0x3be063f2	0.006847852
226	0x3d90c763	0.0706928
227	0xbe63a164	-0.22229534
228	0x3e804dcc	0.25059354
229	0x3c86a974	0.016438223
230	0x3f153b68	0.5829377
231	0xbdd5e31e	-0.1044371
232	0x3e1e637d	0.1546764
233	0x3e7d6874	0.24746877
234	0x3d8b3eb7	0.06799071
235	0xbd999fc0	-0.07501173
236	0x3b2d5bdc	0.0026452458
237	0x3bfcaf9d	0.0077113644
238	0xbd4e1f57	-0.050322857
239	0xbe1bdd2e	-0.15221092
240	0xbe598cd7	-0.21245132
241	0xbda32bd6	-0.079673454
242	0xbe0da1fb	-0.13831322
243	0x3d489243	0.04896761
244	0x3e18f833	0.1493843
245	0x3e5a8b02	0.2134209
246	0x3e092411	0.13392664
247	0x3d67c81b	0.05658732
248	0x3e027fde	0.1274409
249	0x3e7f28d5	0.2491792
250	0x3d46b33d	0.04851078
251	0x3d113aee	0.03545659
252	0x3db6d5bf	0.089274876
253	0x3dfe26e3	0.12409761
254	0x3e481935	0.19540866
255	0xbeaf3515	-0.34220186

pool.net.0.0.bias f4 [128]
0	0x3c8795b0	0.016550869
1	0x3c0e289f	0.008676677
2	0xbd180c99	-0.03712139
3	0x3e55720d	0.20844288
4	0xbe7ae7ed	-0.24502535
5	0x3cac7857	0.021053476
6	0xbc4d39c0	-0.012525976
7	0xbddb4a85	-0.10707573
8	0xbdf33687	-0.11875635
9	0x3d1ceaf5	0.03831001
10	0x3d561114	0.05226238
11	0x3d074e1c	0.033033475
12	0xbd4914cb	-0.049092095
13	0xbeabe703	-0.33574685
14	0xbe0eb48f	-0.13936065
15	0xbdbad5a7	-0.09122782
16	0xbd6c981b	-0.057762247
17	0x3dd16c9b	0.10225793
18	0x3d96a41a	0.07355519
19	0x3da3f063	0.080048345
20	0xbdc80b2d	-0.097677566
21	0xbddb5e9d	-0.107114054
22	0xbcebd917	-0.02879004
23	0xbe62042a	-0.22071901
24	0x3c95251a	0.018206168
25	0x3e1a3d5b	0.15062468
26	0xbdef37ea	-0.11680587
27	0x3ee5dafd	0.44893637
28	0xbd88d588	-0.06681353
29	0xbe3911f9	-0.18073262
30	0xbde0e026	-0.10980253
31	0xbc91a021	-0.01777655
32	0x3dc3b17e	0.09555338
33	0xbc9740f7	-0.018463595
34	0xbe4c77dd	-0.19967599
35	0xbcca7e01	-0.024718286
36	0xbdcfc2de	-0.1014459
37	0x3e71b886	0.23605546
38	0xbd7adf1a	-0.061247922
39	0x3cad9e85	0.021193752
40	0x3dfebc7c	0.12438294
41	0xbb67a5bd	-0.003534659
42	0x3dbf747e	0.09348391
43	0x3c7324b5	0.014840295
44	0xbd6b3767	-0.057425883
45	0x3d961669	0.07328493
46	0xbe75c148	-0.23999512
47	0x3d26c6b0	0.040716827
48	0x3cce3cbe	0.025175449
49	0xbe0f8bf6	-0.14018235
50	0x3d62ccec	0.05537121
51	0xbcbb28df	-0.022846637
52	0xbd4873fd	-0.04893874
53	0xbd4523d4	-0.04812987
54	0xbe0f4714	-0.13991958
55	0xbca31f2b	-0.019912323
56	0xbd0240d0	-0.03180009
57	0xbd465f56	-0.048430763
58	0xbd45dada	-0.048304416
59	0xbddb8d3c	-0.10720298
60	0x3e0c0760	0.13674688
61	0xbe42f498	-0.19038618
62	0xbe427ff1	-0.18994118
63	0x3e5ec202	0.21753696
64	0x3e708b54	0.2349065
65	0xbce2f356	-0.027703922
66	0x3e70f35e	0.23530337
67	0xbddcf6f8	-0.10789293
68	0x3e9f3d48	0.3110144
69	0xbbb91d28	-0.0056492276
70	0x3e199e66	0.1500183
71	0x3e6ce27e	0.23133275
72	0xbe0a2234	-0.1348961
73	0xbda785ee	-0.08179842
74	0xbe8b3abc	-0.27193248
75	0xbcc8466a	-0.024447639
76	0xbe54512f	-0.20734094
77	0xbcf23ffa	-0.029571522
78	0xbce7971d	-0.028270299
79	0x3db438c3	0.08799889
80	0x3cd7e1fd	0.026352877
81	0xbde4b0a5	-0.11166505
82	0x3d937292	0.07199587
83	0x3dcd8e37	0.10036891
84	0x3e813888	0.25238442
85	0xbde3b9ce	-0.11119424
86	0xbe598932	-0.21243742
87	0x3d24112c	0.04005544
88	0xbd06afd4	-0.032882527
89	0x3dc2ae9d	0.09505961
90	0xbe926c65	-0.28598323
91	0xbcf622df	-0.030045925
92	0xbd0d5b38	-0.03451082
93	0xbe227d5e	-0.15868136
94	0xbd8bcaf1	-0.068258174
95	0xbe132905	-0.14371116
96	0x3baaa409	0.005207543
97	0x3e62ea02	0.2215958
98	0xbd040812	-0.03223426
99	0xbd54cfc9	-0.051955972
100	0xbe835e64	-0.25657952
101	0xbe2d3ee9	-0.1691853
102	0x3d5fc9fe	0.054635994
103	0xbdbf7894	-0.0934917
104	0x3dfac2d4	0.12244192
105	0x3ce3dc4f	0.027815012
106	0x3dd1e394	0.10248485
107	0x3e0e17b0	0.13876224
108	0x3af1b3b6	0.0018440399
109	0x3d6f7a01	0.05846596
110	0x3bab5101	0.0052281623
111	0xbe3a2e6b	-0.1818177
112	0xbd8a36f0	-0.0674876
113	0x3d83505c	0.06411812
114	0x3dd50bf3	0.1040267
115	0xbd9142a6	-0.0709279
116	0x3cc6449c	0.024202637
117	0xbdfae3d2	-0.122504845
118	0xbe2fc4d7	-0.17164932
119	0x3ea4b85d	0.32171908
120	0xbe0837a9	-0.13302483
121	0x3e171ee1	0.14757873
122	0xbe8410eb	-0.25794157
123	0xbdcfead0	-0.10152209
124	0x3eaf4cd9	0.34238318
125	0xbd64b46f	-0.055836137
126	0x3caa8466	0.020815086
127	0xbbb913ef	-0.005648128
