hepgnn_4top_resampling/result/train20220816_4top_cla_alledge_w2_L1_1ncpu_48h/weight.pth (torch, 152509 bytes, 25 tensors)

conv1.conv.local_nn.0.0.weight f4 [64, 7]
000000 f6 75 57 3e 1c a1 5b 3e 8a d0 1a 3f 28 ff 72 be
       0.21041092 0.21448177 0.60474455 -0.23730147
000010 0d 3f ec be bf 1d 1a bc 36 bb 62 3d 65 9b f9 3b
       -0.46141854 -0.009406506 0.05535432 0.0076174014
000020 f9 6f 27 bd 5c 84 46 bc 0b 38 91 bc 4c 1a 78 3e
       -0.04087827 -0.012116518 -0.017726919 0.24228781
000030 3c 1c 66 3e 5a 21 95 bf da e5 5d be 11 a1 8e bc
       0.22471708 -1.1650803 -0.21669713 -0.017410787
000040 51 5f 2a 3e f0 40 2d 3e 5e 10 10 be 8b 0d 06 3e
       0.16637923 0.16919303 -0.14068744 0.13091104
000050 60 9b 83 bd 0f 0b 99 bd fa 75 8d be c0 a3 76 3e
       -0.0642612 -0.074728124 -0.2762907 0.24085903
000060 a7 46 96 be 4a af ea 3d fe c7 26 be 8b 4d 93 be
       -0.29350778 0.11459215 -0.16287228 -0.28770098
000070 2d 41 83 bd 53 cb 0a 3e 1c 94 99 be 65 5c 79 bc
       -0.06408916 0.13554125 -0.2999581 -0.0152197825
000080 77 5d c0 bd e8 2e ff bc 62 b1 0f be 24 c3 60 bd
       -0.09392827 -0.031150296 -0.1403251 -0.0548736
000090 ab 18 aa 3e e1 0c b6 be 9d 14 3f be 3e 75 a4 3e
       0.33221945 -0.355567 -0.18660207 0.321207
0000a0 0e f7 a2 bc 10 d2 a0 bd b1 a2 97 3d 78 b9 29 bd
       -0.019893195 -0.07852566 0.07404078 -0.041436642
0000b0 63 5a 05 3c 27 b9 d0 be e8 27 37 be a4 fb 54 3f
       0.008139226 -0.4076626 -0.17886317 0.83196473
0000c0 81 6e 4c 3d a1 0f 99 be c7 88 68 3e e4 9a 80 be
       0.049910072 -0.29894736 0.22708426 -0.25118172
0000d0 67 ce c7 bc ec 25 8f ba 31 8d 2a be 5d 38 2d 3e
       -0.024390412 -0.0010921336 -0.16655423 0.16916032
0000e0 1e 43 b7 bd 82 2b 11 3e 8f d3 10 3e 66 f0 ab be
       -0.089483485 0.14176753 0.14143203 -0.33581847
0000f0 70 95 89 3e 28 1c cb bc 62 21 71 3e 4e db 00 3f
       0.26871824 -0.0247937 0.23547891 0.5033463
000100 7f 63 a9 bd de bb 95 bb 58 6a f9 3d 9a 63 e8 be
       -0.082709305 -0.0045695147 0.121784866 -0.4538849
000110 1c 15 3a bc dd ef 62 3d c0 5f f8 3c 20 e9 37 3d
       -0.011357572 0.055404533 0.030319095 0.04490006
000120 07 85 68 3e 88 de d5 3d 5e af 8a be 9d 9b 65 3f
       0.22706996 0.10442835 -0.2708692 0.8969057
000130 9e 19 1f bf 60 86 ea 3b 77 86 a1 bb 63 7c 00 bc
       -0.62148464 0.007157132 -0.0049293595 -0.007842156
000140 ca 69 87 bc 13 3c 03 3f b7 12 ba bf 4c 65 67 be
       -0.016529936 0.5126354 -1.4536961 -0.22597235
000150 4a ac 8d bd a3 cd bf be 12 5f 52 3d 58 04 89 be
       -0.06917627 -0.37461576 0.051360197 -0.26761127
000160 6c b2 ad be 69 38 1d be aa 63 4f be b6 a5 eb 3b
       -0.33925188 -0.1535355 -0.20252863 0.007191385
000170 40 83 2c 3d 2a 82 67 3c 76 54 8f bc a2 5f 4d 3f
       0.042117357 0.014130155 -0.017496329 0.8022405
000180 83 70 a4 bd 95 ef 7b 3f 9e 71 60 3b ee 7e 15 3d
       -0.080292724 0.9841245 0.0034247409 0.036498003
000190 30 5b 87 bd 2f 29 f4 3b 83 d7 c4 3f 9f 67 50 be
       -0.066091895 0.0074511985 1.5378269 -0.20352028
0001a0 79 5a c6 3f e9 9a 9a be 97 dd ac 3d 62 0a 35 bc
       1.549636 -0.30196312 0.084407024 -0.011049839
0001b0 d1 c2 b5 be 78 7a ad 3d e3 2d 24 bd e8 d3 bb be
       -0.35500196 0.08470625 -0.040082823 -0.3668511
0001c0 09 d6 f0 bd d8 6f 9f 3e 7e 4a 9b 3d 0b 58 6c be
       -0.11759574 0.31140018 0.07582568 -0.2308046
0001d0 53 bd 47 be 12 98 30 be 78 91 48 be 32 58 55 bd
       -0.19505815 -0.1724551 -0.19586742 -0.052086063
0001e0 91 3d dc bd 3c c5 5a bd ca f3 13 3f 9f 9a 75 3f
       -0.1075393 -0.053410754 0.5779387 0.9593906
0001f0 e2 ce c0 be 8a eb d7 3d ad 01 a2 be ca d0 50 be
       -0.3765784 0.105429724 -0.31641904 -0.20392147
000200 f3 45 5c be 91 dc 34 3e 98 06 b8 be b4 64 37 be
       -0.21511059 0.17662264 -0.3594253 -0.17909509
000210 80 49 1a 3e 8c f2 b6 3e 2b ec 63 3e 3c 0e 48 3e
       0.150671 0.35731924 0.2225806 0.1953668
000220 53 96 7c be 78 14 09 3d c1 a0 35 bf 2a aa 8e 3e
       -0.24666719 0.033466786 -0.70948416 0.278642
000230 d9 c0 93 bb ca fc ad 3d 02 40 12 3c a0 84 c7 3c
       -0.004509073 0.08495481 0.008926393 0.024355233
000240 59 2b 07 bf 4e 5f 70 3f 10 c4 99 3f 8b f8 48 3c
       -0.5280052 0.93895423 1.2012959 0.0122662885
000250 42 2e 4f bd db a4 0c bd ac 59 81 3b 1d 97 13 c0
       -0.050581224 -0.034336906 0.0039474573 -2.3060982
000260 70 5c ff 3e ad 5a 5c be b8 9a d3 3e 0c 21 80 3e
       0.49875212 -0.21518965 0.4132898 0.25025213
000270 14 72 3f 3e 6b b2 35 be aa bf 9c be 1b 15 ee be
       0.18695861 -0.17743842 -0.30614978 -0.46500477
000280 9b 1b b8 3d b3 a0 a5 bd 39 62 b4 3c d3 6f e2 bd
       0.0898964 -0.080872916 0.022019492 -0.11056485
000290 7c 60 ab 3d 1d 19 84 3e d9 25 52 3d fc 1c 00 be
       0.08368012 0.2580041 0.051305626 -0.12511057
0002a0 48 9f a8 be 59 ea 46 be a0 6a ee 3d 6d 36 b4 be
       -0.32934022 -0.19425334 0.11641431 -0.35197774
0002b0 4b 46 c0 be d7 39 a8 3c 68 94 1e 3c 0f 26 98 be
       -0.3755363 0.020535393 0.0096789375 -0.29716536
0002c0 49 c5 b6 3d e9 4b 29 3e 4f a0 96 be 60 de 65 bd
       0.08924348 0.16532864 -0.2941918 -0.056120276
0002d0 7f 56 65 3e 20 9e ac 3e d9 58 87 be 31 04 50 be
       0.22396277 0.3371439 -0.26434973 -0.20314099
0002e0 18 32 5b be 9f 05 45 be 3e e6 7a be 32 7f 94 3e
       -0.21405828 -0.19240426 -0.24501893 0.29003292
0002f0 2a e3 9c bc 12 2f 93 be 4f 21 89 be 8c 86 a4 be
       -0.019151289 -0.2874685 -0.26783225 -0.321339
000300 02 dc b5 be a4 01 b3 3c d7 4e 25 3d 89 6f 5e 3e
       -0.35519415 0.021851368 0.04035839 0.21722235
000310 bf 94 78 3d f4 bd 18 3e 61 88 e8 3e d5 3d 52 be
       0.06068873 0.14916211 0.4541655 -0.205314
000320 e2 9d 71 bf 71 76 8f bf cc 51 30 3f 4c d3 2e bd
       -0.94381535 -1.120802 0.6887481 -0.042681977
000330 d7 0c 31 bc 97 6d 40 be 16 ef af be 11 42 03 be
       -0.010806284 -0.18791805 -0.34362096 -0.12818171
000340 7f 48 84 3d 58 fd 22 3e 1c 8d ad be d4 cd ad be
       0.0645914 0.15916955 -0.3389672 -0.33946097
000350 db 3a b1 bc 36 57 14 be a9 bf 1d be 69 26 bb be
       -0.02163451 -0.14486393 -0.15405144 -0.36552742
000360 63 d9 2d 3e f0 56 82 bd d4 a3 98 3e 37 8c 78 be
       0.16977458 -0.06364238 0.2981249 -0.24272238
000370 3f d6 af be cf b5 a0 bb e4 c9 b7 3d c1 9a 61 3e
       -0.34343144 -0.004904486 0.089740545 0.2203169
000380 aa 00 6c bd bc 2e 96 3e 07 80 40 be 4b 11 a0 be
       -0.05761782 0.2933253 -0.18798839 -0.31263193
000390 cb d7 24 be 13 70 0a be fb d8 03 3e 80 e9 3a 3e
       -0.16097943 -0.13519315 0.1287574 0.18253136
0003a0 96 66 b1 3e 3e 32 17 be 8c 5b be be 52 42 b3 bd
       0.3464858 -0.1476526 -0.3717922 -0.08752884
0003b0 33 c2 b9 3e 35 4d e6 3d 4d c2 11 be ec 89 68 3d
       0.36280975 0.11245195 -0.14234276 0.056772158
0003c0 ec 96 6f be 36 e7 a1 3e 22 43 a5 be 8d 37 a4 be
       -0.23397416 0.31621712 -0.3227778 -0.32073632
0003d0 ac 3a e0 bc 4f b5 88 be d2 a6 28 be da 83 5f 3e
       -0.027371727 -0.26700827 -0.16469887 0.21827641
0003e0 83 60 df 3a 95 d5 2f bd 44 a4 b3 be 01 c8 fc bd
       0.0017042313 -0.042928297 -0.35086262 -0.12342835
0003f0 89 41 01 be b0 99 8e 3e 56 35 18 3e e0 da 0d bd
       -0.12622656 0.2785163 0.14864096 -0.034632564

conv1.conv.local_nn.0.0.bias f4 [64]
000000 14 ab b5 bd 09 24 ca bf a7 f1 e9 3d b1 b9 c4 be
       -0.08870521 -1.5792247 0.11423045 -0.3842292
000010 52 98 54 be 4b 79 89 be a5 8f b0 3f c4 82 f7 3d
       -0.2076123 -0.26850352 1.3793837 0.120854884
000020 ea 19 93 3e 9b 94 6b bd 1e b4 96 be 97 2d cc bf
       0.28730708 -0.057514768 -0.29434294 -1.5951413
000030 c5 44 7a be d0 7a bf bf 62 a4 ad 3e f6 3c af be
       -0.24440296 -1.4959354 0.33914477 -0.34226197
000040 ec 2e 83 3e 1e e7 33 bf 99 85 24 3e 02 eb 2a be
       0.25621736 -0.7027453 0.16066588 -0.16691211
000050 e2 e8 8a 3f 53 93 bc be 39 ed 38 3e 2e da ac 3e
       1.085232 -0.3683115 0.18059243 0.33760208
000060 9a c3 be be 89 ea a5 be d6 57 00 bd f2 95 59 3c
       -0.37258607 -0.324055 -0.031333767 0.013280379
000070 14 c1 a3 3e 1a 0a 12 3e d4 d1 56 bb 6a 7c a6 be
       0.31983244 0.14261666 -0.0032778876 -0.32516795
000080 3f 91 8f 3d 80 9a 4d be 6a 67 0c 3e 8e 87 09 be
       0.07010125 -0.20078468 0.13711324 -0.13430616
000090 53 02 a6 bc ea d0 86 3e 24 30 76 3e d0 41 81 be
       -0.02026478 0.26331264 0.24041802 -0.25245523
0000a0 b2 97 6a be 04 d8 14 be 92 a8 16 bf 43 21 86 3e
       -0.2290943 -0.14535528 -0.5885097 0.26197252
0000b0 c1 a5 89 3e f3 a6 01 bd 00 0e d4 bf 8c f5 dc 3e
       0.26884273 -0.031653356 -1.6566772 0.43156087
0000c0 29 c3 02 be c8 0a 2d be 83 99 2f 3e 04 b0 86 bd
       -0.1276976 -0.16898644 0.17148404 -0.06576541
0000d0 e1 9c e3 be 81 86 c0 be e0 5f 78 be 7b ca 0d be
       -0.44455627 -0.37602618 -0.24255323 -0.13846771
0000e0 7e f8 8d 3e 56 90 56 3e 95 a2 28 3e fb 4b 14 bd
       0.27728647 0.20953497 0.1646827 -0.036205273
0000f0 73 86 3a 3e da 40 87 be 0f c7 38 3c fd 03 17 be
       0.18215351 -0.26416665 0.011277928 -0.14747615

conv1.conv.local_nn.0.2.weight f4 [64]
000000 21 9b 0b 3f c0 c6 c5 3f 00 00 80 3f 61 0a 78 3f
       0.5453358 1.5451279 1.0 0.96890837
000010 4d 6c 7a 3f bf 01 7e 3f d8 2c 5c 3f 00 00 80 3f
       0.97821504 0.99221414 0.86005926 1.0
000020 7c 8c 62 3f 59 c3 c7 3e e1 f7 a6 3e 63 7a 66 3f
       0.8849561 0.39016226 0.32610992 0.900305
000030 00 00 80 3f e6 3e c6 3f f8 47 ae 3f 00 00 80 3f
       1.0 1.5487945 1.3615713 1.0
000040 00 00 80 3f a8 60 45 3f 00 00 80 3f e5 71 03 3f
       1.0 0.7710061 1.0 0.51345664
000050 e6 cf 82 3f 17 2e 85 3f 2c 14 d5 3e 45 ad 7c 3f
       1.0219696 1.040469 0.41616952 0.9870189
000060 00 00 80 3f 00 00 80 3f 00 00 80 3f 00 00 80 3f
       1.0 1.0 1.0 1.0
000070 ac e4 34 3f 97 17 76 3f 00 00 80 3f 00 00 80 3f
       0.70661426 0.96129745 1.0 1.0
000080 94 3d 7c 3f 60 97 fa 3e eb 3e 7e 3f 00 00 80 3f
       0.9853146 0.48943615 0.99314755 1.0
000090 00 00 80 3f 00 00 80 3f f9 1f 89 3f dc 69 82 3e
       1.0 1.0 1.0712882 0.2547139
0000a0 00 00 80 3f 00 00 80 3f 0c f5 75 3f 01 b1 b8 3e
       1.0 1.0 0.96077037 0.36072543
0000b0 3c 5e cb 3e 00 00 80 3f a6 25 c1 3f 27 66 cc 3e
       0.39720333 1.0 1.5089614 0.39921686
0000c0 f2 a9 b2 3f 00 00 80 3f 00 00 80 3f ac ef e9 3e
       1.3958113 1.0 1.0 0.45690668
0000d0 dc d5 2e 3f 45 47 c3 3e 74 2d 67 3f 23 1b c6 3e
       0.68295074 0.38140312 0.9030373 0.3869258
0000e0 00 00 80 3f 00 00 80 3f 00 00 80 3f 00 00 80 3f
       1.0 1.0 1.0 1.0
0000f0 00 00 80 3f d1 31 9c 3f 93 90 86 3f 00 00 80 3f
       1.0 1.2202703 1.051287 1.0

conv1.conv.local_nn.0.2.bias f4 [64]
000000 50 63 03 bc 14 53 f3 3e f0 b3 57 bd 4f ee ad 3b
       -0.008019283 0.4752432 -0.052661836 0.0053079496
000010 58 66 9a 3b f2 c3 49 3c 15 46 db bd ab 2a 43 bc
       0.0047119074 0.012314783 -0.107067265 -0.011912028
000020 02 4b 7f 3b 7f 7c 0c 3e 7d 9f de 3d de 26 bb 3e
       0.003895462 0.13719366 0.10870264 0.3655309
000030 25 cc 63 bc b7 13 fb 3e ed 6c 4c 3e d1 99 48 bd
       -0.013903652 0.4903848 0.19963427 -0.048974816
000040 47 17 9f 3d 54 ff 1a 3e fa 77 90 3d 07 3f 20 3d
       0.07768112 0.15136462 0.07054134 0.039122608
000050 0d 1f c2 3e 90 8e 13 3e f1 45 eb 3c 66 a7 82 bb
       0.37914315 0.14409852 0.028719874 -0.0039872406
000060 0a 7f ef 3b 0f d1 5b bd 91 f1 20 3c 7d 88 93 bd
       0.0073088454 -0.05366617 0.009823219 -0.072037674
000070 36 16 4f 3d 32 e7 ec 3a ad 13 b2 3b eb a3 84 3d
       0.05055829 0.0018074273 0.0054344744 0.06476577
000080 be ae 9c 3d 96 9a 67 3d 68 ec 58 3c 3d 0a 41 3c
       0.07650517 0.05654391 0.013239957 0.011782226
000090 f1 f3 8f 3c 6b 51 5a 3c c0 26 9b 3e e9 27 02 3e
       0.017572375 0.013325076 0.30303 0.12710537
0000a0 d2 ee 8f bd 2a 15 8e bd 0b 81 bf 3e 60 e8 13 3e
       -0.07027973 -0.069376305 0.3740314 0.14444113
0000b0 7e e2 16 3e 79 87 15 3e f9 4e fe 3e 92 47 ca 3c
       0.14734837 0.1460246 0.49669626 0.02469233
0000c0 b9 2f 8a 3e 74 5d 4b ba 8b cd 3d bc ca cd f3 3d
       0.26989534 -0.0007757761 -0.01158465 0.119044855
0000d0 4d b3 54 3d 30 e1 6c 3e 81 f2 a6 3c 7b 90 92 3d
       0.051928807 0.23132777 0.020379307 0.07156464
0000e0 8b 14 34 bd fb ab 52 3d 13 ac 75 3d 32 bb 35 3d
       -0.043964904 0.051433545 0.059978556 0.044367976
0000f0 ab 68 9f bc 4c d6 92 3e d0 52 36 3e aa 88 61 bd
       -0.01945909 0.2867912 0.17805028 -0.055061974

conv1.conv.local_nn.0.2.running_mean f4 [64]
000000 44 ea bc 41 eb 4c e7 3e 00 00 00 00 04 00 00 00
       23.614388 0.4517587 0.0 6e-45
000010 04 00 00 00 04 00 00 00 43 4d 8b 40 00 00 00 00
       6e-45 6e-45 4.3531814 0.0
000020 04 00 00 00 91 9c 89 42 29 96 a5 40 c1 65 7e 3e
       6e-45 68.80579 5.17458 0.24843504
000030 00 00 00 00 9e 5a f1 3e 10 87 e1 3f 00 00 00 00
       0.0 0.47139448 1.7619343 0.0
000040 00 00 00 00 7e f8 2b 40 00 00 00 00 50 dd 2b 42
       0.0 2.6870418 0.0 42.966125
000050 09 f5 b9 3f 29 38 ff 3f 24 a8 4f 42 04 00 00 00
       1.4527904 1.9939014 51.9142 6e-45
000060 00 00 00 00 00 00 00 00 00 00 00 00 00 00 00 00
       0.0 0.0 0.0 0.0
000070 d4 15 a3 40 04 00 00 00 00 00 00 00 00 00 00 00
       5.0964146 6e-45 0.0 0.0
000080 04 00 00 00 41 c4 8c 41 04 00 00 00 00 00 00 00
       6e-45 17.595827 6e-45 0.0
000090 00 00 00 00 00 00 00 00 56 24 86 3f 7f ff cc 41
       0.0 0.0 1.0479839 25.624754
0000a0 00 00 00 00 00 00 00 00 a5 7d d0 3f 9e 3b 7e 41
       0.0 0.0 1.6288344 15.889555
0000b0 cd b6 80 41 00 00 00 00 1c 06 b1 3e ba 86 aa 41
       16.089258 0.0 0.34574974 21.315784
0000c0 a9 a0 10 40 00 00 00 00 00 00 00 00 8d 22 5e 41
       2.259806 0.0 0.0 13.883435
0000d0 50 cd 1f 41 5a 20 55 40 44 f4 4b 40 8d 54 6e 41
       9.987625 3.3300996 3.1867838 14.895642
0000e0 00 00 00 00 00 00 00 00 00 00 00 00 00 00 00 00
       0.0 0.0 0.0 0.0
0000f0 00 00 00 00 cd f9 8f 3f 41 10 f4 3f 00 00 00 00
       0.0 1.1248108 1.906746 0.0

conv1.conv.local_nn.0.2.running_var f4 [64]
000000 24 4c f8 43 d9 5b 70 3f 04 00 00 00 04 00 00 00
       496.59485 0.9389015 6e-45 6e-45
000010 04 00 00 00 04 00 00 00 55 20 bf 41 04 00 00 00
       6e-45 6e-45 23.890787 6e-45
000020 04 00 00 00 0b 2a 77 45 41 07 ce 41 bd 1a b2 3e
       6e-45 3954.6277 25.753542 0.34786025
000030 04 00 00 00 61 d6 73 3f f8 0e 8d 40 04 00 00 00
       6e-45 0.9524899 4.4080772 6e-45
000040 04 00 00 00 9c 10 ac 41 04 00 00 00 59 81 c8 44
       6e-45 21.50811 6e-45 1604.0421
000050 fa 62 2b 40 8f c0 ad 40 43 93 0e 45 04 00 00 00
       2.677916 5.4297557 2281.2039 6e-45
000060 04 00 00 00 04 00 00 00 04 00 00 00 04 00 00 00
       6e-45 6e-45 6e-45 6e-45
000070 3b bc dc 41 04 00 00 00 04 00 00 00 04 00 00 00
       27.59191 6e-45 6e-45 6e-45
000080 04 00 00 00 28 11 96 43 04 00 00 00 04 00 00 00
       6e-45 300.13403 6e-45 6e-45
000090 04 00 00 00 04 00 00 00 a4 d5 35 40 74 6a 16 44
       6e-45 6e-45 2.8411646 601.6633
0000a0 04 00 00 00 04 00 00 00 df 84 96 40 0c 33 44 43
       6e-45 6e-45 4.7037196 196.1994
0000b0 69 26 54 43 04 00 00 00 61 46 1e 3f e6 47 bd 43
       212.15004 6e-45 0.6182614 378.5617
0000c0 30 d7 e5 40 04 00 00 00 04 00 00 00 9c 13 2f 43
       7.182518 6e-45 6e-45 175.0766
0000d0 86 8c d6 42 ae a4 3b 41 b3 4c 48 41 3c 8a 5c 43
       107.27446 11.727705 12.518725 220.53998
0000e0 04 00 00 00 04 00 00 00 04 00 00 00 04 00 00 00
       6e-45 6e-45 6e-45 6e-45
0000f0 04 00 00 00 3e 45 12 40 07 0b 93 40 04 00 00 00
       6e-45 2.2854762 4.595096 6e-45

conv1.conv.local_nn.1.0.weight f4 [128, 64]
000000 38 d2 23 3e 8c 7f ba bd 6a 9e 1e be 45 80 0e 3e
       0.15998161 -0.09106359 -0.15490118 0.13916118
000010 c5 f0 d7 3d 9e 5b e2 3d 10 25 2c bd 75 7c 28 be
       0.1054397 0.11052631 -0.042027533 -0.16453727
000020 d9 9e 9d bd b5 e3 66 bc d7 06 84 3d 47 8a 59 be
       -0.076963134 -0.0140923755 0.06446617 -0.21244155
000030 9b d3 9f be b9 e7 84 3d f1 a0 d8 3d 03 d6 a5 be
       -0.3121613 0.0648951 0.10577572 -0.3238984
000040 18 bf 19 3e 04 f3 9e 3d 92 17 b8 3e 3e b1 09 3e
       0.15014303 0.07761195 0.35955483 0.13446519
000050 9d 5d 15 3e 29 60 17 3c a6 30 ad 3d 1e 0f c2 3c
       0.14586492 0.009239235 0.084565446 0.023688849
000060 9e 29 fa 3d eb fd b9 be 84 2c a2 3e 40 62 8c be
       0.12214969 -0.36326537 0.31674588 -0.2741871
000070 bb 90 30 3e 30 6e 61 3d 0e 1d 58 3e d5 d8 87 3e
       0.1724271 0.055036724 0.21104833 0.26532617
000080 27 82 46 3e 33 41 4e 3c 2f c9 0e 3e 10 5e fa 3d
       0.19385587 0.012588787 0.13943933 0.12224972
000090 d3 f0 b5 3e d2 44 27 3d 7f 09 94 3c 01 99 3d 3e
       0.35535297 0.040837117 0.018070934 0.18515398
0000a0 b2 0a 61 be c9 06 82 be 07 3f 47 bc fe e6 d3 3d
       -0.21976736 -0.25395802 -0.012161023 0.10346793
0000b0 8a d0 bf 3d ca 80 5e 3e ae 5e 84 3e 01 c1 37 3e
       0.093659475 0.21728817 0.25853485 0.17944719
0000c0 10 81 68 be de c2 a5 3e 52 65 46 be 77 b8 81 3c
       -0.22705483 0.32375234 -0.19374588 0.01583503
0000d0 ac 9e 02 3e 59 dd 2b 3e be 8e 5e 3e 05 52 2d 3d
       0.12755841 0.16783656 0.2173414 0.042314548
0000e0 9f f1 37 be 6a 3f 93 3e 56 cc c7 3e 19 5c 79 3e
       -0.17963265 0.2875932 0.39023083 0.24351539
0000f0 f6 2b a9 be 77 4f 10 3e 1b 55 83 3d 6f f9 61 be
       -0.33041352 0.14092813 0.06412717 -0.22067808
000100 d6 af 1f 3e c5 70 ab be ba 20 37 3d 00 5b d8 3c
       0.1559442 -0.33484474 0.044708945 0.02641058
000110 40 42 05 3e b4 8c 90 3d cf c3 ec 3d 5f 1d b9 bd
       0.13013554 0.07058087 0.11560785 -0.09038805
000120 2d 88 06 be 26 0d 04 3e 89 e5 3d 3e 58 4b 69 bc
       -0.13137884 0.1289564 0.18544592 -0.014239155
000130 2c 60 0c bd 97 34 bf bd 0b 5d c7 bd 90 bc 32 be
       -0.034271404 -0.093362026 -0.097345434 -0.17454743
000140 54 e3 28 3e 47 bd 27 3c 30 ed 30 3e d7 d7 7b 3e
       0.16492969 0.010237998 0.1727798 0.24594055
000150 01 2b 59 be a8 b6 2c bd 38 82 81 3e 14 bc 80 be
       -0.21207811 -0.042166382 0.25294662 -0.25143492
000160 be d6 8c 3e 2d 30 12 be 87 80 8e 3d 61 e8 85 bd
       0.27507585 -0.1427619 0.069581084 -0.065384634
000170 b3 65 80 3e eb e8 1b 3d 5b f1 de 3c c7 5c a4 3d
       0.2507759 0.038063925 0.027214697 0.080255084
000180 dc 52 f4 3d fb f4 7b 3d 27 a9 0d 3d 18 5b 40 3e
       0.11929867 0.06151293 0.034585144 0.1878475
000190 c9 e8 8f 3d 6e e8 50 3e f6 11 5f 3e 1c 8e 46 3e
       0.07026822 0.20401165 0.21784195 0.19390148
0001a0 b9 3b 00 be de cb 14 3d 6d 93 20 be 45 33 61 3e
       -0.12522782 0.036327235 -0.15681238 0.21992214
0001b0 af 37 5b 3e 64 b9 30 3e 8b a4 80 3d 88 7d 01 3e
       0.2140796 0.17258221 0.06281384 0.12645543
0001c0 11 f9 27 be 16 f9 08 3e 53 72 7f be f1 c2 84 3e
       -0.16403605 0.13376269 -0.24945955 0.25929978
0001d0 67 07 19 3e ca ad 78 3e 79 e9 85 3d 55 be 40 3e
       0.1494423 0.24285045 0.06538672 0.18822606
0001e0 8e 4c fc bc ae 1a 01 bd 3f cb 8a 3d 77 6d 36 3e
       -0.030798223 -0.031519584 0.06777047 0.17815195
0001f0 a6 bd 1c 3b fd f9 09 3c 65 bd ff bb a8 6c 03 be
       0.002391675 0.008421418 -0.00780456 -0.12834418
000200 9c 3f 5b 3d 1b 5e 4f be 2b 51 c9 bd 29 81 3d 3d
       0.05352746 -0.20250742 -0.09829935 0.046265755
000210 99 4c a6 3d 21 b8 88 3e ca f6 d9 bd 82 10 9e be
       0.081200786 0.2670298 -0.106427744 -0.3087197
000220 ac 8d 9a bd 80 34 5a 3e 5c ee 09 3e b4 ff ed 3d
       -0.07546553 0.2130909 0.13469833 0.11621037
000230 07 dd 93 be 13 c3 ad 3d 49 95 27 3d 63 38 6f be
       -0.28879568 0.08484473 0.040913854 -0.23361354
000240 fb 70 8a 3e 41 52 e1 3c 11 13 4b 3e db cb 97 3d
       0.27039322 0.027505042 0.19831492 0.07411929
000250 33 72 49 be db 2c 83 be 4b 56 0b 3e 6e 52 83 be
       -0.1967247 -0.2562016 0.13607137 -0.25648826
000260 a7 cf 48 3e 76 57 83 be e9 03 23 3e 84 a2 87 be
       0.19610463 -0.25652665 0.1591946 -0.26491177
000270 b6 47 a0 3d cc 48 d3 bc 45 11 e2 3d 9e a3 fc 3d
       0.07826178 -0.025791548 0.1103845 0.12335895
000280 1b 7f 31 3e d2 8a de 3d 33 05 28 3e e4 82 3e 3e
       0.17333643 0.108663216 0.16408233 0.18604618
000290 2e 81 9e 3e cf 21 29 bc 90 85 be be e8 3a 81 bc
       0.3095793 -0.010323002 -0.37211275 -0.015775159
0002a0 a4 1b f9 bd 59 9a 30 be fd 5c 4b be c7 44 50 3e
       -0.12163475 -0.17246379 -0.19859691 0.20338736
0002b0 0c c5 b7 3d 19 77 70 3e 00 13 8c bc 73 e7 28 3e
       0.089731306 0.23482932 -0.017098904 0.16494541
0002c0 78 26 c8 bd a8 0b 09 3e 36 57 a4 3c ff e1 2b 3e
       -0.09772962 0.13383353 0.020061117 0.1678543
0002d0 53 a5 c3 3d 73 c7 50 3e 9a fb b0 bd 11 12 ba bb
       0.095530175 0.20388584 -0.08641739 -0.005678423
0002e0 72 54 3f be 51 81 bb 3d 44 b5 bc 3d 75 3d 9a 3e
       -0.18684557 0.091555245 0.09214261 0.30125013
0002f0 03 e5 5e be 6a 1d 4c 3e 39 5a 3f 3e d1 24 9e be
       -0.21767049 0.19933096 0.18686761 -0.30887464
000300 10 99 60 3d f3 df 61 be 81 dc d7 3d 47 fa 61 3d
       0.05483347 -0.22058086 0.10540105 0.055170324
000310 4c e1 0d bd 29 e8 32 bd 9e eb c0 3d 5d 8d 23 3e
       -0.034638688 -0.043678436 0.094199404 0.15971895
000320 96 76 9c bc 84 59 5e bd eb 3b 36 3d 73 f9 a5 be
       -0.019099515 -0.054284588 0.044490736 -0.32416877
000330 c1 10 40 3e fe 26 d4 be f3 3e 12 bf 7c 2f 1a 3e
       0.18756391 -0.41436 -0.571273 0.15057176
000340 bf 20 8f be 0d 7e 5d 3d 5f d8 1d be ad d3 0b 3e
       -0.2795467 0.05407529 -0.1541457 0.13654967
000350 20 6b 8e 3d 32 b5 8d 3d 62 da 12 3d 02 8b 7a 3d
       0.06954026 0.06919326 0.035852797 0.061167724
000360 a6 d2 ad bc dc f0 16 3e 1c 12 14 be 5e 47 bc 3d
       -0.021218609 0.14740318 -0.14460033 0.091933
000370 be ce e7 3d c8 46 9a 3c 0b 24 01 bc 38 a2 60 be
       0.1131873 0.01883258 -0.0078821285 -0.21936882
000380 ad 8f 80 be 44 65 e7 3d 34 f7 5e be f4 6c 1d 3b
       -0.25109616 0.11298612 -0.21773988 0.002402124
000390 00 28 b3 bd 3c 0f 05 3d 04 c9 3b 3d 45 b2 c6 3d
       -0.08747864 0.03248523 0.045846 0.09701971
0003a0 53 11 c2 3d bd 7b b8 3d 94 18 6a be 29 e6 8d bb
       0.094759606 0.09007976 -0.22860938 -0.0043304157
0003b0 79 5e 87 bc 10 79 3f be 63 d0 96 be 4a d2 c2 3d
       -0.01652454 -0.18698525 -0.2945586 0.09512766
0003c0 6f 2b aa be 5e 23 17 bd 07 2d 49 bd 5e c3 40 3c
       -0.33236262 -0.036898963 -0.049115207 0.011765329
0003d0 a8 f8 93 3c 84 0a d2 3c 7a a4 26 3d 75 99 80 3d
       0.018062904 0.02563978 0.0406842 0.062792696
0003e0 c1 6f bb 3d 39 8c e0 bd f5 54 cd bd 33 0f 81 be
       0.09152175 -0.10964245 -0.1002597 -0.2520691
0003f0 b9 91 75 3e e7 a6 f3 3d 00 b0 71 be c9 98 17 3e
       0.2398137 0.118970685 -0.23602295 0.14804377

conv1.conv.local_nn.1.0.bias f4 [128]
000000 46 a9 25 3e 75 c4 87 3d 1e 4a 80 3e ca ed a8 bd
       0.16177854 0.06629268 0.25056547 -0.0824848
000010 a3 e3 02 3c d8 92 26 be 0f c1 c7 be 77 64 55 be
       0.007988843 -0.16266954 -0.3901448 -0.20839106
000020 70 3c d6 be 05 b8 b2 be 87 20 32 be 11 0f 59 bd
       -0.41842985 -0.3490602 -0.1739522 -0.052992884
000030 16 c0 d5 3d 5e 31 32 be 23 53 e8 3e e4 19 41 bc
       0.10437028 -0.17401645 0.45375928 -0.011785958
000040 b3 03 b9 3d 44 3c 97 bd 17 f6 63 3e e4 70 93 be
       0.09033909 -0.07384542 0.22261845 -0.28797066
000050 5c 2d 40 be fe 83 20 3b a6 85 69 bd 9a 8c f3 3d
       -0.18767303 0.0024492736 -0.057012223 0.11892052
000060 a0 8c ac bd d4 ed 58 be a2 ff a2 3e 8e d6 80 be
       -0.084252596 -0.21184474 0.31835657 -0.25163692
000070 93 a5 82 3e fd c1 11 3f 80 9c 7e 3e 15 d3 85 bd
       0.25516948 0.5693663 0.24864388 -0.06534401
000080 22 1b c9 3d 45 d2 33 3e 29 e7 be bc 62 c7 1f bf
       0.09819628 0.1756068 -0.023303585 -0.6241361
000090 00 32 c5 3d d4 6a 6a be 97 ac e2 3d ca 99 62 3d
       0.09628677 -0.22892314 0.11068075 0.055322446
0000a0 75 3b ce 3e fa 2a ac 3c 9d 36 c1 bd d6 46 28 bc
       0.40279737 0.021016587 -0.09434245 -0.010270795
0000b0 ee 09 2c 3b de b3 5e be 4b ac 19 be f4 c7 dc 3e
       0.0026251036 -0.21748301 -0.15007131 0.43121302
0000c0 15 f9 14 3e 79 36 80 3e 29 26 cf 3d f2 b3 d6 bd
       0.14548142 0.2504156 0.101147 -0.104835406
0000d0 bc 46 90 bc 26 04 34 3e fd 03 21 be 3b e4 a2 3e
       -0.017611854 0.17579708 -0.15724178 0.3181475
0000e0 0f cf d0 bb ac c4 8a bd 4f 4a a7 3e a7 48 a4 bd
       -0.0063723396 -0.067757934 0.3267388 -0.0802167
0000f0 bd 1d f8 3d 04 a6 37 be 83 36 66 be e4 19 c0 bd
       0.12115047 -0.17934424 -0.22481732 -0.09379938
000100 b6 5f 88 bd 2d 8d dd be 29 64 00 be 11 4b c7 3d
       -0.066588804 -0.4327177 -0.12538208 0.09731115
000110 61 7c 7b be 4d 95 d7 3e 56 54 85 be 79 e7 bb bb
       -0.24559166 0.42106095 -0.26040906 -0.005734381
000120 ef b9 5e 3e a8 78 7b be 9a 70 4b be 2c 10 ff 3d
       0.21750616 -0.24557745 -0.19867173 0.124542564
000130 f0 46 c7 bd d1 7a 98 bd 88 59 f8 bd 49 70 76 bc
       -0.09730327 -0.074453 -0.12126452 -0.015041419
000140 16 55 de bc 84 54 88 3e 3f 2f 35 3d 46 42 57 be
       -0.027140182 0.2662698 0.04423451 -0.21021375
000150 5c 52 70 bc 54 77 c0 3d 3d 74 83 3d c6 99 70 bd
       -0.0146680735 0.0939776 0.06418655 -0.0587404
000160 26 fc 48 be 02 f3 5d 3e 2d 1a e1 bd a5 e2 13 3e
       -0.19627437 0.21674731 -0.10991321 0.14441927
000170 19 68 45 bd cf 54 9c bd 19 8d 03 be d0 79 3d be
       -0.04819498 -0.076333635 -0.12846793 -0.18503499
000180 2f de 46 3e 1b a1 28 3e 1f 2f 86 be ca 34 62 bd
       0.19420694 0.16467707 -0.26207826 -0.055226125
000190 1d d4 31 3e 21 4e 7a 3d 74 20 8e 3d ce 4c 1f be
       0.17366071 0.061109666 0.06939784 -0.15556642
0001a0 4e d2 8b bc bd dc 21 bd cf cf 7d 3e 12 cc 86 be
       -0.017068055 -0.039517153 0.24786304 -0.26327568
0001b0 3e 9b 87 bd 3a 86 33 3e 2d d8 f4 bd f9 2e dc bd
       -0.06621407 0.17531672 -0.11955295 -0.10751147
0001c0 53 09 91 be b0 86 90 3e 8c 74 d1 bb 7a 0a a1 3c
       -0.28327426 0.28227758 -0.0063920673 0.019658316
0001d0 42 bc ad be a1 ea 90 3e dc 6d 97 3c 50 0e b7 be
       -0.33932692 0.28304008 0.018485002 -0.35753107
0001e0 73 e3 c2 bd a7 0c 88 3e 80 ce 9e bc 51 8b 0a be
       -0.09516039 0.26572153 -0.019385576 -0.13529707
0001f0 a7 70 56 be 80 0f 52 be e4 7d 25 3e d3 54 d1 3e
       -0.20941411 -0.20513725 0.16161305 0.40885028

conv1.conv.local_nn.1.2.weight f4 [128]
000000 be 7a 48 3e a7 5b f6 3e 58 56 03 3f 09 82 9f 3f
       0.19578072 0.481168 0.51303625 1.2461559
000010 16 63 96 3f 49 f7 94 3f ba 28 93 3f 70 84 a4 3e
       1.1748989 1.1637965 1.1496804 0.32132292
000020 03 7c 53 3f 43 e1 19 3f 33 dd 8f 3f 41 55 21 3f
       0.826111 0.6010935 1.123938 0.6302071
000030 b5 97 ea 3e 0b e9 9d 3f 25 96 2d 3f 66 1a 50 3f
       0.45818868 1.2336744 0.6780723 0.8129028
000040 9f 68 55 3f 69 fe 83 3f b5 c9 6c 3f 5c 66 7c 3f
       0.83362764 1.0312015 0.9249528 0.9859369
000050 e7 f3 81 3f 56 4b 15 3f c3 ad 2e 3f 78 b6 97 3f
       1.0152558 0.5831808 0.6823389 1.185256
000060 ea 4a 5e 3f c2 60 91 3f 8a 3c 41 3f 91 34 7d 3f
       0.8683306 1.1357653 0.75483 0.98908335
000070 d6 e6 72 3f 12 68 46 3f 99 f0 36 3f 9d 3d 57 3f
       0.9488348 0.7750255 0.7146087 0.8407839
000080 f6 ad 64 3f 30 30 f0 3e 9c 53 84 3f ec 90 57 3f
       0.89327943 0.46911764 1.0338016 0.8420551
000090 db fd 45 3f c0 3a 98 3f f5 23 12 3f 43 1f 18 3f
       0.7734048 1.1892929 0.57086116 0.594227
0000a0 4d ef 0e 3f ff 12 43 3f fa a6 86 3f 5b bd 70 3f
       0.55833894 0.7620086 1.0519707 0.94038934
0000b0 c2 ad 67 3f 80 bf 84 3f 6a ae 46 3f 40 03 3b 3f
       0.9049951 1.0370941 0.77609885 0.73051834
0000c0 3a b6 87 3f 71 71 6b 3f e7 2a 5f 3f ca bb 7f 3f
       1.0602486 0.9196997 0.8717484 0.9989592
0000d0 4c 63 68 3f 03 cc 86 3f ab 36 3c 3f 3c 3b e7 3e
       0.90776515 1.053101 0.73520917 0.4516238
0000e0 b1 31 1f 3e 5c a7 70 3f d9 1f 60 3f ac 85 34 3f
       0.155463 0.9400537 0.87548596 0.7051647
0000f0 0d f7 66 3f a0 a1 7c 3f 79 30 7f 3f a8 79 96 3f
       0.9022072 0.9868412 0.9968334 1.1755877
000100 b7 85 02 3f 5f e2 7b 3f e8 68 84 3f 4e fb 67 3f
       0.5098528 0.9839229 1.0344515 0.90617836
000110 aa 30 7a 3f b4 02 68 3f 0b e7 51 3f c2 e5 48 3f
       0.97730505 0.90629125 0.8199317 0.7847558
000120 15 d5 20 3f 44 dd 62 3f 28 1b 76 3f f5 f3 d6 3e
       0.6282514 0.88618875 0.9613519 0.41983
000130 f4 88 db 3e df f8 bb 3f 33 f9 76 3f 97 4c 3b 3f
       0.42877924 1.4685324 0.96474 0.7316374
000140 73 65 94 3f 28 aa 79 3f c3 65 57 3f 3f f4 6f 3f
       1.159346 0.9752526 0.8413965 0.93732065
000150 79 79 5e 3f d7 47 7d 3f f2 76 7d 3f db 5e 76 3f
       0.869041 0.98937744 0.9900962 0.9623849
000160 4c 0a 92 3f 91 05 30 3f 75 ea a0 3f bd b6 23 3f
       1.1409392 0.68758494 1.2571551 0.6395071
000170 46 0e 86 3f ed 4c 8c 3f 83 cd 6a 3f 02 e9 1f 3e
       1.0473106 1.0960976 0.91719836 0.15616229
000180 17 86 4a 3f b8 3e 85 3f ce c2 9e 3f 48 a1 77 3f
       0.79110855 1.0409765 1.24032 0.9673047
000190 11 dc 37 3f 04 74 7f 3f e6 ca 1d 3f 4a 91 5c 3f
       0.7182017 0.997864 0.61637723 0.86159194
0001a0 c2 fe a1 3f f1 92 84 3f 9d 1b 39 3f 17 5e 46 3f
       1.2655871 1.0357343 0.7230776 0.7748732
0001b0 97 ef 93 3f b9 b4 88 3f f4 6f 7b 3f a3 e0 8b 3f
       1.1557492 1.0680152 0.982177 1.0927929
0001c0 1a e9 87 3f 2c 83 66 3f a6 ae 94 3f 14 f2 7a 3f
       1.0618012 0.900439 1.1615798 0.9802563
0001d0 a9 00 34 3f 3b 4f 67 3f 4b a6 44 3f 26 71 09 3f
       0.7031351 0.9035527 0.7681624 0.53688276
0001e0 e1 23 59 3f e1 cd 7d 3f 49 d1 8a 3f bf b5 8c 3f
       0.8482037 0.9914227 1.0845119 1.0992965
0001f0 56 e3 4d 3f 6d 8e 82 3f 2e 58 41 3f ef e5 7f 3f
       0.8042501 1.0199715 0.75525177 0.99960226

conv1.conv.local_nn.1.2.bias f4 [128]
000000 e8 c9 e0 3d 94 9a 85 be 76 e7 15 bd 42 0f 31 bf
       0.109760106 -0.26094496 -0.03659769 -0.69163907
000010 1a 64 04 bf ae d8 19 bf 93 1c c6 3e 6d 0b ad bd
       -0.5171524 -0.6009625 0.38693675 -0.08449445
000020 98 c2 78 3d ba 4d 9f be 1d ae 32 bf e9 ac 38 be
       0.060732454 -0.31113988 -0.69796926 -0.1803471
000030 c3 cd b5 3d ba 37 cd be 11 cf f5 bd 05 d3 28 3e
       0.088771366 -0.40081578 -0.120023854 0.16486748
000040 b0 31 9d bd c5 28 b3 be 05 73 43 3e fc d6 bb be
       -0.07675493 -0.34992042 0.19086845 -0.36687458
000050 12 19 7c 3e e8 ef 23 be 5a ec a0 be 1d 53 2b bc
       0.24618939 -0.16009486 -0.31430322 -0.0104568275
000060 c2 cd c8 3b 65 9c 49 bd 74 35 51 be 8e 34 8b 3e
       0.006128044 -0.049221415 -0.20430547 0.27188534
000070 d5 71 d4 3d 19 b7 a1 3e 68 8b 4b 3e c3 83 f3 be
       0.10373274 0.31585005 0.19877398 -0.47561464
000080 90 5d 7c 3e d0 81 45 be b0 45 80 be 50 d5 77 be
       0.24645066 -0.19287801 -0.25053167 -0.24202466
000090 ee be c2 be fc 51 7a 3e 8d 88 b4 3d a7 18 a9 be
       -0.38036293 0.24445337 0.088151075 -0.3302662
0000a0 94 ce ce bc 9f ee 07 3e 9e 83 42 bd 82 8d 06 be
       -0.025244989 0.1327462 -0.0474888 -0.13139918
0000b0 1e 25 8a 3e 20 82 bd be df 5e fc 3d ee d1 9b bc
       0.26981443 -0.3701334 0.12322783 -0.019021
0000c0 bd 0f b0 3d bd 91 fc bc 02 cc 85 bd 90 23 64 bd
       0.08596752 -0.030831212 -0.06533052 -0.055697978
0000d0 b7 c1 89 b9 71 55 17 3e a5 f8 2e 3e 42 2a 87 3d
       -0.00026275005 0.14778687 0.17087038 0.06599857
0000e0 21 4f 00 bd dd 70 c2 be 9c c6 c4 bc 64 c3 a5 bd
       -0.031325463 -0.37976733 -0.024020486 -0.080939084
0000f0 43 4d bf 3d 58 bc bd be 13 b4 b0 3d 0a 68 62 be
       0.093409084 -0.37057757 0.086280964 -0.2211
000100 d2 4b d8 3d d9 d1 44 3e 44 62 45 bf 1d 1a b7 bd
       0.105613366 0.19220676 -0.77103066 -0.089405276
000110 2d 89 8f 3d 9f cf 90 3e de cb c4 be e6 1d 14 3e
       0.07008586 0.28283402 -0.38436788 0.1446453
000120 5f 36 c9 bc 60 ed 5b bd 86 c6 65 3e 0a e5 d2 be
       -0.024562059 -0.053693175 0.22439012 -0.41190368
000130 58 7a a3 3d 2b 9c 0b 3e 6b e0 d5 3d 00 dd da bd
       0.079823196 0.13633792 0.10443195 -0.10686684
000140 35 0b 78 be 35 11 3f 3e 9c a5 a8 bd f6 fb 29 bf
       -0.24223025 0.18658908 -0.082347125 -0.66400087
000150 ca 47 03 be ab c9 9d bd 9f af b0 be 63 ee ce be
       -0.12820354 -0.07704481 -0.34508988 -0.4041625
000160 bf 50 c1 be 4e 04 2a 3e 79 eb 83 be 6f 04 81 be
       -0.37756917 0.16603205 -0.2576559 -0.25198695
000170 a3 94 91 be 0c 3c 21 be cf b4 46 3b ec a4 75 be
       -0.28433713 -0.15745562 0.0030320173 -0.23988694
000180 6f 76 c2 bc a4 6d 1f 3e 0a a8 7f 3e 84 32 23 be
       -0.023738114 0.15569168 0.24966446 -0.15937239
000190 b9 29 ea 3b 05 68 20 3e 67 00 4b 3c 98 7b ed be
       0.007146087 0.1566468 0.012390233 -0.46383357
0001a0 91 e8 b9 3e 22 7f 23 3d bf 5c 13 be 94 a0 9c be
       0.36310247 0.039916165 -0.14390849 -0.3059126
0001b0 5a b3 f7 be ba 05 8a 3e d7 3c 74 be b6 7b e9 be
       -0.48379022 0.26957494 -0.23851334 -0.45602196
0001c0 d1 ef 0a bf 97 02 13 3e 25 40 0b bf 18 cd 9d be
       -0.5427218 0.14356457 -0.5439475 -0.30820537
0001d0 1e 82 8e be 64 67 2d 3d ea 19 83 bc 85 6e ef bc
       -0.27833647 0.04233493 -0.016003568 -0.029227505
0001e0 8c 02 9a be 2b 15 24 3e 6e 53 c7 3e ba ff 8a be
       -0.30080068 0.160237 0.3893084 -0.2714823
0001f0 c2 58 5a be ad 1f f0 bd 3e c5 08 be 21 06 67 3e
       -0.21322921 -0.11724792 -0.13356492 0.22560932

conv1.conv.local_nn.1.2.running_mean f4 [128]
000000 55 14 62 3f 18 df ec 3e 50 91 1f 3f 28 37 d5 3d
       0.88312274 0.46263957 0.62331104 0.10410911
000010 6e 49 e6 3d a5 3b ec 3d 70 ae d0 3c 4c 76 18 3f
       0.11244474 0.11534814 0.025473803 0.59555507
000020 22 52 2c 3e 8f 54 5a 3e af c9 d1 3d 42 da 2f 3e
       0.16828206 0.21321319 0.10243546 0.17173102
000030 98 33 9a 3e 14 24 c0 3d 8b 7b 2f 3f ea a1 a5 3e
       0.30117488 0.09381881 0.68547887 0.32350093
000040 48 c6 c0 3e c8 da d6 3d cf 52 36 3f e2 b7 53 3d
       0.37651277 0.10490948 0.71220106 0.051689036
000050 d9 b7 ec 3b 3e 56 91 3d 48 fe 94 3e fa 0c b1 3e
       0.007224065 0.070965275 0.2910025 0.34580213
000060 83 91 4e 3d f7 08 7c 3e 59 f5 0e 3f 04 00 00 00
       0.05043174 0.24612795 0.5584312 6e-45
000070 69 bd 00 3f 9f 1c 9a 3f b5 15 35 3f 60 5a 01 3e
       0.50289017 1.2039984 0.7073625 0.12632132
000080 88 5e 15 3f 34 11 07 3f 07 de ea 3d af 6f 90 3d
       0.5834737 0.52760625 0.114681296 0.07052552
000090 b9 6a 87 3e 6f 3a 4e 3c 35 cd 12 3f d1 fd 6e 3e
       0.2644861 0.012587174 0.5734437 0.23339011
0000a0 1f ee 35 3f d8 b9 0a 3f a6 7d 24 3e 11 c5 a2 3e
       0.7106647 0.54189825 0.16063556 0.31790975
0000b0 6b 72 25 3e cb cf 0d 3d ac 8b 9a 3e 43 ac 80 3f
       0.16156928 0.034621995 0.30184686 1.005257
0000c0 7c 13 eb 3e 6a 81 e6 3e 9d 5e 19 3f 50 42 1f 3e
       0.45913303 0.4502061 0.59909993 0.1555264
0000d0 5d 27 c4 3e 11 ef df 3e 18 b1 71 3e f5 49 5d 3f
       0.38311282 0.4373708 0.23602712 0.86440974
0000e0 98 64 f0 3e 15 4a a0 3c 49 e4 2c 3f 42 77 5b 3d
       0.46951747 0.019566575 0.67535836 0.05358053
0000f0 92 ec 1b 3f e8 a6 26 3e 76 2d b2 3d a6 9b b7 3d
       0.6090785 0.16274607 0.08700077 0.089652345
000100 0b 3a 6f 3e 76 ac 8d 3d bf ba 50 3d 80 75 05 3f
       0.23361985 0.0691766 0.050959345 0.52132416
000110 04 00 00 00 1f 6f 46 3f be ca b7 3d 46 f7 e3 3e
       6e-45 0.7751331 0.08974217 0.44524592
000120 64 07 f3 3e cb b1 87 3c 70 6a e5 3e 3d 45 a0 3e
       0.47466576 0.01656427 0.44807768 0.31302825
000130 0a b9 c9 3e 68 4f 55 3d 90 81 7e 3e 87 22 97 3e
       0.39398986 0.05207768 0.24854112 0.2951853
000140 34 31 a2 3e fe 71 0d 3f c6 1b 99 3e 24 49 7e 3d
       0.31678164 0.55252063 0.29904002 0.06208147
000150 5e c7 0c 3f 84 13 a7 3e 41 a9 7f 3e b6 b8 7c 3e
       0.5499171 0.32632077 0.24966909 0.24679837
000160 91 58 4c 3d da b9 1e 3f 75 ce 33 3e 71 0c ff 3e
       0.04988915 0.62002337 0.17559226 0.4981418
000170 7c 15 9a 3d b3 9d dc 3d d6 7f df 3c 2b 6b ee 3e
       0.07523629 0.10772266 0.027282637 0.46566138
000180 d8 d9 4b 3f c0 4e f9 3e 52 28 ea 3d 93 05 71 3e
       0.7962928 0.48692894 0.11433472 0.23537283
000190 70 d6 4b 3f 35 e1 d2 3e 0c 11 26 3f 3a b7 a3 3e
       0.7962408 0.41187444 0.6486976 0.31975728
0001a0 dd 08 e5 3d 4b 8b 44 3e b8 d5 ff 3e b1 47 f6 3d
       0.11183331 0.19193761 0.49967742 0.12025393
0001b0 20 68 b3 3d 5f 21 49 3f 10 92 e5 3c 7a 57 06 3d
       0.08760095 0.78566545 0.02802375 0.032798268
0001c0 d6 ef a5 3c 23 cf 71 3f d0 77 dc 3d 6e 01 71 3d
       0.020255964 0.9445669 0.1076504 0.058839254
0001d0 fb 9d db 3c fb 5b 7f 3f 04 9d b8 3e 68 2b cf 3d
       0.02680873 0.99749726 0.36057293 0.10115701
0001e0 b7 7c 85 3c dc c3 2b 3f 06 83 3c 3e 1d 5a 39 3d
       0.01629482 0.6709573 0.18409356 0.045251954
0001f0 1e 40 ab 3d eb 95 3b 3d fe b6 7d 3f 42 2f 6d 3f
       0.08361839 0.04579727 0.9910735 0.92650235

conv1.conv.local_nn.1.2.running_var f4 [128]
000000 0b 65 b0 3f 98 97 5c 3f b6 52 ee 3e d5 5b 39 3d
       1.3780836 0.86168814 0.46547478 0.045253593
000010 19 38 2f 3d c2 d4 53 3d 95 6a 37 3c fd 8e 3e 40
       0.04277811 0.051716574 0.011194845 2.9774773
000020 1f 6e 89 3e 6d 50 13 3f 55 53 24 3d 7c f6 32 3e
       0.26841828 0.57544595 0.040118534 0.17476839
000030 c2 2a b8 3e 75 de 7e 3d 2e 6c 95 3e 04 d1 aa 3e
       0.35970122 0.06222387 0.29184097 0.3336259
000040 5e fd 46 3e b3 0f 50 3d f4 4e 62 3f 01 5d ae 3c
       0.1943259 0.050796222 0.8840172 0.021284582
000050 bb 21 ce 3a c4 da bf 3c 85 f5 98 3e cc 81 50 3e
       0.0015726605 0.023419745 0.29874817 0.20362014
000060 26 99 d6 3c 22 04 82 3e 0f cf b8 3e 04 00 00 00
       0.026196074 0.25393778 0.36095473 6e-45
000070 c7 6d 5a 3e 1c 4d 1e 3f 54 a1 81 3f fd 4b 65 3d
       0.21330939 0.6183641 1.0127358 0.05598067
000080 e9 48 57 3f 7a e5 9b 3e c6 5b 28 3d 7f 03 26 3e
       0.8409563 0.30448514 0.041103147 0.16212271
000090 e4 03 a6 3e 6f 06 30 3b 83 d3 7f 3f 58 5e 6f 3e
       0.32424843 0.0026859303 0.99932116 0.23375833
0000a0 33 1d 8d 3e bb ab 69 3f 0d 9b 82 3d 1f dd 8e 3e
       0.2756134 0.91277665 0.0637723 0.27903077
0000b0 c4 5e df 3d a8 97 1e 3c e8 ee 06 3f 99 c5 05 3f
       0.10906747 0.009679712 0.5270829 0.52254635
0000c0 0c d1 73 3e c2 79 59 3e 94 84 85 3e 5f 6b e2 3d
       0.23810214 0.21237853 0.26077712 0.11055636
0000d0 7e 1b 6a 3e ff 25 08 3e 60 f8 73 3e 98 75 58 3f
       0.2286205 0.13295744 0.23825216 0.84554434
0000e0 24 c6 26 3f e8 1b bd 3b d0 68 c1 3e 29 00 e2 3c
       0.6514609 0.005771149 0.37775278 0.027587967
0000f0 70 ef 63 3f 01 97 28 3e f3 02 70 3d 47 1f d7 3c
       0.8903723 0.16463853 0.058596563 0.026260031
000100 ea 64 a8 3e 67 36 a1 3d 4e 17 a5 3c 38 7a 6d 3e
       0.3288949 0.078717045 0.020152714 0.23191154
000110 04 00 00 00 ad 8a a0 3e be 63 28 3e 44 61 22 3f
       6e-45 0.313558 0.16444299 0.63429666
000120 fe b8 87 3e 6f ca 8f 3b b0 50 4d 3f f1 ab 04 3e
       0.26508325 0.0043881456 0.80201244 0.12956215
000130 7b 28 3d 3f f1 f3 70 3c 31 2d b1 3e 9b 81 98 3e
       0.73889893 0.014706598 0.3460479 0.2978638
000140 7e 3e 99 3e 33 78 96 3e 2f aa aa 3e e7 bd b3 3c
       0.2993049 0.2938858 0.33332965 0.021941138
000150 de 99 bc 3e 26 82 3a 3e 1e 54 17 3e cd 26 6f 3e
       0.3683614 0.1821371 0.14778182 0.23354645
000160 45 46 91 3c 80 9f 6a 3f 69 1b f9 3d ee d5 27 3f
       0.017733702 0.9164963 0.12163431 0.65560806
000170 dd ef bc 3c e8 e3 35 3d 52 52 1c 3c cf a7 cc 3f
       0.023063594 0.0444068 0.009541111 1.5988711
000180 15 5e e5 3e 0e cb 83 3e 90 cc a4 3d 27 3e 3f 3e
       0.4479834 0.25740856 0.0804683 0.18676053
000190 6f 59 dc 3e 95 bd 29 3e b7 e2 85 3f 3d 44 80 3f
       0.43036982 0.16576226 1.0459813 1.0020825
0001a0 9a 42 69 3d 67 e9 c5 3d 47 bd dc 3e 73 1e 29 3e
       0.05694828 0.096636586 0.43113157 0.16515522
0001b0 03 44 fe 3c 4f f5 01 3f e5 cb 59 3c 21 79 f7 3b
       0.03103829 0.50764936 0.013293241 0.0075522815
0001c0 da 3f aa 3b 96 7f 04 3f 94 4e 62 3d b6 c1 8e 3c
       0.0051956 0.5175718 0.05525072 0.017426353
0001d0 76 60 0c 3c f9 24 25 3f 8b 5e bb 3e b1 9d 08 3e
       0.00856792 0.6450954 0.36595568 0.13341404
0001e0 19 82 f3 3b 81 9c dc 3e 0e 5d 11 3e 13 21 3e 3c
       0.0074312803 0.43088153 0.14195654 0.011604565
0001f0 64 c1 96 3d 34 03 38 3c 7f a4 53 3f 10 1c 27 3f
       0.07361105 0.011231232 0.82672876 0.65277195

pool.net.0.0.weight f4 [128, 131]
000000 37 cc 05 3e c8 cd ed 3c 11 5a c4 3d 11 96 e1 3c
       0.13066183 0.029028788 0.09587491 0.027537378
000010 6e 28 82 be 88 54 a7 3d 07 de 81 bd 8b 80 ed 3d
       -0.2542147 0.0817042 -0.063411765 0.11596783
000020 44 0e ef 3d 82 1c 32 3e 3e 6c 96 3d 79 95 8f 3c
       0.11672643 0.17393687 0.07344864 0.017527329
000030 56 0a ca bc d0 56 7d 3e 5b 9e a7 bd 0f 06 85 bd
       -0.024663132 0.24740148 -0.08184501 -0.06495296
000040 67 d2 3c bd aa 1d 2a 3d 92 5c 41 3e c6 a8 fd 3c
       -0.046099093 0.041532196 0.18882969 0.030964267
000050 b5 d0 d4 bd b4 2f 8a bd 42 28 12 3d 5a fc 38 bd
       -0.1039137 -0.0674738 0.035682924 -0.045162536
000060 43 61 1d be 26 6d 97 3c 9c f9 51 bd cf 28 9c bd
       -0.15369134 0.018484663 -0.051263437 -0.07624971
000070 b5 51 80 bd 23 6d 43 3b 0c 71 06 bc 3b 39 25 bd
       -0.062655844 0.002981969 -0.008205663 -0.040337782
000080 94 d1 89 3d 73 6b f6 bd 38 04 39 be 49 ab 0a 3e
       0.06729427 -0.12032213 -0.18068016 0.13541903
000090 99 27 03 3e cd be 70 3d c6 4e 38 bd 53 58 95 3d
       0.12808074 0.05877571 -0.044997 0.07292237
0000a0 4e 8a 06 be 9b 80 e3 3d fb 92 3b bd 59 3a 8f 3d
       -0.13138697 0.11108514 -0.04579447 0.06993551
0000b0 4d 03 c7 bd 1f a1 82 3d cc 45 86 bc 9e 2e 25 bd
       -0.097174264 0.06378388 -0.016390704 -0.04032766
0000c0 08 5d 02 3e a2 ea d7 bd d8 3f 2f bd bd f7 94 bd
       0.12730801 -0.105427995 -0.042785496 -0.07273815
0000d0 06 97 ec bd ec df 65 3d f6 ba 4e bd 11 56 f0 3d
       -0.11552243 0.05612175 -0.05047127 0.11735166
0000e0 59 2e 90 3d e5 d8 b7 3d c6 d4 09 bd c1 86 fe bc
       0.0704009 0.08976916 -0.033650182 -0.031070115
0000f0 53 b9 24 3c 1b d3 0c be 1c 75 96 3c 08 70 5c be
       0.01005395 -0.13752405 0.018366389 -0.21527112
000100 55 6c 0a 3c 4e d0 03 bd 23 d0 c8 bd 07 6e a5 3b
       0.00844868 -0.032181077 -0.09805324 0.0050485167
000110 6f 5d de bc 25 3a 02 be dd 15 a9 3c 56 c3 07 bd
       -0.027144162 -0.12717493 0.020640308 -0.03314527
000120 b1 50 aa bd c9 41 1a 3b 5b 40 70 3b 9c 77 ed 3b
       -0.08316172 0.0023537746 0.0036659453 0.0072469246
000130 89 74 c1 3d 62 14 58 be 65 89 4d 3e 59 7d 16 3d
       0.094460554 -0.21101525 0.20071943 0.036740635
000140 5f 43 99 3c e1 b9 aa bd 9d 50 54 3d 77 75 0c 3e
       0.018708883 -0.08336235 0.05183469 0.13716684
000150 56 8b 00 bd a5 95 9c bd 68 ae 10 be 55 86 32 3c
       -0.03138288 -0.0764573 -0.1412903 0.010896285
000160 ab 51 1d bd c1 63 8a 3c f7 11 4e 3d 22 f6 34 3e
       -0.038407963 0.01689327 0.0503101 0.17672017
000170 05 70 85 bd 07 1a 8f 3c 59 96 dd bd 88 09 a5 3d
       -0.06515507 0.017468465 -0.10819692 0.080584586
000180 33 43 ab bd b3 8a 86 3a bc 10 92 3d 82 eb dc 3c
       -0.083624266 0.0010264724 0.07132098 0.026967768
000190 1c 08 12 be 99 44 ac bd 0e 17 f1 3d 97 0a 23 3e
       -0.14260906 -0.084115215 0.117719755 0.15922008
0001a0 0c ea 2a be 0e 8d 85 bd 80 5b 8f 3d dd f9 84 3b
       -0.16690844 -0.06521045 0.06999874 0.0040581063
0001b0 6f 18 ba 3c 88 2f 99 bd 2a 2f 6d 3d ff 4c a0 bd
       0.022716729 -0.07479769 0.057906307 -0.07827186
0001c0 3a 05 8f bd a0 d8 6d 3b f3 f1 5e 3d a9 09 d4 bd
       -0.06983419 0.0036292449 0.05442996 -0.10353405
0001d0 f8 5b 16 3c 8f 72 05 bd ab fb fc 3d df 37 bf 3d
       0.0091772005 -0.032579955 0.12352689 0.093368284
0001e0 4d 6d 00 bd 14 9f 0a be 59 44 09 be 59 7a 4e be
       -0.031354237 -0.13537246 -0.13404979 -0.2016386
0001f0 73 da 9e bc 93 49 48 be 79 c1 90 bd 02 f3 03 be
       -0.019391274 -0.19559316 -0.07068152 -0.12885669
000200 f8 36 e0 bc d4 7b ff 3d e6 6e f9 3d fd f0 cf 3d
       -0.027369961 0.1247479 0.12179355 0.10153387
000210 07 2f 67 3d 7b 22 53 3e d0 2c 52 be 5f 38 e6 be
       0.056441333 0.20618622 -0.20524907 -0.44964883
000220 84 14 36 be 73 31 2d 3e c5 c5 87 3c f6 69 0d bd
       -0.17781264 0.16913395 0.016573796 -0.03452488
000230 7e 39 80 3b b2 b4 13 bd 38 f7 00 3e 03 12 d9 bd
       0.0039131036 -0.036060996 0.12594306 -0.105991386
000240 89 48 6b be ac 51 6b bd 84 aa 3d 3e 82 77 87 bb
       -0.22976889 -0.057450935 0.18522078 -0.0041341195
000250 f3 c7 84 3d 4d 86 50 3e d2 da d3 be 76 4b a2 3e
       0.0648345 0.20363732 -0.41377884 0.31698197
000260 9f 65 5e 3e fb 40 e1 3e 6b fd 81 be c3 a4 22 3e
       0.21718453 0.4399489 -0.25388655 0.15883164
000270 f7 6f f6 bd e2 18 d4 3c df a5 2c be 3e 00 2f be
       -0.12033074 0.025890771 -0.1686015 -0.17089936
000280 c9 f3 c1 bd b9 fe a9 bd d3 01 0f 3e 6e 29 0f 3e
       -0.094703265 -0.083005376 0.1396554 0.13980648
000290 fc 41 79 bd 84 23 58 bd 40 05 26 ba 1e 3a ab 3d
       -0.060853943 -0.052768245 -0.000633318 0.08360694
0002a0 ee 47 f0 be b8 89 f9 3c b1 f7 4d bb d3 57 0c be
       -0.46929878 0.030461177 -0.0031428153 -0.13705377
0002b0 59 07 ae bb 65 d2 8a bd 05 c8 3d bd de f0 12 3e
       -0.0053109345 -0.06778411 -0.04633333 0.14349696
0002c0 b8 64 d9 bd 57 8d ce bd 2b c7 15 3d ac 13 ef 3c
       -0.10614914 -0.10085552 0.036566895 0.029184185
0002d0 d7 17 d1 3c d5 32 44 be cb fa 66 be 90 4a 7b bc
       0.025524063 -0.19160016 -0.22556607 -0.015337601
0002e0 a0 2b 4f be 5b 46 62 3d ad 2d d1 bc 7c 58 59 bc
       -0.20231485 0.055242877 -0.025534475 -0.013265725
0002f0 2f 4c ef 3c 30 f6 de bd 34 eb 9e 3c 3c 30 47 bc
       0.029211132 -0.108868 0.019399263 -0.012157496
000300 2d fb a7 bd 83 82 89 be 2c 47 ec bd 0d b2 30 bc
       -0.08202205 -0.26857385 -0.115370125 -0.010784638
000310 14 bd b4 be 3b d8 1d 3c 0d 68 83 bd 92 7f 63 bd
       -0.35300505 0.009634073 -0.064163305 -0.055541582
000320 ce eb bc bd 02 c6 03 bd 23 64 85 3e 28 f6 a8 3d
       -0.09224664 -0.032171257 0.2605296 0.082500756
000330 df 94 da 3c 9f 1b 96 bc db c5 d9 3d c8 72 62 bd
       0.026682315 -0.018323718 0.10633441 -0.055285245
000340 00 57 21 3c 72 90 b6 ba 2a 3c 8f 3e 9b c6 a0 bd
       0.009847403 -0.0013928546 0.2797559 -0.07850381
000350 a9 a9 0d be 69 65 9d 3c 51 35 bb bc 0e eb 79 be
       -0.13834251 0.019213395 -0.022852572 -0.24406072
000360 ef 4a 55 be f2 1b 8f bd e4 62 83 be fe d3 39 3e
       -0.20829366 -0.06987752 -0.25661385 0.18147275
000370 43 97 89 bc d4 70 11 be f2 83 67 3d ce b2 84 3c
       -0.01679576 -0.14203197 0.056522317 0.016198542
000380 7e b1 67 be fb f1 38 3e 79 6f 98 3d 9d 35 ca be
       -0.22626302 0.18061058 0.07443137 -0.3949403
000390 10 27 30 bd bd 67 81 3c 71 d8 a0 be 81 5a 87 bd
       -0.043006003 0.015796537 -0.31415132 -0.06609059
0003a0 c5 16 a1 3c cd 79 87 3c cd 9b 00 3d e1 c9 32 be
       0.019664178 0.016537571 0.031398583 -0.17459823
0003b0 1f 02 9e be 12 40 19 3e fd 96 dd bc b0 76 d5 3d
       -0.30860993 0.14965847 -0.027049536 0.104230285
0003c0 50 50 08 be 76 55 aa 3c c4 b7 66 3e 00 cd 9e 3c
       -0.13311887 0.020792704 0.22531039 0.019384861
0003d0 05 76 1c be 39 f4 3d be 75 85 63 3e a1 42 43 be
       -0.15279396 -0.18550195 0.22218879 -0.19068386
0003e0 d4 a5 73 3c 70 aa 7a 3e 61 5a a0 bd d1 38 78 3e
       0.0148710795 0.24479079 -0.078297384 0.24240424
0003f0 7e b0 ac 3d c9 36 d1 bd e8 07 75 bd b1 d0 df 3e
       0.08432101 -0.102155276 -0.059821993 0.43713906

pool.net.0.0.bias f4 [128]
000000 a8 c7 86 bd b7 0f 02 be 39 a1 eb 3c da f8 f4 3c
       -0.0658105 -0.12701307 0.0287634 0.029903818
000010 97 c4 9a 3e a1 c3 65 3d d0 7d 58 bd dc 81 16 be
       0.3022811 0.05609477 -0.05285436 -0.14697975
000020 73 79 53 3e 58 81 0e be f8 71 61 3e 0b 4b b2 be
       0.20651798 -0.13916528 0.22016132 -0.34822878
000030 cf be 89 bd f2 70 24 be ec df 5d be 01 98 16 3f
       -0.06725847 -0.1605871 -0.2166745 0.5882569
000040 8f 46 f8 3d 1c ce f6 3e 72 6a 0c bd bf 4e 82 3d
       0.12122833 0.48204124 -0.0342812 0.06362676
000050 09 38 0d be 78 03 b2 3e 2d 11 84 bc f5 ee ba 3e
       -0.13790907 0.3476827 -0.016121471 0.36510435
000060 78 47 f5 3d ef dc 74 bd de 08 82 3e b7 0d db 3d
       0.11976522 -0.05978101 0.2539739 0.10695975
000070 13 4b 95 bd 82 0d 81 3e 59 b3 e4 bc 67 3e 50 be
       -0.0728971 0.25205618 -0.02791755 -0.20336305
000080 18 a4 d6 bd 3a 5a 45 be ff a7 94 be 80 16 7f be
       -0.10480517 -0.192727 -0.2903442 -0.24910927
000090 a0 8e 63 bd cf cb e9 3e b6 1e ca bd e2 00 49 3e
       -0.05555594 0.45663306 -0.09869139 0.19629243
0000a0 38 a4 55 be 86 c1 b9 bd ed 3d 5b be af 0f 36 be
       -0.20863426 -0.09070115 -0.21410342 -0.1777942
0000b0 8b 63 2d bb 77 f1 aa 3e 0d 8d df be a5 94 5a 3e
       -0.0026457037 0.33387348 -0.436623 0.21345766
0000c0 63 b2 88 3e a4 7b 78 bc c4 da cd bc f2 57 0f 3f
       0.26698598 -0.015166197 -0.02512873 0.5599357
0000d0 27 b0 ff be 54 f3 79 bd 97 61 53 be f7 8e c8 3e
       -0.4993908 -0.06102307 -0.20642696 0.39171574
0000e0 d8 79 8f 3d 6d 89 0f be 7c 28 e7 be 4a dd b7 3c
       0.07005662 -0.14017268 -0.45148075 0.022444386
0000f0 ed 65 3c 3e d8 60 07 be e7 af d0 bd 79 78 5b be
       0.18398257 -0.13220537 -0.10189801 -0.21432675
000100 69 12 aa 3e 31 70 28 be 34 40 ad bd ea 03 d8 bd
       0.3321717 -0.16449048 -0.084595114 -0.105476215
000110 b7 c9 07 3f 09 92 ae 3e 37 36 32 3f ea 80 b3 3e
       0.5304217 0.3409579 0.69613975 0.3505929
000120 e2 5a 0a be e1 d8 a4 bc 29 1f 5b 3e 94 94 80 be
       -0.13511232 -0.020122947 0.21398605 -0.25113356
000130 4b fc 49 be 03 c0 ec 3d 87 5b 80 be 40 49 e4 3d
       -0.19725148 0.11560061 -0.2506983 0.11146784
000140 13 c9 6f bd 0d bf 16 3e 1d 7b 25 3e b2 be 28 3e
       -0.05854137 0.14721318 0.16160245 0.16478994
000150 a9 62 ce 3c e7 1c ab be b2 1e c6 bd 43 62 07 be
       0.02519353 -0.33420488 -0.096738234 -0.13221078
000160 29 dc ba bd 11 c5 cb 3e be 9d 4a be cf 6a 4a be
       -0.091240235 0.39798787 -0.19786736 -0.19767307
000170 71 72 b8 bd 1d 22 8a bd 36 33 15 be 52 cc 23 be
       -0.09006203 -0.06744788 -0.14570317 -0.15995911
000180 a6 6e 92 bd 4f 98 bf bd d3 99 bd 3e 48 7e a4 bd
       -0.07150011 -0.093552224 0.3703142 -0.08031899
000190 35 e8 65 be 63 0b e2 be 26 c9 0f bd e3 b1 06 bf
       -0.22451861 -0.44149312 -0.03510394 -0.52615184
0001a0 33 0f c2 3d ae b6 34 3e 22 58 90 3e d3 06 42 3e
       0.09475555 0.17647812 0.2819224 0.18947916
0001b0 b9 4d 10 3e bc 03 25 3f 29 30 65 3e b8 2f aa 3e
       0.14092149 0.64458823 0.22381653 0.33239532
0001c0 9b fb 38 be f9 18 42 be 98 e8 fe 3d f1 92 74 be
       -0.1806473 -0.18954839 0.124467075 -0.23884179
0001d0 d6 60 2e be 28 81 9d be b8 92 5a bd 1d 50 de 3e
       -0.17029127 -0.307626 -0.05336258 0.43420497
0001e0 94 9b 35 be 81 30 f7 bd 29 6d 1c be ba 8d 21 be
       -0.1773513 -0.12069798 -0.15276016 -0.1577672
0001f0 dc 06 bb 3e 8e 7b da 3e e7 0a a5 3e 54 85 fc bd
       0.3652867 0.4267239 0.3223488 -0.12330118
