hepgnn_4top_resampling/result/train20220816_4top_cla_alledge_w2_L1_1ncpu_48h/weightFinal.pth (torch, 152509 bytes, 25 tensors)

conv1.conv.local_nn.0.0.weight f4 [64, 7]
0.20972292 0.15561013 0.6955192 -0.23530817 -0.45053697 -0.0010261391 0.14668658 0.008734979
-0.053416077 -0.020646006 -0.013583105 0.29458445 0.2781622 -1.3170247 -0.21669713 -0.017410787
0.16637923 0.16919303 -0.14068744 0.13091104 -0.0642612 -0.074728124 -0.2762907 0.24085903
-0.29350778 0.11459215 -0.16287228 -0.28770098 -0.06408916 0.13554125 -0.2999581 -0.0152197825
-0.09392827 -0.031150296 -0.1403251 -0.0548736 0.33221945 -0.355567 -0.18660207 0.321207
-0.019893195 -0.07852566 0.07557437 -0.048683625 -0.010825156 -0.45094708 -0.24525665 0.8017685
0.08951265 -0.29894736 0.22708426 -0.25118172 -0.024390412 -0.0010921336 -0.16655423 0.16916032
-0.089483485 0.14176753 0.14143203 -0.33581847 0.26871824 -0.0247937 0.23547891 0.5208581
-0.11816555 0.0069891615 0.16574772 -0.40949214 -0.03490888 0.11953438 0.022622097 -0.06833827
0.33865708 -0.0005612655 -0.45467785 1.0513868 -0.6788108 0.005301857 -0.025070189 0.03888983
-0.006943499 0.5121309 -1.7256486 -0.12396432 -0.06917627 -0.37461576 0.051360197 -0.26761127
-0.33925188 -0.1535355 -0.20252863 0.007321936 0.042409617 -0.0096387435 -0.008026074 0.87683356
-0.10535272 1.1389085 0.0034016012 0.021908848 -0.042255778 -0.0008737597 1.7803268 -0.24573293
1.88279 -0.30196312 0.084407024 -0.011049839 -0.35500196 0.08470625 -0.040082823 -0.3668511
-0.11759574 0.31140018 0.07582568 -0.2308046 -0.19505815 -0.1724551 -0.19586742 -0.054713782
-0.119938135 -0.060788475 0.6383342 1.0681146 -0.37210578 0.08019442 -0.31641904 -0.20392147
-0.21511059 0.17662264 -0.3594253 -0.17909509 0.150671 0.3685239 0.20842855 0.2348348
-0.23637103 0.061240945 -0.76002973 0.36434174 -0.0061548953 0.068326116 -0.0069825663 0.02462427
-0.5601101 1.0810523 1.5581505 0.009225737 -0.055903737 -0.02874138 0.012038227 -2.7567475
0.59969497 -0.2665409 0.44372162 0.25306538 0.19670857 -0.16777138 -0.2576214 -0.53186315
0.16496395 -0.080872916 0.022019492 -0.11056485 0.08368012 0.2580041 0.051305626 -0.12511057
-0.32934022 -0.19425334 0.11641431 -0.35197774 -0.3755363 0.020535393 0.0096789375 -0.29716536
0.08924348 0.16532864 -0.2941918 -0.056120276 0.22396277 0.3371439 -0.26434973 -0.20314099
-0.21405828 -0.19240426 -0.24501893 0.29003292 -0.019151289 -0.2874685 -0.26783225 -0.321339
-0.35519415 0.021851368 0.04035839 0.21722235 0.054631654 0.109515645 0.4661197 -0.17429301
-0.9829344 -1.3464365 0.89366746 -0.042681977 -0.010806284 -0.18791805 -0.34362096 -0.12818171
0.0645914 0.15916955 -0.3389672 -0.33946097 -0.02163451 -0.14486393 -0.15405144 -0.36552742
0.16977458 -0.06364238 0.2981249 -0.24272238 -0.34343144 -0.004904486 0.089740545 0.2203169
-0.05761782 0.2933253 -0.18798839 -0.31263193 -0.16097943 -0.13519315 0.1287574 0.21840556
0.35068035 -0.15701154 -0.3628493 -0.059585217 0.36812645 0.14633006 -0.14234276 0.056772158
-0.23397416 0.31621712 -0.3227778 -0.32073632 -0.027371727 -0.26700827 -0.16469887 0.21827641
0.0017042313 -0.042928297 -0.35086262 -0.12342835 -0.12622656 0.2785163 0.14864096 -0.034632564
00000000: 9bc1 563e 4358 1f3e 8c0d 323f a0f4 70be
00000010: c8ac e6be 847f 86ba 0235 163e 281d 0f3c
00000020: d1ca 5abd d021 a9bc ac8b 5ebc c6d3 963e
00000030: 476b 8e3e 4494 a8bf dae5 5dbe 11a1 8ebc
00000040: 515f 2a3e f040 2d3e 5e10 10be 8b0d 063e
00000050: 609b 83bd 0f0b 99bd fa75 8dbe c0a3 763e
00000060: a746 96be 4aaf ea3d fec7 26be 8b4d 93be
00000070: 2d41 83bd 53cb 0a3e 1c94 99be 655c 79bc
00000080: 775d c0bd e82e ffbc 62b1 0fbe 24c3 60bd
00000090: ab18 aa3e e10c b6be 9d14 3fbe 3e75 a43e
000000a0: 0ef7 a2bc 10d2 a0bd bcc6 9a3d 7b68 47bd
000000b0: ff5b 31bc 89e2 e6be 8f24 7bbe b340 4d3f
000000c0: 6952 b73d a10f 99be c788 683e e49a 80be
000000d0: 67ce c7bc ec25 8fba 318d 2abe 5d38 2d3e
000000e0: 1e43 b7bd 822b 113e 8fd3 103e 66f0 abbe
000000f0: 7095 893e 281c cbbc 6221 713e f556 053f
00000100: c800 f2bd 5605 e53b c5b9 293e f4a8 d1be
00000110: 9dfc 0ebd 71ce f43d fa51 b93c eff4 8bbd
00000120: 7664 ad3e e421 13ba 89cb e8be d893 863f
00000130: 8bc6 2dbf 33bb ad3b ff5f cdbc f14a 1f3d
00000140: 4b86 e3bb 031b 033f 0ee2 dcbf 01e1 fdbd
00000150: 4aac 8dbd a3cd bfbe 125f 523d 5804 89be
00000160: 6cb2 adbe 6938 1dbe aa63 4fbe daec ef3b
00000170: b5b5 2d3d d2eb 1dbc cb7f 03bc 2a78 603f
00000180: 2bc3 d7bd c1c7 913f 66ed 5e3b 2f7a b33c
00000190: 6514 2dbd 050d 65ba c0e1 e33f 6aa1 7bbe
000001a0: 43ff f03f e99a 9abe 97dd ac3d 620a 35bc
000001b0: d1c2 b5be 787a ad3d e32d 24bd e8d3 bbbe
000001c0: 09d6 f0bd d86f 9f3e 7e4a 9b3d 0b58 6cbe
000001d0: 53bd 47be 1298 30be 7891 48be 8f1b 60bd
000001e0: 20a2 f5bd 56fd 78bd df69 233f fbb7 883f
000001f0: a684 bebe f93c a43d ad01 a2be cad0 50be
00000200: f345 5cbe 91dc 343e 9806 b8be b464 37be
00000210: 8049 1a3e 2aaf bc3e 4b6e 553e 8978 703e
00000220: 3f0b 72be c9d7 7a3d 4f91 42bf 008b ba3e
00000230: 01af c9bb 90ee 8b3d 03ce e4bb d6b8 c93c
00000240: 6063 0fbf ec5f 8a3f 7a71 c73f 8c27 173c
00000250: 51fb 64bd 0b73 ebbc fc3b 453c 8d6e 30c0
00000260: 9c85 193f 0d78 88be 7b2f e33e c991 813e
00000270: f96d 493e 43cc 2bbe f4e6 83be 2f28 08bf
00000280: 4fec 283e b3a0 a5bd 3962 b43c d36f e2bd
00000290: 7c60 ab3d 1d19 843e d925 523d fc1c 00be
000002a0: 489f a8be 59ea 46be a06a ee3d 6d36 b4be
000002b0: 4b46 c0be d739 a83c 6894 1e3c 0f26 98be
000002c0: 49c5 b63d e94b 293e 4fa0 96be 60de 65bd
000002d0: 7f56 653e 209e ac3e d958 87be 3104 50be
000002e0: 1832 5bbe 9f05 45be 3ee6 7abe 327f 943e
000002f0: 2ae3 9cbc 122f 93be 4f21 89be 8c86 a4be
00000300: 02dc b5be a401 b33c d74e 253d 896f 5e3e
00000310: 71c5 5f3d bd49 e03d 3ea7 ee3e de79 32be
00000320: 97a1 7bbf 0858 acbf 64c7 643f 4cd3 2ebd
00000330: d70c 31bc 976d 40be 16ef afbe 1142 03be
00000340: 7f48 843d 58fd 223e 1c8d adbe d4cd adbe
00000350: db3a b1bc 3657 14be a9bf 1dbe 6926 bbbe
00000360: 63d9 2d3e f056 82bd d4a3 983e 378c 78be
00000370: 3fd6 afbe cfb5 a0bb e4c9 b73d c19a 613e
00000380: aa00 6cbd bc2e 963e 0780 40be 4b11 a0be
00000390: cbd7 24be 1370 0abe fbd8 033e b5a5 5f3e
000003a0: 608c b33e a2c7 20be 62c7 b9be a10f 74bd
000003b0: 127b bc3e 8cd7 153e 4dc2 11be ec89 683d
000003c0: ec96 6fbe 36e7 a13e 2243 a5be 8d37 a4be
000003d0: ac3a e0bc 4fb5 88be d2a6 28be da83 5f3e
000003e0: 8360 df3a 95d5 2fbd 44a4 b3be 01c8 fcbd
000003f0: 8941 01be b099 8e3e 5635 183e e0da 0dbd

conv1.conv.local_nn.0.0.bias f4 [64]
-0.087751016 -1.8079966 0.11423045 -0.3842292 -0.2076123 -0.26850352 1.7300273 0.120854884
0.28730708 -0.057384636 -0.61309654 -1.7841091 -0.24440296 -1.7460867 0.37479746 -0.34226197
0.25621736 -0.70298 0.16066588 -0.16795649 1.178964 -0.27174363 0.18081099 0.33760208
-0.37258607 -0.324055 -0.031333767 0.013280379 0.2006346 0.14261666 -0.0032778876 -0.32516795
0.07010125 -0.20057912 0.13711324 -0.13430616 -0.02026478 0.26331264 0.26944613 -0.2526265
-0.2290943 -0.14535528 -0.66179085 0.26347697 0.26078504 -0.031653356 -1.8294803 0.5579958
-0.05705802 -0.16898644 0.17148404 -0.09686434 -0.5285774 -0.6813234 -0.40744603 -0.002207585
0.27728647 0.20953497 0.1646827 -0.036205273 0.18215351 -0.22224061 -0.04709407 -0.14747615
00000000: ceb6 b3bd 6f6c e7bf a7f1 e93d b1b9 c4be
00000010: 5298 54be 4b79 89be 8971 dd3f c482 f73d
00000020: ea19 933e 270c 6bbd e5f3 1cbf b05d e4bf
00000030: c544 7abe c57f dfbf 74e5 bf3e f63c afbe
00000040: ec2e 833e 7ff6 33bf 9985 243e c9fc 2bbe
00000050: 4be8 963f fb21 8bbe 8426 393e 2eda ac3e
00000060: 9ac3 bebe 89ea a5be d657 00bd f295 593c
00000070: 2873 4d3e 1a0a 123e d4d1 56bb 6a7c a6be
00000080: 3f91 8f3d 9d64 4dbe 6a67 0c3e 8e87 09be
00000090: 5302 a6bc ead0 863e d8f4 893e 4358 81be
000000a0: b297 6abe 04d8 14be 206b 29bf 74e6 863e
000000b0: 9e85 853e f3a6 01bd 692c eabf d0d8 0e3f
000000c0: acb5 69bd c80a 2dbe 8399 2f3e d060 c6bd
000000d0: d950 07bf 366b 2ebf c49c d0be 21ad 10bb
000000e0: 7ef8 8d3e 5690 563e 95a2 283e fb4b 14bd
000000f0: 7386 3a3e 0b93 63be b6e5 40bd fd03 17be

conv1.conv.local_nn.0.2.weight f4 [64]
0.47499305 1.5295404 1.0 0.96890837 0.97821504 0.99221414 0.83953416 1.0
0.8849561 0.31452164 0.27438626 0.9908348 1.0 1.5827382 1.4202398 1.0
1.0 0.6547805 1.0 0.4336324 1.0692954 1.0930063 0.33654004 0.9870189
1.0 1.0 1.0 1.0 0.7168714 0.96129745 1.0 1.0
0.9853146 0.3930242 0.99314755 1.0 1.0 1.0 1.015143 0.16961107
1.0 1.0 0.9960485 0.30811188 0.34101573 1.0 1.4961264 0.33693433
1.442338 1.0 1.0 0.39231297 0.63649213 0.35869822 0.86263835 0.31467482
1.0 1.0 1.0 1.0 1.0 1.2262454 1.0288861 1.0
00000000: 4a32 f33e fbc7 c33f 0000 803f 610a 783f
00000010: 4d6c 7a3f bf01 7e3f b6eb 563f 0000 803f
00000020: 7c8c 623f fb08 a13e 5b7c 8c3e 59a7 7d3f
00000030: 0000 803f 2a97 ca3f 6bca b53f 0000 803f
00000040: 0000 803f b29f 273f 0000 803f 1105 de3e
00000050: acde 883f a1e7 8b3f fa4e ac3e 45ad 7c3f
00000060: 0000 803f 0000 803f 0000 803f 0000 803f
00000070: e284 373f 9717 763f 0000 803f 0000 803f
00000080: 943d 7c3f 783a c93e eb3e 7e3f 0000 803f
00000090: 0000 803f 0000 803f 35f0 813f 86ae 2d3e
000000a0: 0000 803f 0000 803f 09fd 7e3f d7c0 9d3e
000000b0: 9d99 ae3e 0000 803f 1281 bf3f a882 ac3e
000000c0: 889e b83f 0000 803f 0000 803f 3fdd c83e
000000d0: 26f1 223f 4ba7 b73e ded5 5c3f 0f1d a13e
000000e0: 0000 803f 0000 803f 0000 803f 0000 803f
000000f0: 0000 803f 9cf5 9c3f 8ab2 833f 0000 803f

conv1.conv.local_nn.0.2.bias f4 [64]
0.015252345 0.54182535 -0.052880418 0.0027016448 0.005447409 -0.0037979782 -0.07064712 -0.004318645
-0.0025514604 0.108130075 0.09950144 0.41799992 -0.015717775 0.5350618 0.27627254 -0.04388097
0.062033106 0.13721392 0.062050376 0.055989787 0.41692322 0.1927857 0.038948175 0.0024581489
-0.0007278204 -0.055148676 0.014043833 -0.056326408 0.05453043 0.0025414503 -0.0011732836 0.05703799
0.07398018 0.08155604 0.0125079015 -0.008158228 0.016750336 0.006066058 0.3390436 0.10525117
-0.063749745 -0.06520709 0.41852644 0.11194543 0.13628118 0.1444111 0.5476933 0.034841895
0.31238422 -0.0072046267 0.0020794594 0.12713027 0.09313908 0.222335 0.03073835 0.08384641
-0.042260695 0.048674855 0.060435925 0.033199746 -0.010582962 0.3018263 0.19631372 -0.041769497
00000000: f9e4 793c 11b5 0a3f 2399 58bd 140e 313b
00000010: 2e80 b23b 80e7 78bb 70af 90bd 6c83 8dbb
00000020: 6736 27bb 4d73 dd3d 69c7 cb3d 1604 d63e
00000030: 90c2 80bc cff9 083f 9873 8d3e 88bc 33bd
00000040: 6d16 7e3d ce81 0c3e 8928 7e3d 8c55 653d
00000050: f676 d53e 9d69 453e 1f88 1f3d e518 213b
00000060: 33cb 3eba 94e3 61bd 1b18 663c 85b6 66bd
00000070: 4d5b 5f3d 768e 263b ddc8 99ba aba0 693d
00000080: ec82 973d da06 a73d f1ed 4c3c 17aa 05bc
00000090: 0038 893c c8c5 c63b 1f97 ad3e ed8d d73d
000000a0: 3a8f 82bd 4b8b 85bd 1949 d63e a543 e53d
000000b0: 4b8d 0b3e 81e0 133e a135 0c3f 60b6 0e3d
000000c0: d3f0 9f3e ca14 ecbb 8a47 083b 702e 023e
000000d0: b4bf be3d c9ab 633e fece fb3c abb7 ab3d
000000e0: 8d19 2dbd 495f 473d a98b 773d 75fc 073d
000000f0: 2964 2dbc fa88 9a3e 7706 493e 7e16 2bbd

conv1.conv.local_nn.0.2.running_mean f4 [64]
23.760857 0.5958863 0.0 6e-45 6e-45 6e-45 4.447647 0.0
6e-45 72.263016 3.0017695 0.3065188 0.0 0.6123761 1.7852916 0.0
0.0 3.1843424 0.0 44.92457 1.5320708 1.9371827 56.44175 6e-45
0.0 0.0 0.0 0.0 4.4937434 6e-45 0.0 0.0
6e-45 22.575184 6e-45 0.0 0.0 0.0 1.7707467 33.04583
0.0 0.0 1.0575736 15.562117 18.280886 0.0 0.26208946 22.901817
2.3611078 0.0 0.0 14.186537 12.872333 2.586742 2.4606373 19.711239
0.0 0.0 0.0 0.0 0.0 1.8837335 1.4522572 0.0
00000000: 3c16 be41 018c 183f 0000 0000 0400 0000
00000010: 0400 0000 0400 0000 2053 8e40 0000 0000
00000020: 0400 0000 aa86 9042 fe1c 4040 08f0 9c3e
00000030: 0000 0000 aec4 1c3f 6f84 e43f 0000 0000
00000040: 0000 0000 44cc 4b40 0000 0000 c2b2 3342
00000050: e51a c43f 9af5 f73f 5ac4 6142 0400 0000
00000060: 0000 0000 0000 0000 0000 0000 0000 0000
00000070: bfcc 8f40 0400 0000 0000 0000 0000 0000
00000080: 0400 0000 fa99 b441 0400 0000 0000 0000
00000090: 0000 0000 0000 0000 d4a7 e23f ee2e 0442
000000a0: 0000 0000 0000 0000 925e 873f 6efe 7841
000000b0: 413f 9241 0000 0000 9730 863e ec36 b741
000000c0: 641c 1740 0000 0000 0000 0000 0efc 6241
000000d0: 13f5 4d41 2e8d 2540 157b 1d40 9eb0 9d41
000000e0: 0000 0000 0000 0000 0000 0000 0000 0000
000000f0: 0000 0000 2e1e f13f 90e3 b93f 0000 0000

conv1.conv.local_nn.0.2.running_var f4 [64]
525.43164 1.4941895 6e-45 6e-45 6e-45 6e-45 25.937082 6e-45
6e-45 4523.457 12.018441 0.48734704 6e-45 1.5171282 5.4250937 6e-45
6e-45 28.422184 6e-45 1822.8322 3.720628 5.433731 2803.8848 6e-45
6e-45 6e-45 6e-45 6e-45 23.453117 6e-45 6e-45 6e-45
6e-45 496.7363 6e-45 6e-45 6e-45 6e-45 5.8993764 1012.0979
6e-45 6e-45 3.0318882 194.45863 288.00443 6e-45 0.42865014 448.35016
8.436443 6e-45 6e-45 189.89806 174.67747 9.214564 9.398359 376.75162
6e-45 6e-45 6e-45 6e-45 6e-45 5.077885 3.4289262 6e-45
00000000: a05b 0344 9a41 bf3f 0400 0000 0400 0000
00000010: 0400 0000 0400 0000 257f cf41 0400 0000
00000020: 0400 0000 a85b 8d45 894b 4041 8d85 f93e
00000030: 0400 0000 4231 c23f 5e9a ad40 0400 0000
00000040: 0400 0000 a260 e341 0400 0000 a1da e344
00000050: c51e 6e40 20e1 ad40 283e 2f45 0400 0000
00000060: 0400 0000 0400 0000 0400 0000 0400 0000
00000070: fc9f bb41 0400 0000 0400 0000 0400 0000
00000080: 0400 0000 3f5e f843 0400 0000 0400 0000
00000090: 0400 0000 0400 0000 b1c7 bc40 4406 7d44
000000a0: 0400 0000 0400 0000 750a 4240 6975 4243
000000b0: 9100 9043 0400 0000 0878 db3e d22c e043
000000c0: acfb 0641 0400 0000 0400 0000 e7e5 3d43
000000d0: 6fad 2e43 db6e 1341 ae5f 1641 3560 bc43
000000e0: 0400 0000 0400 0000 0400 0000 0400 0000
000000f0: 0400 0000 097e a240 8773 5b40 0400 0000

conv1.conv.local_nn.1.0.weight f4 [128, 64]
0.164487 -0.10561456 -0.1114596 0.10802887 -0.05647578 -0.029182766 -0.082322374 -0.035467
-0.089981675 -0.008275954 0.06291192 -0.28084928 -0.251266 0.07808728 0.16451697 -0.28325522
0.112351224 0.14134651 0.32483825 0.14026487 0.1675524 -0.0033502926 0.09212841 0.1427314
0.001776011 -0.3238456 0.23324578 -0.2382453 0.13929646 -0.04059094 0.10650475 0.22812454
0.15943961 0.01289608 0.009992726 0.07631212 0.3037224 -0.037344962 -0.027214067 0.17708622
-0.18403739 -0.21501073 0.03545746 0.12383497 0.1313567 0.1833442 0.29015514 0.19092412
-0.24184825 0.21757154 -0.10086538 0.00078371196 0.12436696 0.14700942 0.22583161 0.03019344
-0.14029403 0.2458747 0.35641614 0.21011184 -0.28572422 0.20857443 0.091569506 -0.18108921
0.22158451 -0.36948416 0.03432621 0.006074118 0.049410563 0.10375674 0.12959868 -0.0866084
-0.093576804 0.17760313 0.22356468 0.010581273 -0.024504086 -0.09069478 -0.052895006 -0.18497774
0.17938001 0.0068911975 0.17973053 0.30097845 -0.19505008 -0.13808535 0.30376345 -0.18674213
0.24566956 -0.1539177 0.017688746 -0.07389951 0.2809347 0.018907404 -0.027071837 0.091985755
0.12956376 0.106934145 0.016085027 0.11629308 0.06441474 0.1461703 0.20003848 0.23765156
-0.13498853 0.02287764 -0.19115591 0.26174656 0.2472471 0.18358928 0.029711815 0.19204444
-0.21789068 0.117828384 -0.2589807 0.33341065 0.1917392 0.27834854 0.01793515 0.24880616
-0.041845 -0.021477798 0.07847135 0.18359102 0.012962018 0.101700574 0.07612461 -0.13711688
0.09075941 -0.21512459 0.0018753067 0.09252806 -0.04022 0.35884586 -0.083696656 -0.25492126
-0.006942871 0.22236885 0.10498692 0.12506896 -0.20651792 0.023248734 0.024978323 -0.13346536
0.17195106 -0.09797508 0.09826756 0.105770424 -0.27335456 -0.38368386 0.16446236 -0.21583031
0.18367052 -0.16006759 0.08854273 -0.16441603 0.11397531 -0.10506416 0.0767443 0.02311753
0.06875828 0.14674374 0.17755587 0.2576469 0.20496222 -0.022355994 -0.45854473 0.001090649
-0.023383738 -0.07345433 -0.25021616 0.18024163 0.04596141 0.13354433 0.028813459 0.19474278
-0.08081726 0.19727023 -0.037348513 0.19591211 0.13776967 0.1706315 -0.08455097 0.036974095
-0.0857344 -0.008406678 -0.009804422 0.20354825 -0.14302431 0.1876591 0.25981894 -0.20885448
0.0755863 -0.1828377 0.07295692 0.056614455 -0.011189987 -0.017927233 0.10112068 0.07872494
0.0028455565 -0.046399456 0.09577756 -0.33336025 0.13232256 -0.5029239 -0.6289935 0.114035934
-0.24394159 0.03821829 -0.1180587 0.1417754 0.11034268 0.071903855 0.039883412 -0.01862417
0.018787598 0.10848223 -0.09424204 0.059441984 0.17247364 0.03821019 -0.0014599812 -0.18636939
-0.21799032 0.124081135 -0.18504103 0.022841282 -0.042576816 -0.021816125 0.046465993 0.104020275
0.062240653 0.05766699 -0.29269937 -0.012026493 -0.044353854 -0.15523838 -0.30918255 0.1062177
-0.32120982 0.0024513123 -0.052790716 0.04031173 0.019112978 0.0555383 0.03926287 0.08563032
0.05729482 -0.078299925 -0.07055803 -0.21331201 0.17692177 0.1976718 -0.27543038 0.11225356
00000000: 486f 283e 724c d8bd ee44 e4bd 3d3e dd3d
00000010: 2653 67bd b210 efbc a298 a8bd d845 11bd
00000020: 5048 b8bd de97 07bc f7d7 803d 7acb 8fbe
00000030: f0a5 80be 39ec 9f3d 2377 283e d406 91be
00000040: 6618 e63d 24bd 103e 3351 a63e 98a1 0f3e
00000050: db92 2b3e 9590 5bbb d2ad bc3d 2e28 123e
00000060: 0ac9 e83a 17cf a5be fbd7 6e3e 93f6 73be
00000070: bba3 0e3e af42 26bd 2a1f da3d 7b99 693e
00000080: 2344 233e 144a 533c 88b8 233c 8749 9c3d
00000090: 8181 9b3e 08f7 18bd 09f0 debc 1756 353e
000000a0: 4c74 3cbe c62b 5cbe d73b 113d 309d fd3d
000000b0: 5f82 063e 95be 3b3e 378f 943e 9d81 433e
000000c0: 11a7 77be 13cb 5e3e 8292 cebd 0572 4d3a
000000d0: 1bb4 fe3d a389 163e 6740 673e 3c58 f73c
000000e0: 3da9 0fbe 94c6 7b3e 2d7c b63e 8f27 573e
000000f0: 724a 92be 8994 553e cb88 bb3d 736f 39be
00000100: 0de7 623e 072d bdbe a499 0c3d 6509 c73b
00000110: bb62 4a3d 6a7e d43d 84b5 043e bf5f b1bd
00000120: 32a5 bfbd 98dd 353e 24ee 643e 135d 2d3c
00000130: cbbc c8bc 2fbe b9bd 6fa8 58bd ce6a 3dbe
00000140: 65af 373e 8ecf e13b 480b 383e d919 9a3e
00000150: 35bb 47be 3f66 0dbe e286 9b3e 5439 3fbe
00000160: cd90 7b3e 9a9c 1dbe fde7 903c a058 97bd
00000170: acd6 8f3e b3e3 9a3c c2c5 ddbc 0763 bc3d
00000180: 5dac 043e 4a00 db3d bfc4 833c 112b ee3d
00000190: e0eb 833d abad 153e e3d6 4c3e ee5a 733e
000001a0: 6f3a 0abe e369 bb3c 60be 43be a503 863e
000001b0: 582e 7d3e d4fe 3b3e 3166 f33c 4ca7 443e
000001c0: bc1e 5fbe 0250 f13d 1e99 84be cdb4 aa3e
000001d0: 4857 443e b383 8e3e bcec 923c 0bc7 7e3e
000001e0: aa65 2bbd 35f2 afbc 96b5 a03d 49ff 3b3e
000001f0: a55e 543c 6448 d03d 38e7 9b3d 5e68 0cbe
00000200: 12e0 b93d 9f49 5cbe dacc f53a 5a7f bd3d
00000210: babd 24bd a5ba b73e 2769 abbd 0a85 82be
00000220: 0681 e3bb a9b4 633e 6203 d73d 1412 003e
00000230: 6f79 53be 2174 be3c 579f cc3c 25ab 08be
00000240: f013 303e 29a7 c8bd 8140 c93d 2a9e d83d
00000250: 21f5 8bbe 3672 c4be d268 283e 9f02 5dbe
00000260: 2014 3c3e c2e8 23be e455 b53d ad5c 28be
00000270: e36b e93d e12b d7bd 1e2c 9d3d f960 bd3c
00000280: 24d1 8c3d fe43 163e 35d1 353e 4bea 833e
00000290: 9ee1 513e eb23 b7bc 60c6 eabe 1cf4 8e3a
000002a0: 418f bfbc 396f 96bd 551c 80be 4391 383e
000002b0: 0842 3c3d d8bf 083e 340a ec3c a76a 473e
000002c0: 8583 a5bd 3501 4a3e c1fa 18bd 2f9d 483e
000002d0: 7e13 0d3e 06ba 2e3e 0f29 adbd 2672 173d
000002e0: 8495 afbd 2abc 09bc baa2 20bc f46e 503e
000002f0: f774 12be b529 403e fd06 853e f3dd 55be
00000300: fdcc 9a3d ce39 3bbe 706a 953d 8fe4 673d
00000310: 3556 37bc 22dc 92bc 5c18 cf3d 8b3a a13d
00000320: 847c 3a3b 5b0d 3ebd 0627 c43d 32ae aabe
00000330: 917f 073e 9fbf 00bf b805 21bf ac8b e93d
00000340: d3cb 79be c88a 1c3d c2c8 f1bd 922d 113e
00000350: 58fb e13d 5442 933d ca5c 233d b791 98bc
00000360: 73e8 993c ee2b de3d f801 c1bd 7079 733d
00000370: ee9c 303e 4a82 1c3d d75c bfba 9ed7 3ebe
00000380: db38 5fbe 401e fe3d 657b 3dbe a41d bb3c
00000390: 0765 2ebd bbb7 b2bc 2053 3e3d 9508 d53d
000003a0: 0ef0 7e3d 3934 6c3d b1dc 95be c50a 45bc
000003b0: 63ac 35bd cff6 1ebe 2d4d 9ebe aa88 d93d
000003c0: 9d75 a4be 32a6 203b 143b 58bd ea1d 253d
000003d0: d292 9c3c 217c 633d 1ad2 203d f35e af3d
000003e0: f9ad 6a3d b65b a0bd ba80 90bd 776e 5abe
000003f0: fb2a 353e 7a6a 4a3e 3605 8dbe 32e5 e53d

conv1.conv.local_nn.1.0.bias f4 [128]
0.1292224 0.080632515 0.1497616 -0.054318607 0.014374922 -0.1595759 -0.42282692 -0.23055011
-0.65868294 -0.44563985 -0.15428892 -0.09231275 0.14331783 -0.15602657 0.38967466 -0.044952054
0.08303442 -0.08015435 0.2404456 -0.34494567 -0.20783763 -0.0783775 -0.10426829 0.09160614
-0.08491176 -0.35011396 0.3791414 -0.25163692 0.26724723 0.5416675 0.2638518 -0.10181009
0.12525477 0.062333766 -0.07623832 -0.6831209 0.0851567 -0.24871914 0.08804502 0.04047409
0.3340841 -0.04745416 -0.07105052 -0.0036470722 -0.006569015 -0.25278676 -0.13498738 0.48260066
0.11721573 0.24983852 0.09978981 -0.09960344 -0.03685576 0.10661505 -0.13985884 0.35847872
-0.057974894 -0.05694933 0.34142148 -0.10415196 0.12901609 -0.16973388 -0.21576247 -0.122240216
-0.105428144 -0.55531883 -0.09697991 0.112164825 -0.24559166 0.44830674 -0.3125607 0.018052723
0.19336206 -0.20846705 -0.30961987 0.05952747 -0.14282417 -0.045461934 -0.109675676 -0.10330992
-0.062478885 0.29625487 0.024311775 -0.21016619 -0.04444378 0.11072638 0.09028024 -0.055516142
-0.18859813 0.24253295 -0.14218998 0.19037865 -0.027789222 -0.07711659 -0.12031554 -0.25307652
0.23090583 0.14352986 -0.31882638 -0.09301434 0.15776101 0.06918624 0.116181225 -0.17314689
-0.09785676 -0.047736645 0.22183353 -0.25388706 -0.03878913 0.19844884 -0.17643382 -0.085741974
-0.29096135 0.30392614 -0.0023408565 -0.005368461 -0.37996528 0.319289 -0.040046744 -0.4381692
-0.12932359 0.3018217 -0.039213397 -0.18145005 -0.25137135 -0.28880438 0.07531844 0.3296439
00000000: e052 043e a922 a53d 1b5b 193e 307d 5ebd
00000010: cb84 6b3c dd67 23be c57c d8be 5415 6cbe
00000020: 729f 28bf e82a e4be eafd 1dbe 780e bdbd
00000030: e9c1 123e 6ec5 1fbe 7083 c73e a51f 38bd
00000040: f30d aa3d f727 a4bd 5f37 763e b89c b0be
00000050: 63d3 54be 6284 a0bd 9d8a d5bd 009c bb3d
00000060: 38e6 adbd 2342 b3be d21e c23e 8ed6 80be
00000070: a1d4 883e b9aa 0a3f 9517 873e cf81 d0bd
00000080: c942 003e b151 7f3d d622 9cbd 03e1 2ebf
00000090: a366 ae3d 3bb0 7ebe f350 b43d 29c8 253d
000000a0: 120d ab3e 4b5f 42bd ef82 91bd b803 6fbb
000000b0: e440 d7bb 446d 81be 223a 0abe 6f17 f73e
000000c0: cd0e f03d abd5 7f3e 9a5e cc3d e3fc cbbd
000000d0: 11f6 16bd fe58 da3d 2837 0fbe 868a b73e
000000e0: 1577 6dbd b343 69bd ccce ae3e 9f4d d5bd
000000f0: cb1c 043e b8ce 2dbe d6f0 5cbe 1459 fabd
00000100: b6ea d7bd 6029 0ebf 679d c6bd acb6 e53d
00000110: 617c 7bbe 7688 e53e f507 a0be 4ee3 933c
00000120: b400 463e 6378 55be 7f86 9ebe 14d3 733d
00000130: 8040 12be 4b36 3abd a49d e0bd 2794 d3bd
00000140: dce9 7fbd b8ae 973e 7d29 c73c ce35 57be
00000150: ae0a 36bd 83c4 e23d d9e4 b83d e564 63bd
00000160: de1f 41be 8f5a 783e 409a 11be 9ff2 423e
00000170: 39a6 e3bc 4eef 9dbd fe67 f6bd 3f93 81be
00000180: 9472 6c3e 7ef9 123e 363d a3be 4d7e bebd
00000190: 1a8c 213e 84b1 8d3d 6cf0 ed3d 6b4d 31be
000001a0: 2069 c8bd 8087 43bd 5428 633e 7cfd 81be
000001b0: 5ae1 1ebd 2c36 4b3e 11ab 34be 7d99 afbd
000001c0: e3f8 94be 359c 9b3e 0e69 19bb eae9 afbb
000001d0: cf8a c2be d979 a33e 0e08 24bd b757 e0be
000001e0: 676d 04be 6088 9a3e 3a9e 20bd 0bce 39be
000001f0: bfb3 80be 2bde 93be 8e40 9a3d 16c7 a83e

conv1.conv.local_nn.1.2.weight f4 [128]
0.11527753 0.44278497 0.5378391 1.2271736 1.1772346 1.1443293 1.1672193 0.2786559
0.8437797 0.59896296 1.1344976 0.6525332 0.46817473 1.2407876 0.6578209 0.8027944
0.7757891 0.98373127 0.91654015 0.90983075 0.9733467 0.61072344 0.67786646 1.214261
0.8246402 1.1409811 0.7171817 0.98908335 0.95205134 0.7857654 0.6391259 0.80977106
0.8846493 0.47648874 1.0928947 0.91636 0.8513523 1.3133659 0.56407034 0.633225
0.5971052 0.7828083 1.038344 0.92854583 0.79709387 1.0691924 0.75227493 0.6861285
1.0823457 0.8798107 0.8577263 0.97386867 0.8584694 1.1062112 0.7110176 0.38138697
0.1601776 0.8731256 0.8661985 0.6627828 0.9074287 0.9676176 0.95447975 1.239777
0.54349697 0.9476258 1.0039501 0.89505976 0.97730505 0.8990832 0.81683165 0.78436613
0.6310281 0.8276801 0.9885794 0.4534831 0.49494335 1.4741615 0.9101176 0.71771574
1.104558 0.9356909 0.8355069 0.8919952 0.8669967 0.9762471 0.9864825 0.95950145
1.1630942 0.6872483 1.2955579 0.63405967 1.0828478 1.0604669 0.8858752 0.11491308
0.7660284 1.0327674 1.3171221 1.0062616 0.7478473 0.9860295 0.6576197 0.8656524
1.3371972 1.0573475 0.718714 0.76776475 1.1579609 1.0488867 0.9622563 1.1933591
1.009679 0.87803787 1.08197 0.9319512 0.71071035 0.8839189 0.80883676 0.720606
0.8079694 0.941322 1.1427121 1.1137346 0.7731433 1.0073192 0.7297285 1.0304679
00000000: a016 ec3d b6b4 e23e d3af 093f 0614 9d3f
00000010: a0af 963f 6279 923f 7167 953f fcab 8e3e
00000020: f201 583f a355 193f 3837 913f 6a0c 273f
00000030: 99b4 ef3e 21d2 9e3f f366 283f ef83 4d3f
00000040: 1d9a 463f d0d5 7b3f 60a2 6a3f abea 683f
00000050: 402d 793f 5f58 1c3f a888 2d3f e86c 9b3f
00000060: 9f1b 533f ab0b 923f 3899 373f 9134 7d3f
00000070: a3b9 733f ec27 493f c19d 233f 284d 4f3f
00000080: 6078 623f 55f6 f33e f9e3 8b3f 9296 6a3f
00000090: 39f2 593f 601c a83f ea66 103f 091b 223f
000000a0: e3db 183f 2066 483f 75e8 843f 2eb5 6d3f
000000b0: 580e 4c3f 4cdb 883f 1795 403f 1ea6 2f3f
000000c0: 4e8a 8a3f 463b 613f f393 5b3f 754f 793f
000000d0: a7c4 5b3f 5498 8d3f 4005 363f 2745 c33e
000000e0: 9905 243e 2985 5f3f 2fbf 5d3f 22ac 293f
000000f0: 3f4d 683f c9b5 773f c958 743f 03b1 9e3f
00000100: 9e22 0b3f 9b97 723f 7081 803f a322 653f
00000110: aa30 7a3f 512a 663f e11b 513f 38cc 483f
00000120: 0f8b 213f d8e2 533f 8a13 7d3f f02e e83e
00000130: 3769 fd3e 53b1 bc3f 78fd 683f 38bc 373f
00000140: 2862 8d3f 7089 6f3f c8e3 553f cc59 643f
00000150: 7ff3 5d3f 54eb 793f 1e8a 7c3f e3a1 753f
00000160: 45e0 943f 81ef 2f3f d7d4 a53f bc51 223f
00000170: c29a 8a3f 61bd 873f b8c8 623f 8d57 eb3d
00000180: 701a 443f b931 843f 7597 a83f 2ecd 803f
00000190: ec72 3f3f 6e6c 7c3f c459 283f 659b 5d3f
000001a0: 4729 ab3f 2a57 873f a4fd 373f 3b8c 443f
000001b0: 1038 943f eb41 863f 6e56 763f febf 983f
000001c0: 293d 813f 17c7 603f fe7d 8a3f 5b94 6e3f
000001d0: 1df1 353f 8248 623f ed0f 4f3f a379 383f
000001e0: 15d7 4e3f 7bfa 703f 6444 923f db8e 8e3f
000001f0: b8ec 453f d6ef 803f 7dcf 3a3f 5fe6 833f

conv1.conv.local_nn.1.2.bias f4 [128]
0.07729058 -0.34349665 -0.14090484 -0.7682023 -0.55202377 -0.60864675 0.42483515 -0.15131359
0.12777427 -0.39831752 -0.71804786 -0.24811362 0.09275303 -0.42810276 -0.23717803 0.098490015
-0.21805489 -0.40877995 0.14372155 -0.38077292 0.17126001 -0.22697249 -0.4073112 -0.0026029255
-0.030943302 -0.009171718 -0.29770762 0.33043057 0.10076427 0.3006665 0.20280035 -0.58312243
0.24634086 -0.3355227 -0.35932454 -0.2767453 -0.47841358 0.35070136 0.07942768 -0.42054802
-0.06633182 0.15440582 -0.12551081 -0.11849735 0.21892706 -0.3802696 0.144296 -0.06469946
0.09272828 -0.14561671 -0.12598807 -0.040477872 -0.05686184 0.17619748 0.16140574 0.10700816
-0.085119456 -0.39986774 -0.043912027 -0.14369017 0.08912485 -0.36888978 0.081745416 -0.24355681
0.0630793 0.22824915 -0.83224666 -0.15856466 0.094129555 0.2857152 -0.44606695 0.1221444
-0.095865175 -0.10801099 0.22547573 -0.51956505 0.11376925 0.10393888 0.08343792 -0.1768763
-0.23174593 0.14803317 -0.1095392 -0.76544863 -0.1422394 -0.14190643 -0.37623656 -0.4086867
-0.33539003 0.13401003 -0.26743346 -0.27268758 -0.36238992 -0.21540852 -0.09680274 -0.28868
0.014441818 0.12888277 0.32589057 -0.105079636 -0.011749747 0.12437019 0.025131224 -0.5571444
0.33558068 0.043246638 -0.2149132 -0.34031284 -0.51148134 0.23414163 -0.30365336 -0.63641655
-0.58073115 0.08865611 -0.5892368 -0.37309533 -0.29569593 0.0016162298 -0.08663626 -0.06751302
-0.3165635 0.09390043 0.38349414 -0.31777784 -0.28085297 -0.16382985 -0.25125986 0.17020963
00000000: 864a 9e3d cbde afbe 5c49 10be e8a8 44bf
00000010: 6e51 0dbf 46d0 1bbf fe83 d93e f3f1 1abe
00000020: 42d7 023e 46f0 cbbe fcd1 37bf 7f11 7ebe
00000030: 4df5 bd3d 4930 dbbe ccde 72be 22b5 c93d
00000040: c849 5fbe 9b4b d1be be2b 133e abf4 c2be
00000050: c95e 2f3e 7a6b 68be 188b d0be d895 2abb
00000060: cf7c fdbc f944 16bc 226d 98be 322e a93e
00000070: 7f5d ce3d f6f0 993e e5aa 4f3e 8347 15bf
00000080: c740 7c3e a2c9 abbe 63f9 b7be 8fb1 8dbe
00000090: a0f2 f4be 218f b33e fbaa a23d 1252 d7be
000000a0: fad8 87bd 8f1c 1e3e e885 00be bdae f2bd
000000b0: 6a2e 603e b2b2 c2be 55c2 133e 2781 84bd
000000c0: 53e8 bd3d 8c1c 15be 0403 01be 20cc 25bd
000000d0: f6e7 68bd 1d6d 343e 8c47 253e 1827 db3d
000000e0: 1c53 aebd 77bb ccbe 19dd 33bd 8423 13be
000000f0: 1787 b63d 1fdf bcbe 246a a73d f566 79be
00000100: b82f 813d 25ba 693e 1e0e 55bf c65e 22be
00000110: ffc6 c03d 4349 923e e362 e4be d826 fa3d
00000120: f654 c4bd de34 ddbd 1ce3 663e 3702 05bf
00000130: daff e83d e8dd d43d 80e1 aa3d 101f 35be
00000140: ce4e 6dbe 0296 173e 1756 e0bd 71f4 43bf
00000150: 35a7 11be eb4f 11be 14a2 c0be 623f d1be
00000160: 3eb8 abbe ed39 093e 0aed 88be b59d 8bbe
00000170: 2c8b b9be 0d94 5cbe 8440 c6bd ddcd 93be
00000180: 609d 6c3c d8f9 033e 21db a63e fe33 d7bd
00000190: 0382 40bc ccb5 fe3d ffdf cd3c 04a1 0ebf
000001a0: 3bd1 ab3e 6323 313d 3512 5cbe 7c3d aebe
000001b0: 71f0 02bf d3c2 6f3e 7478 9bbe 32ec 22bf
000001c0: ccaa 14bf 5691 b53d 39d8 16bf 5a06 bfbe
000001d0: 7565 97be acd7 d33a 5a6e b1bd 4444 8abd
000001e0: 9c14 a2be de4e c03d 5859 c43e c7b3 a2be
000001f0: f6cb 8fbe 03c3 27be 22a5 80be 6f4b 2e3e

conv1.conv.local_nn.1.2.running_mean f4 [128]
0.86192954 0.4996246 0.4188106 0.1427112 0.15510103 0.15113185 0.024589583 0.6018479
0.09716496 0.16127701 0.12332876 0.10048598 0.28190267 0.0888887 0.47146562 0.33746237
0.32438952 0.11186735 0.75601923 0.032810554 0.00790732 0.07364724 0.26740193 0.3364748
0.034079723 0.16400813 0.7165038 6e-45 0.48261866 0.9255478 0.7265055 0.071230404
0.6742832 0.33919543 0.08057917 0.06930517 0.2852647 0.020731421 0.59207326 0.21825704
0.5089696 0.46738854 0.1691708 0.35971233 0.108970396 0.024358647 0.33588502 0.9337376
0.45519808 0.35574 0.5794446 0.2106314 0.25702995 0.34922555 0.2180917 0.91698164
0.35650197 0.031282086 0.6920935 0.06315726 0.5393627 0.17885455 0.10665931 0.096612126
0.1521109 0.03755644 0.07863769 0.5518501 6e-45 0.70835364 0.11679838 0.43706876
0.46042353 0.03992241 0.316586 0.23545007 0.33861715 0.062219683 0.25450313 0.30220023
0.30719677 0.5506892 0.25401595 0.06792386 0.61396414 0.41172242 0.28760335 0.29540902
0.056180395 0.80876666 0.17097671 0.5132843 0.11171595 0.12817797 0.034208834 0.4308267
0.8822986 0.32772264 0.1107324 0.35076421 0.6816322 0.35947943 0.88935566 0.26982975
0.08700006 0.22561537 0.4629697 0.1881614 0.10562292 0.6502661 0.015736064 0.04521107
0.03197278 0.87588763 0.111263074 0.05390668 0.027630445 0.99159646 0.3298434 0.13879064
0.013225607 0.63894784 0.1264645 0.028771516 0.055188734 0.017527325 0.76150566 0.6021288
00000000: 6aa7 5c3f ccce ff3e 586e d63e e322 123e
00000010: ced2 1e3e 4fc2 1a3e 1870 c93c b412 1a3f
00000020: 6cfe c63d cd25 253e ca93 fc3d 98cb cd3d
00000030: 8c55 903e 470b b63d f163 f13e dec7 ac3e
00000040: 6216 a63e b61a e53d 7a8a 413f 5c64 063d
00000050: b48d 013c 5dd4 963d e8e8 883e 6d46 ac3e
00000060: 2e97 0b3d bff1 273e cb6c 373f 0400 0000
00000070: cb19 f73e b3f0 6c3f 44fc 393f 3fe1 913d
00000080: d39d 2c3f 06ab ad3e b106 a53d deef 8d3d
00000090: 370e 923e f1d4 a93c 1d92 173f c67e 5f3e
000000a0: d54b 023f 8d4d ef3e 1c3b 2d3e 372c b83e
000000b0: df2b df3d c98b c73c 1ff9 ab3e 6d09 6f3f
000000c0: b90f e93e 8e23 b63e 7b56 143f c2af 573e
000000d0: 6e99 833e b1cd b23e 6e53 5f3e 4fbf 6a3f
000000e0: 6d87 b63e a521 003d 0a2d 313f 9858 813d
000000f0: ad13 0a3f a625 373e 3270 da3d 94dc c53d
00000100: f6c2 1b3e c8d4 193d cc0c a13d 0c46 0d3f
00000110: 0400 0000 aa56 353f fd33 ef3d 7ac7 df3e
00000120: a2bc eb3e ae85 233d 8f17 a23e d319 713e
00000130: 3a5f ad3e 11da 7e3d 3c4e 823e fdb9 9a3e
00000140: e548 9d3e f8f9 0c3f 610e 823e aa1b 8b3d
00000150: c12c 1d3f 48cd d23e bf40 933e da3f 973e
00000160: 6a1d 663d 550b 4f3f 8514 2f3e 9a66 033f
00000170: 55cb e43d 1641 033e 901e 0c3d 5195 dc3e
00000180: 52de 613f 43cb a73e abc7 e23d 5e97 b33e
00000190: 737f 2e3f b00d b83e d0ac 633f 2027 8a3e
000001a0: 162d b23d b707 673e 5d0a ed3e 62ad 403e
000001b0: d450 d83d d777 263f ebe8 803c 3e2f 393d
000001c0: e4f5 023d 2c3a 603f e5dd e33d 40cd 5c3d
000001d0: 3e59 e23c 44d9 7d3f 3ce1 a83e 221f 0e3e
000001e0: 37b0 583c 1692 233f e97f 013e 3eb2 eb3c
000001f0: 950d 623d 7795 8f3c 09f2 423f 1d25 1a3f

conv1.conv.local_nn.1.2.running_var f4 [128]
1.256214 1.0125203 0.3513157 0.077619016 0.07157086 0.07337441 0.011248981 2.9596448
0.14670017 0.41759506 0.055987686 0.07316855 0.20394652 0.058326855 0.25822753 0.42137113
0.17679134 0.045369096 1.1997095 0.01171249 0.0015840945 0.038707584 0.27598497 0.20384207
0.012728954 0.13460273 0.61281407 6e-45 0.2380172 0.41726997 1.1244229 0.02401232
1.31463 0.19001313 0.028640708 0.15080293 0.39331937 0.005596155 0.9848029 0.21547557
0.23780847 0.5707226 0.069499664 0.38749334 0.052709226 0.0064668125 0.49376526 0.46863145
0.26992172 0.17291097 0.32730195 0.18566231 0.1543858 0.14744748 0.19325963 0.8668234
0.47137523 0.011575794 0.42930222 0.046333656 0.64898324 0.18868867 0.07343493 0.030703172
0.18086976 0.038208622 0.03609584 0.27113163 6e-45 0.2885239 0.2727203 0.47281858
0.3317682 0.014895321 0.50419855 0.1114806 0.45099363 0.022038836 0.27259934 0.33443454
0.3054987 0.32165787 0.24797228 0.02652918 0.49392524 0.289081 0.17881043 0.3018568
0.02112868 1.6711895 0.139576 0.6677005 0.04030676 0.05641849 0.013479734 1.5689895
0.62503856 0.14045955 0.084563605 0.42935532 0.3839251 0.15320113 1.7357885 0.7667338
0.04848016 0.14864872 0.5520477 0.19881032 0.04128624 0.3701048 0.0066458685 0.012734625
0.011537815 0.41297287 0.06656505 0.016708272 0.011220521 0.6601015 0.41379243 0.19176456
0.006288727 0.41223434 0.08237449 0.007455249 0.03250645 0.002640878 0.5947331 0.3429858
00000000: 9fcb a03f 449a 813f a7df b33e b8f6 9e3d
00000010: be93 923d 5345 963d a54d 383c d26a 3d40
00000020: 9238 163e 05cf d53e 5853 653d 65d9 953d
00000030: 5bd7 503e 24e8 6e3d 6636 843e f5bd d73e
00000040: ca08 353e f2d4 393d 1590 993f bee5 3f3c
00000050: 64a1 cf3a d88b 1e3d e74d 8d3e fabb 503e
00000060: 1a8d 503c 4cd5 093e 62e1 1c3f 0400 0000
00000070: c8ba 733e 69a4 d53e 17ed 8f3f 7cb5 c43c
00000080: cc45 a83f cd92 423e eb9f ea3c 156c 1a3e
00000090: 2861 c93e f35f b73b 0b1c 7c3f a1a5 5c3e
000000a0: 1084 733e e01a 123f d755 8e3d 8765 c63e
000000b0: a1e5 573d 8ee7 d33b cdce fc3e 76f0 ef3e
000000c0: 2e33 8a3e 930f 313e 1f94 a73e 431e 3e3e
000000d0: 5017 1e3e 79fc 163e dae5 453e 23e8 5d3f
000000e0: 1858 f13e 66a8 3d3c 80cd db3e 5cc8 3d3d
000000f0: c423 263f 9a37 413e 0d65 963d 3885 fb3c
00000100: ec35 393e a580 1c3d 3bd9 133d c4d1 8a3e
00000110: 0400 0000 68b9 933e ffa1 8b3e 4715 f23e
00000120: 86dd a93e 810b 743c 2813 013f f14f e43d
00000130: a3e8 e63e ca8a b43c 2492 8b3e 013b ab3e
00000140: 536a 9c3e 57b0 a43e 72ec 7d3e b953 d93c
00000150: c5e3 fc3e 6d02 943e 151a 373e f98c 9a3e
00000160: 0e16 ad3c 8ae9 d53f 03ed 0e3e 6cee 2a3f
00000170: b418 253d 1317 673d 1ada 5c3c a6d4 c83f
00000180: 8702 203f a1d4 0f3e af2f ad3d 76d4 db3e
00000190: d591 c43e c2e0 1c3e 512e de3f ab48 443f
000001a0: 2293 463d 5f37 183e 0053 0d3f ef94 4b3e
000001b0: c31b 293d 607e bd3e 96c5 d93b e3a4 503c
000001c0: 1b09 3d3c 2e71 d33e 4253 883d c9df 883c
000001d0: 47d6 373c 69fc 283f 9adc d33e ee5d 443e
000001e0: aa11 ce3b 6110 d33e f5b3 a83d 294b f43b
000001f0: 7c25 053d 9512 2d3b 6e40 183f d69b af3e

pool.net.0.0.weight f4 [128, 131]
0.13101563 0.108262986 -0.018863529 -0.0016895474 -0.038455535 0.29775023 -0.1199802 0.09718983
-0.04612464 0.27724105 0.100230746 0.008123223 0.11920126 0.22057194 -0.06972237 -0.027676003
-0.17206483 0.065252654 0.11916389 0.12948807 -0.10086911 -0.09013749 0.030213946 -0.117061496
-0.07277055 0.026541319 -0.053856425 -0.015342196 0.029786669 0.15447727 0.048573967 0.04233077
0.05963162 -0.1783742 -0.14224802 0.09650156 0.34116027 -0.12987521 -0.039635647 0.23384818
-0.046882804 0.08282716 0.05858489 -0.053250726 -0.13022658 0.23049234 -0.03248315 0.054673724
0.112118565 0.023981648 -0.02928004 -0.04025346 0.034861516 0.08398477 -0.114113525 0.13272329
0.0033869804 0.013429306 -0.007849393 -0.009668735 0.03172636 -0.111380495 0.07362813 -0.048596025
-0.046029665 -0.16727217 -0.11847628 0.05411499 0.031730734 -0.047050435 -0.024419451 -0.0687834
-0.013603614 -0.12766087 -0.04893619 0.11098857 -0.026712583 -0.54873973 0.13401489 -0.11836374
0.07574586 -0.11533223 0.14932765 0.09116197 0.0047376957 -0.16005258 -0.17260717 0.017237274
-0.0035321412 0.015460152 0.16156824 0.16712539 -0.23053809 -0.021473018 -0.07842095 0.04772519
-0.029169634 0.032663837 0.05836085 -0.0067235697 -0.105355054 -0.042342424 0.14922845 0.19025904
-0.2285111 -0.04865679 0.09001241 0.024625713 0.0752481 0.028421862 0.21506038 -0.20201302
0.18016295 0.09265249 -0.0009880245 -0.15458193 -0.103643194 0.025480265 0.088778384 0.027834767
0.08678833 -0.0022082555 -0.23036443 -0.056560144 -0.008012555 -0.18040569 0.04986227 0.035423577
0.07462216 0.11948551 0.25638363 0.04403426 0.04889797 0.23571281 -0.26464817 -0.45744148
-0.16142331 0.11886016 0.044500656 -0.05515392 0.030365542 -0.066722564 0.12659384 -0.11219459
-0.24780755 -0.03232203 0.22463188 -0.026549712 0.025734833 0.20395319 -0.5316225 0.39172468
0.3267235 0.49374673 -0.21900184 0.2560598 -0.18054223 0.040350277 -0.24643052 -0.23502849
-0.11494846 -0.12125499 0.1056911 0.10284065 -0.008901805 -0.13014951 -0.012688608 0.0513966
-0.68648875 0.036640182 -0.006477957 -0.20421924 -0.01189235 -0.110596314 -0.028262919 0.18310669
-0.090581946 -0.09509108 -0.015126514 0.020868946 0.07598427 -0.191053 -0.11850267 -0.06407139
-0.2672238 0.1035237 0.0041359765 -0.09691749 -0.027715804 -0.15517843 -0.0142798 0.020720622
-0.09097227 -0.19210808 -0.17191763 0.018207751 -0.42500678 -0.052968383 -0.06285483 -0.124428935
-0.14449525 -0.042674884 0.27749872 0.03265608 0.07462692 -0.01420298 0.033217765 -0.13118264
0.04188709 0.025956606 0.2611403 -0.11544348 -0.15248795 0.06675792 -0.017798483 -0.27518964
-0.19837718 -0.10717637 -0.21800509 0.2949996 -0.055974092 -0.1845875 -0.0051908283 -0.045839775
-0.19224368 0.16277617 0.1542505 -0.48743662 -0.05312652 -0.014991819 -0.29905695 -0.09103499
0.016632114 0.002439665 0.04093471 -0.13576522 -0.19384591 0.2127432 -0.06084124 0.07426986
-0.12376843 0.002019226 0.2272373 -0.06556873 -0.1272342 -0.1682651 0.2310252 -0.30548674
0.011300115 0.25126818 -0.037893035 0.23896226 0.10185124 -0.013394762 0.052313745 0.4730493
00000000: f628 063e fcb8 dd3d b087 9abc ce73 ddba
00000010: 8d83 1dbd b872 983e 2eb8 f5bd 760b c73d
00000020: 31ed 3cbd 8af2 8d3e c745 cd3d 4417 053c
00000030: ca1f f43d 9cdd 613e 9aca 8ebd c9b8 e2bc
00000040: c331 30be 2fa3 853d 330c f43d 8598 043e
00000050: 7794 cebd 019a b8bd 3d83 f73c f0bd efbd
00000060: ba08 95bd 2e6d d93c 8e98 5cbd d65d 7bbc
00000070: 2c03 f43c 4a2f 1e3e 7ff5 463d 0863 2d3d
00000080: 4940 743d baa7 36be 77a9 11be 9ca2 c53d
00000090: 8fac ae3e 02fe 04be fd58 22bd e675 6f3e
000000a0: 2f08 40bd 49a1 a93d b6f6 6f3d 6f1d 5abd
000000b0: 1e5a 05be 2f06 6c3e 0d0d 05bd 8ef1 5f3d
000000c0: 6b9e e53d 2975 c43c b2dc efbc d0e0 24bd
000000d0: f3ca 0e3d 3500 ac3d 5ab4 e9bd 9de8 073e
000000e0: 1af8 5d3b 9806 5c3c be9a 00bc 9d69 1ebc
000000f0: 80f3 013d 751b e4bd 58ca 963d a00c 47bd
00000100: 9a89 3cbd 6549 2bbe b1a3 f2bd aea7 5d3d
00000110: 16f8 013d f5b7 40bd 4d0b c8bc 50de 8cbd
00000120: b1e1 5ebc 88b9 02be 5071 48bd fa4d e33d
00000130: 59d4 dabc 357a 0cbf 333b 093e b068 f2bd
00000140: a520 9b3d 4e33 ecbd 59e9 183e 20b3 ba3d
00000150: ac3e 9b3b d3e4 23be efbf 30be 2f35 8d3c
00000160: 7f7b 67bb 944c 7d3c 2572 253e eb22 2b3e
00000170: 2d12 6cbe 2fe8 afbc 2a9b a0bd 7d7b 433d
00000180: 28f5 eebc 84ca 053d c90b 6f3d 6451 dcbb
00000190: 64c4 d7bd 406f 2dbd 58cf 183e 44d3 423e
000001a0: d0fe 69be 584c 47bd 6d58 b83d ddbb c93c
000001b0: ad1b 9a3d f7d4 e83c ca38 5c3e 80dc 4ebe
000001c0: a37c 383e 97c0 bd3d 9a80 81ba ba4a 1ebe
000001d0: e242 d4bd fdbb d03c 71d1 b53d bd05 e43c
000001e0: 14be b13d 61b8 10bb a7e4 6bbe 9cab 67bd
000001f0: 1747 03bc 45bc 38be 613c 4c3d 5018 113d
00000200: 81d3 983d d2b4 f43d b744 833e 455d 343d
00000210: 3d49 483d b35e 713e f77f 87be c535 eabe
00000220: 274c 25be f56c f33d 5246 363d 14e9 61bd
00000230: 28c1 f83c d7a5 88bd d1a1 013e 47c6 e5bd
00000240: 43c1 7dbe 1b64 04bd e605 663e c87e d9bc
00000250: dbd1 d23c 1bd9 503e 6a18 08bf 2390 c83e
00000260: 4d48 a73e 5fcc fc3e 0542 60be 451a 833e
00000270: 10e0 38be 5546 253d 4858 7cbe 4fab 70be
00000280: 196a ebbd 8954 f8bd 9374 d83d 1e9e d23d
00000290: e0d8 11bc ea45 05be e1e3 4fbc 3e85 523d
000002a0: babd 2fbf 0414 163d 0b45 d4bb d91e 51be
000002b0: 22d8 42bc 5280 e2bd a387 e7bc 5280 3b3e
000002c0: 0783 b9bd 1dbf c2bd 33d5 77bc 5af5 aa3c
000002d0: a49d 9b3d 66a3 43be 87b1 f2bd dc37 83bd
000002e0: 8fd1 88be 3c04 d43d 1687 873b ad7c c6bd
000002f0: 410c e3bc 18e7 1ebe d2f5 69bc 4bbe a93c
00000300: ab4f babd fbb7 44be 2d0b 30be 6c28 953c
00000310: 7d9a d9be 60f5 58bd 08ba 80bd 99d4 febd
00000320: 90f6 13be dccb 2ebd 5014 8e3e 62c2 053d
00000330: 00d6 983d 9eb3 68bc 5a0f 083d be54 06be
00000340: cc91 2b3d f3a2 d43c 2eb4 853e a26d ecbd
00000350: cd25 1cbe 60b8 883d 20ce 91bc a8e5 8cbe
00000360: 6323 4bbe 497f dbbd ba3c 5fbe 300a 973e
00000370: 1745 65bd 8104 3dbe d317 aabb 7dc2 3bbd
00000380: 87db 44be ccae 263e d8f3 1d3e 4b91 f9be
00000390: 329b 59bd 3fa0 75bc fe1d 99be 8e70 babd
000003a0: 1240 883c c9e2 1f3b 28ab 273d 0a06 0bbe
000003b0: 8b7f 46be 5ad9 593e aa34 79bd cc1a 983d
000003c0: 4d7a fdbd fe54 043b e5b0 683e e648 86bd
000003d0: af49 02be b04d 2cbe df91 6c3e c268 9cbe
000003e0: 1e24 393c 39a6 803e ba35 1bbd 86b2 743e
000003f0: 6297 d03d b475 5bbc f046 563d 8533 f23e

pool.net.0.0.bias f4 [128]
-0.00573048 -0.2064979 0.021065278 -0.019777559 0.3264368 0.07565123 -0.042433392 -0.18436551
0.24239597 -0.13555427 0.2471215 -0.41258308 -0.09351892 -0.2165099 -0.18173373 0.5887572
0.17134339 0.5309918 -0.005483398 0.02755174 -0.13790907 0.42486766 -0.045305733 0.35488334
0.09140668 -0.10392598 0.23714973 0.03460533 -0.2325226 0.30763704 -0.16338329 -0.25650835
-0.124955595 -0.20380874 -0.2978149 -0.29729044 -0.044978928 0.5009484 -0.11153921 0.1885097
-0.20863426 -0.1058998 -0.27569956 -0.2073863 -0.058308486 0.4113924 -0.51614743 0.24655385
0.38650167 -0.04995301 -0.1796522 0.6012364 -0.63987935 -0.04747119 -0.24184418 0.44764423
0.097002886 -0.12551929 -0.53485173 0.036700744 0.3122167 -0.12294513 -0.13213967 -0.26348114
0.44713494 -0.15579364 -0.050870996 -0.105476215 0.5716866 0.3909572 0.71177834 0.3923145
-0.12512594 -0.08723161 0.23056644 -0.29213008 -0.2140243 0.12121299 -0.24736932 0.24836831
-0.055641472 0.047431923 0.100446306 0.16847584 0.003791702 -0.286162 -0.0882201 -0.09891793
-0.10420954 0.3779493 -0.19786736 -0.22045116 -0.10594817 -0.06626632 -0.14570317 -0.17916642
-0.14632384 -0.065841824 0.39438134 -0.088792115 -0.22451861 -0.51797026 -0.07243084 -0.62952644
-0.0038462558 0.04233532 0.3867369 0.17889841 0.16518791 0.68455744 0.24860862 0.34448326
-0.17434229 -0.22486304 0.08406652 -0.26117596 -0.21209072 -0.30707595 -0.049892403 0.48873833
-0.2497615 -0.090011574 -0.15276016 -0.16340733 0.4073094 0.4708437 0.31213865 -0.09298234
00000000: c0c6 bbbb 2f74 53be 1791 ac3c 8c04 a2bc
00000010: b922 a73e 08ef 9a3d a3ce 2dbd 50ca 3cbe
00000020: a636 783e bdce 0abe 6b0d 7d3e 173e d3be
00000030: d986 bfbd c5b4 5dbe 6818 3abe cbb8 163f
00000040: a474 2f3e 14ef 073f 14ae b3bb 30b4 e13c
00000050: 0938 0dbe 4188 d93e 8192 39bd 45b3 b53e
00000060: 6d33 bb3d 25d7 d4bd 61d7 723e 52be 0d3d
00000070: 681a 6ebe 9a82 9d3e f34d 27be 1055 83be
00000080: b8e8 ffbd 3db3 50be 327b 98be 7436 98be
00000090: d33b 38bd 283e 003f ab6e e4bd b008 413e
000000a0: 38a4 55be ffe1 d8bd 7e28 8dbe 135d 54be
000000b0: e1d4 6ebd 06a2 d23e 3d22 04bf 9d78 7c3e
000000c0: 8ce3 c53e 879b 4cbd bff6 37be a1ea 193f
000000d0: 22cf 23bf 2771 42bd 00a6 77be a031 e53e
000000e0: 73a9 c63d 2188 00be 0bec 08bf 8553 163d
000000f0: deda 9f3e a8ca fbbd 9f4f 07be 00e7 86be
00000100: dfee e43e 5e88 1fbe 1b5e 50bd ea03 d8bd
00000110: 0e5a 123f 8b2b c83e 1b37 363f 72dd c83e
00000120: 0421 00be 7da6 b2bd 9c19 6c3e 1392 95be
00000130: 3029 5bbe 843e f83d 624e 7dbe 4354 7e3e
00000140: 50e8 63bd fa47 423d cbb6 cd3d ee84 2c3e
00000150: 347e 783b d383 92be bdac b4bd 7c95 cabd
00000160: d06b d5bd 9282 c13e be9d 4abe f3bd 61be
00000170: 5bfb d8bd a3b6 87bd 3633 15be 6777 37be
00000180: ebd5 15be 14d8 86bd 5aec c93e a4d8 b5bd
00000190: 35e8 65be b399 04bf 9f56 94bd a528 21bf
000001a0: 7711 7cbb cd67 2d3d 6102 c63e 2531 373e
000001b0: 0527 293e 283f 2f3f 4293 7e3e 1c60 b03e
000001c0: c986 32be 7f42 66be 112b ac3d dbb8 85be
000001d0: 4f2e 59be 0f39 9dbe fa5b 4cbd e93b fa3e
000001e0: 7bc1 7fbe fd57 b8bd 296d 1cbe 4054 27be
000001f0: dc8a d03e 6d12 f13e a3d0 9f3e 866d bebd

pool.net.0.2.weight f4 [128]
0.50345343 0.9964737 1.122461 0.17154837 1.0223752 1.2084553 1.1777822 1.1654363
0.72341794 0.8831125 0.7037199 1.0965884 0.73432773 1.1261332 1.1167855 0.63969016
0.9645572 0.97082037 1.0660675 0.5879056 0.96030396 0.89228296 1.0847875 0.91156334
0.710461 0.7705542 1.0430973 1.038007 1.5082892 0.84538615 1.1320738 0.9369261
1.0465249 1.1732532 1.2161591 0.84017503 0.7341247 0.8217168 0.8978539 1.3178104
1.0050675 0.89931387 0.9601989 1.151906 0.6299222 0.9159635 0.962731 0.9611378
0.8670178 0.6412245 0.6621522 0.9736573 1.1115762 0.7003075 0.8057142 0.9780001
1.105392 0.73574 1.16558 1.0497693 1.0737215 1.087684 0.7970175 0.7374842
1.1741904 0.833411 1.1797897 0.90515596 0.9533394 0.8436927 0.78919595 0.8430684
1.1304679 0.74896044 0.7440778 1.1648952 0.89173615 0.5271649 1.201385 1.0980111
1.021643 0.87708056 1.2941185 0.60549694 0.9235978 1.1545304 1.1158167 1.094141
0.9395496 0.8173092 0.9958423 0.50844646 0.8774875 0.7354284 0.7233754 0.8797066
1.2279418 0.5175771 0.97997725 1.1669194 1.0515158 1.2665061 1.0167568 1.0121973
0.92729694 0.99825025 0.7213734 0.9816093 0.9281281 0.6961862 0.96525073 0.9055088
1.0341849 1.1456487 1.2467585 0.97201455 0.80070734 0.87443066 0.7928244 0.78194475
0.71263915 1.1711628 0.9100006 1.1195184 1.031451 0.7156156 1.0115777 1.1565424
00000000: 53e2 003f e718 7f3f cdac 8f3f 60aa 2f3e
00000010: 31dd 823f aaae 9a3f 91c1 963f 042d 953f
00000020: eb31 393f a913 623f fd26 343f 025d 8c3f
00000030: e7fc 3b3f 2225 903f d4f2 8e3f bcc2 233f
00000040: 38ed 763f af87 783f e674 883f fb80 163f
00000050: 7bd6 753f a86c 643f 51da 8a3f 375c 693f
00000060: c6e0 353f 0a43 453f 3684 853f 6add 843f
00000070: 9f0f c13f 3a6b 583f cbe7 903f 64da 6f3f
00000080: 87f4 853f 292d 963f 1aab 9b3f b615 573f
00000090: 99ef 3b3f 085c 523f c1d9 653f 03ae a83f
000000a0: 0da6 803f 6f39 663f 98cf 753f a871 933f
000000b0: 9542 213f 957c 6a3f 8a75 763f 200d 763f
000000c0: e1f4 5d3f 4a27 243f ce82 293f 9b41 793f
000000d0: 2148 8e3f 5a47 333f 4943 4e3f 375e 7a3f
000000e0: 7c7d 8d3f 7559 3c3f ba31 953f d75e 863f
000000f0: b56f 893f 3b39 8b3f 5709 4c3f c4cb 3c3f
00000100: df4b 963f 6c5a 553f 5903 973f 4db8 673f
00000110: 0d0e 743f 3ffc 573f bf08 4a3f 55d3 573f
00000120: 2cb3 903f dfbb 3f3f e27b 3e3f 491b 953f
00000130: d248 643f 47f4 063f fcc6 993f a18b 8c3f
00000140: 33c5 823f 5a88 603f ada5 a53f d901 1b3f
00000150: e870 6c3f a7c7 933f 15d3 8e3f d00c 8c3f
00000160: 5386 703f 2d3b 513f 85ef 7e3f 8c29 023f
00000170: 05a3 603f 0945 3c3f 212f 393f 7434 613f
00000180: 322d 9d3f ef7f 043f cadf 7a3f 9d5d 953f
00000190: 1298 863f df1c a23f 1625 823f ae8f 813f
000001a0: 5563 6d3f 548d 7f3f edab 383f bf4a 7b3f
000001b0: ce99 6d3f 4239 323f ac1a 773f 6dcf 673f
000001c0: 2c60 843f 9ea4 923f c895 9f3f f2d5 783f
000001d0: 28fb 4c3f b0da 5f3f 8af6 4a3f 882d 483f
000001e0: 856f 363f aae8 953f cdf5 683f 614c 8f3f
000001f0: 9606 843f 9532 373f 617b 813f 9509 943f

pool.net.0.2.bias f4 [128]
-0.42923513 0.14779884 -0.2550256 -0.089267634 0.49998865 -0.85998136 -1.0595007 -0.8934763
0.55855817 -0.41054493 0.4265585 -0.7246915 -0.026330452 -0.8830288 -1.0620344 0.5047646
0.07437353 0.5426308 -0.8514389 -0.7015407 -0.6793825 0.41960979 -0.5547465 0.6212047
-0.6285576 -0.54009575 0.41185698 -0.836867 -0.31716537 0.6123863 0.023205347 -0.59550685
-0.71521384 -0.9092784 -0.83156127 -0.42419964 -0.22410056 0.5189036 -0.49406412 -0.7411929
-0.4610262 -0.040991385 -0.55321705 -0.5579648 -0.41669595 0.48760206 -0.7932098 0.5964745
-0.37227812 -0.7327462 -0.4169375 0.5767925 -0.54145336 -0.25811076 -0.42287466 0.51463324
-1.0238739 -0.7148441 -0.7669581 -0.8660009 -0.882341 -0.9026629 -0.49302098 -0.67489
-0.6651324 -0.5399651 -0.034978192 -0.47210318 0.3095245 0.54511374 0.42541695 0.17240076
-0.989934 -0.28284156 0.12296025 -0.7875241 -0.44861224 -0.35381344 -0.9681094 -0.8715016
-0.63683283 0.035952196 -0.100670345 0.16469 -0.004295003 -0.66233236 -0.94320685 -0.7868308
-0.5280006 0.048843037 -0.6905115 -0.25201243 0.48337278 -0.5350806 0.34683934 -0.66368496
-0.8249511 -0.7620372 0.23766479 -0.8624094 -0.67217296 0.53753424 -0.8544127 -0.49539956
0.342545 0.12507428 0.36144683 0.5239351 0.4473896 0.55162066 0.43884104 0.56799763
-0.8285957 -0.9595282 -1.0184349 -0.842194 -0.15987128 -0.82820857 -0.87244946 0.50776047
0.15528029 -0.86619157 0.30811134 -0.7125178 0.5040562 0.15760843 0.39190945 -0.83576775
00000000: b5c4 dbbe 9458 173e b792 82be f3d1 b6bd
00000010: 83fe ff3e bd27 5cbf b89d 87bf ddba 64bf
00000020: abfd 0e3f f232 d2be e065 da3e 6285 39bf
00000030: f6b2 d7bc 2d0e 62bf bef0 87bf 4138 013f
00000040: 2651 983d dae9 0a3f e6f7 59bf 2c98 33bf
00000050: 03ec 2dbf 18d7 d63e de03 0ebf 4507 1f3f
00000060: 27e9 20bf b743 0abf ebde d23e ea3c 56bf
00000070: 8063 a2be 59c5 1c3f 2419 be3c 2373 18bf
00000080: 4118 37bf 78c6 68bf 33e1 54bf b230 d9be
00000090: 9e7a 65be ded6 043f f9f5 fcbe d1be 3dbf
000000a0: a00b ecbe 95e6 27bd a29f 0dbf c8d6 0ebf
000000b0: 2c59 d5be faa6 f93e cc0f 4bbf 8eb2 183f
000000c0: 3d9b bebe 4195 3bbf d578 d5be aca8 133f
000000d0: b09c 0abf 1827 84be 0783 d8be 01bf 033f
000000e0: 4d0e 83bf 0600 37bf 5e57 44bf 3cb2 5dbf
000000f0: 1ae1 61bf ea14 67bf 3f6d fcbe 97c5 2cbf
00000100: 1e46 2abf 273b 0abf 4b45 0fbd 82b7 f1be
00000110: ff79 9e3e 938c 0b3f 40d0 d93e d389 303e
00000120: 516c 7dbf 9cd0 90be 95d2 fb3d 2e9b 49bf
00000130: 81b0 e5be 0927 b5be 05d6 77bf bb1a 5fbf
00000140: 7a07 23bf 9c42 133d 412c cebd 7fa4 283e
00000150: 19bd 8cbb 9d8e 29bf 0176 71bf be6d 49bf
00000160: 0c2b 07bf a30f 483d 5dc5 30bf c607 81be
00000170: a37c f73e 0bfb 08bf ed94 b13e 42e7 29bf
00000180: ff2f 53bf df14 43bf 665e 733e ddc6 5cbf
00000190: 8713 2cbf d89b 093f caba 5abf 03a5 fdbe
000001a0: 0f62 af3e 7913 003e 8f0f b93e 9c20 063f
000001b0: 4010 e53e 0337 0d3f c6af e03e 4b68 113f
000001c0: d91e 54bf a4a3 75bf 135c 82bf 079a 57bf
000001d0: 4cb5 23be 7a05 54bf d958 5fbf 97fc 013f
000001e0: cc01 1f3e bbbe 5dbf c5c0 9d3e 9167 36bf
000001f0: d409 013f 1b64 213e 5ba8 c83e e0f4 55bf
